…
I0416 23:00:51.572984  1504 net.cpp:294] The NetState phase (0) differed from the phase (1) specified by a rule in layer data
I0416 23:00:51.572984  1504 net.cpp:51] Initializing net from parameters: 
state {
  phase: TRAIN
  level: 0
  stage: ""
}
layer {
  name: "data"
  type: "Data"
  top: "data"
  top: "label"
  include {
    phase: TRAIN
  }
  transform_param {
    mirror: true
    mean_file: "D:/ML/COMP551/Project4/models/cifar10/mean_file/mean.binaryproto"
  }
  data_param {
    source: "D:/ML/COMP551/Project4/models/cifar10/cifar10_train_leveldb"
    batch_size: 100
    backend: LEVELDB
  }
}
layer {
  name: "conv1"
  type: "Convolution"
  bottom: "data"
  top: "conv1"
  convolution_param {
    num_output: 96
    kernel_size: 7
    stride: 2
    weight_filler {
      type: "xavier"
    }
  }
}
layer {
  name: "relu_conv1"
  type: "ReLU"
  bottom: "conv1"
  top: "conv1"
}
layer {
  name: "pool1"
  type: "Pooling"
  bottom: "conv1"
  top: "pool1"
  pooling_param {
    pool: MAX
    kernel_size: 3
    stride: 2
  }
}
layer {
  name: "fire2/squeeze1x1"
  type: "Convolution"
  bottom: "pool1"
  top: "fire2/squeeze1x1"
  convolution_param {
    num_output: 16
    kernel_size: 1
    weight_filler {
      type: "xavier"
    }
  }
}
layer {
  name: "fire2/relu_squeeze1x1"
  type: "ReLU"
  bottom: "fire2/squeeze1x1"
  top: "fire2/squeeze1x1"
}
layer {
  name: "fire2/expand1x1"
  type: "Convolution"
  bottom: "fire2/squeeze1x1"
  top: "fire2/expand1x1"
  convolution_param {
    num_output: 64
    kernel_size: 1
    weight_filler {
      type: "xavier"
    }
  }
}
layer {
  name: "fire2/relu_expand1x1"
  type: "ReLU"
  bottom: "fire2/expand1x1"
  top: "fire2/expand1x1"
}
layer {
  name: "fire2/expand3x3"
  type: "Convolution"
  bottom: "fire2/squeeze1x1"
  top: "fire2/expand3x3"
  convolution_param {
    num_output: 64
    pad: 1
    kernel_size: 3
    weight_filler {
      type: "xavier"
    }
  }
}
layer {
  name: "fire2/relu_expand3x3"
  type: "ReLU"
  bottom: "fire2/expand3x3"
  top: "fire2/expand3x3"
}
layer {
  name: "fire2/concat"
  type: "Concat"
  bottom: "fire2/expand1x1"
  bottom: "fire2/expand3x3"
  top: "fire2/concat"
}
layer {
  name: "fire3/squeeze1x1"
  type: "Convolution"
  bottom: "fire2/concat"
  top: "fire3/squeeze1x1"
  convolution_param {
    num_output: 16
    kernel_size: 1
    weight_filler {
      type: "xavier"
    }
  }
}
layer {
  name: "fire3/relu_squeeze1x1"
  type: "ReLU"
  bottom: "fire3/squeeze1x1"
  top: "fire3/squeeze1x1"
}
layer {
  name: "fire3/expand1x1"
  type: "Convolution"
  bottom: "fire3/squeeze1x1"
  top: "fire3/expand1x1"
  convolution_param {
    num_output: 64
    kernel_size: 1
    weight_filler {
      type: "xavier"
    }
  }
}
layer {
  name: "fire3/relu_expand1x1"
  type: "ReLU"
  bottom: "fire3/expand1x1"
  top: "fire3/expand1x1"
}
layer {
  name: "fire3/expand3x3"
  type: "Convolution"
  bottom: "fire3/squeeze1x1"
  top: "fire3/expand3x3"
  convolution_param {
    num_output: 64
    pad: 1
    kernel_size: 3
    weight_filler {
      type: "xavier"
    }
  }
}
layer {
  name: "fire3/relu_expand3x3"
  type: "ReLU"
  bottom: "fire3/expand3x3"
  top: "fire3/expand3x3"
}
layer {
  name: "fire3/concat"
  type: "Concat"
  bottom: "fire3/expand1x1"
  bottom: "fire3/expand3x3"
  top: "fire3/concat"
}
layer {
  name: "fire4/squeeze1x1"
  type: "Convolution"
  bottom: "fire3/concat"
  top: "fire4/squeeze1x1"
  convolution_param {
    num_output: 32
    kernel_size: 1
    weight_filler {
      type: "xavier"
    }
  }
}
layer {
  name: "fire4/relu_squeeze1x1"
  type: "ReLU"
  bottom: "fire4/squeeze1x1"
  top: "fire4/squeeze1x1"
}
layer {
  name: "fire4/expand1x1"
  type: "Convolution"
  bottom: "fire4/squeeze1x1"
  top: "fire4/expand1x1"
  convolution_param {
    num_output: 128
    kernel_size: 1
    weight_filler {
      type: "xavier"
    }
  }
}
layer {
  name: "fire4/relu_expand1x1"
  type: "ReLU"
  bottom: "fire4/expand1x1"
  top: "fire4/expand1x1"
}
layer {
  name: "fire4/expand3x3"
  type: "Convolution"
  bottom: "fire4/squeeze1x1"
  top: "fire4/expand3x3"
  convolution_param {
    num_output: 128
    pad: 1
    kernel_size: 3
    weight_filler {
      type: "xavier"
    }
  }
}
layer {
  name: "fire4/relu_expand3x3"
  type: "ReLU"
  bottom: "fire4/expand3x3"
  top: "fire4/expand3x3"
}
layer {
  name: "fire4/concat"
  type: "Concat"
  bottom: "fire4/expand1x1"
  bottom: "fire4/expand3x3"
  top: "fire4/concat"
}
layer {
  name: "pool4"
  type: "Pooling"
  bottom: "fire4/concat"
  top: "pool4"
  pooling_param {
    pool: MAX
    kernel_size: 3
    stride: 2
  }
}
layer {
  name: "fire5/squeeze1x1"
  type: "Convolution"
  bottom: "pool4"
  top: "fire5/squeeze1x1"
  convolution_param {
    num_output: 32
    kernel_size: 1
    weight_filler {
      type: "xavier"
    }
  }
}
layer {
  name: "fire5/relu_squeeze1x1"
  type: "ReLU"
  bottom: "fire5/squeeze1x1"
  top: "fire5/squeeze1x1"
}
layer {
  name: "fire5/expand1x1"
  type: "Convolution"
  bottom: "fire5/squeeze1x1"
  top: "fire5/expand1x1"
  convolution_param {
    num_output: 128
    kernel_size: 1
    weight_filler {
      type: "xavier"
    }
  }
}
layer {
  name: "fire5/relu_expand1x1"
  type: "ReLU"
  bottom: "fire5/expand1x1"
  top: "fire5/expand1x1"
}
layer {
  name: "fire5/expand3x3"
  type: "Convolution"
  bottom: "fire5/squeeze1x1"
  top: "fire5/expand3x3"
  convolution_param {
    num_output: 128
    pad: 1
    kernel_size: 3
    weight_filler {
      type: "xavier"
    }
  }
}
layer {
  name: "fire5/relu_expand3x3"
  type: "ReLU"
  bottom: "fire5/expand3x3"
  top: "fire5/expand3x3"
}
layer {
  name: "fire5/concat"
  type: "Concat"
  bottom: "fire5/expand1x1"
  bottom: "fire5/expand3x3"
  top: "fire5/concat"
}
layer {
  name: "fire6/squeeze1x1"
  type: "Convolution"
  bottom: "fire5/concat"
  top: "fire6/squeeze1x1"
  convolution_param {
    num_output: 48
    kernel_size: 1
    weight_filler {
      type: "xavier"
    }
  }
}
layer {
  name: "fire6/relu_squeeze1x1"
  type: "ReLU"
  bottom: "fire6/squeeze1x1"
  top: "fire6/squeeze1x1"
}
layer {
  name: "fire6/expand1x1"
  type: "Convolution"
  bottom: "fire6/squeeze1x1"
  top: "fire6/expand1x1"
  convolution_param {
    num_output: 192
    kernel_size: 1
    weight_filler {
      type: "xavier"
    }
  }
}
layer {
  name: "fire6/relu_expand1x1"
  type: "ReLU"
  bottom: "fire6/expand1x1"
  top: "fire6/expand1x1"
}
layer {
  name: "fire6/expand3x3"
  type: "Convolution"
  bottom: "fire6/squeeze1x1"
  top: "fire6/expand3x3"
  convolution_param {
    num_output: 192
    pad: 1
    kernel_size: 3
    weight_filler {
      type: "xavier"
    }
  }
}
layer {
  name: "fire6/relu_expand3x3"
  type: "ReLU"
  bottom: "fire6/expand3x3"
  top: "fire6/expand3x3"
}
layer {
  name: "fire6/concat"
  type: "Concat"
  bottom: "fire6/expand1x1"
  bottom: "fire6/expand3x3"
  top: "fire6/concat"
}
layer {
  name: "fire7/squeeze1x1"
  type: "Convolution"
  bottom: "fire6/concat"
  top: "fire7/squeeze1x1"
  convolution_param {
    num_output: 48
    kernel_size: 1
    weight_filler {
      type: "xavier"
    }
  }
}
layer {
  name: "fire7/relu_squeeze1x1"
  type: "ReLU"
  bottom: "fire7/squeeze1x1"
  top: "fire7/squeeze1x1"
}
layer {
  name: "fire7/expand1x1"
  type: "Convolution"
  bottom: "fire7/squeeze1x1"
  top: "fire7/expand1x1"
  convolution_param {
    num_output: 192
    kernel_size: 1
    weight_filler {
      type: "xavier"
    }
  }
}
layer {
  name: "fire7/relu_expand1x1"
  type: "ReLU"
  bottom: "fire7/expand1x1"
  top: "fire7/expand1x1"
}
layer {
  name: "fire7/expand3x3"
  type: "Convolution"
  bottom: "fire7/squeeze1x1"
  top: "fire7/expand3x3"
  convolution_param {
    num_output: 192
    pad: 1
    kernel_size: 3
    weight_filler {
      type: "xavier"
    }
  }
}
layer {
  name: "fire7/relu_expand3x3"
  type: "ReLU"
  bottom: "fire7/expand3x3"
  top: "fire7/expand3x3"
}
layer {
  name: "fire7/concat"
  type: "Concat"
  bottom: "fire7/expand1x1"
  bottom: "fire7/expand3x3"
  top: "fire7/concat"
}
layer {
  name: "fire8/squeeze1x1"
  type: "Convolution"
  bottom: "fire7/concat"
  top: "fire8/squeeze1x1"
  convolution_param {
    num_output: 64
    kernel_size: 1
    weight_filler {
      type: "xavier"
    }
  }
}
layer {
  name: "fire8/relu_squeeze1x1"
  type: "ReLU"
  bottom: "fire8/squeeze1x1"
  top: "fire8/squeeze1x1"
}
layer {
  name: "fire8/expand1x1"
  type: "Convolution"
  bottom: "fire8/squeeze1x1"
  top: "fire8/expand1x1"
  convolution_param {
    num_output: 256
    kernel_size: 1
    weight_filler {
      type: "xavier"
    }
  }
}
layer {
  name: "fire8/relu_expand1x1"
  type: "ReLU"
  bottom: "fire8/expand1x1"
  top: "fire8/expand1x1"
}
layer {
  name: "fire8/expand3x3"
  type: "Convolution"
  bottom: "fire8/squeeze1x1"
  top: "fire8/expand3x3"
  convolution_param {
    num_output: 256
    pad: 1
    kernel_size: 3
    weight_filler {
      type: "xavier"
    }
  }
}
layer {
  name: "fire8/relu_expand3x3"
  type: "ReLU"
  bottom: "fire8/expand3x3"
  top: "fire8/expand3x3"
}
layer {
  name: "fire8/concat"
  type: "Concat"
  bottom: "fire8/expand1x1"
  bottom: "fire8/expand3x3"
  top: "fire8/concat"
}
layer {
  name: "pool8"
  type: "Pooling"
  bottom: "fire8/concat"
  top: "pool8"
  pooling_param {
    pool: MAX
    kernel_size: 3
    stride: 2
  }
}
layer {
  name: "fire9/squeeze1x1"
  type: "Convolution"
  bottom: "pool8"
  top: "fire9/squeeze1x1"
  convolution_param {
    num_output: 64
    kernel_size: 1
    weight_filler {
      type: "xavier"
    }
  }
}
layer {
  name: "fire9/relu_squeeze1x1"
  type: "ReLU"
  bottom: "fire9/squeeze1x1"
  top: "fire9/squeeze1x1"
}
layer {
  name: "fire9/expand1x1"
  type: "Convolution"
  bottom: "fire9/squeeze1x1"
  top: "fire9/expand1x1"
  convolution_param {
    num_output: 256
    kernel_size: 1
    weight_filler {
      type: "xavier"
    }
  }
}
layer {
  name: "fire9/relu_expand1x1"
  type: "ReLU"
  bottom: "fire9/expand1x1"
  top: "fire9/expand1x1"
}
layer {
  name: "fire9/expand3x3"
  type: "Convolution"
  bottom: "fire9/squeeze1x1"
  top: "fire9/expand3x3"
  convolution_param {
    num_output: 256
    pad: 1
    kernel_size: 3
    weight_filler {
      type: "xavier"
    }
  }
}
layer {
  name: "fire9/relu_expand3x3"
  type: "ReLU"
  bottom: "fire9/expand3x3"
  top: "fire9/expand3x3"
}
layer {
  name: "fire9/concat"
  type: "Concat"
  bottom: "fire9/expand1x1"
  bottom: "fire9/expand3x3"
  top: "fire9/concat"
}
layer {
  name: "drop9"
  type: "Dropout"
  bottom: "fire9/concat"
  top: "fire9/concat"
  dropout_param {
    dropout_ratio: 0.5
  }
}
layer {
  name: "conv10_modified"
  type: "Convolution"
  bottom: "fire9/concat"
  top: "conv10"
  convolution_param {
    num_output: 10
    pad: 1
    kernel_size: 1
    weight_filler {
      type: "gaussian"
      mean: 0
      std: 0.01
    }
  }
}
layer {
  name: "relu_conv10"
  type: "ReLU"
  bottom: "conv10"
  top: "conv10"
}
layer {
  name: "pool10"
  type: "Pooling"
  bottom: "conv10"
  top: "pool10"
  pooling_param {
    pool: AVE
    global_pooling: true
  }
}
layer {
  name: "loss"
  type: "SoftmaxWithLoss"
  bottom: "pool10"
  bottom: "label"
  top: "loss"
  include {
    phase: TRAIN
  }
}
layer {
  name: "accuracy"
  type: "Accuracy"
  bottom: "pool10"
  bottom: "label"
  top: "accuracy"
  include {
  }
}
layer {
  name: "accuracy_top5"
  type: "Accuracy"
  bottom: "pool10"
  bottom: "label"
  top: "accuracy_top5"
  include {
  }
  accuracy_param {
    top_k: 5
  }
}
I0416 23:00:51.575978  1504 layer_factory.cpp:58] Creating layer data
I0416 23:00:51.620146  1504 db_leveldb.cpp:18] Opened leveldb D:/ML/COMP551/Project4/models/cifar10/cifar10_train_leveldb
I0416 23:00:51.622143  1504 net.cpp:84] Creating Layer data
I0416 23:00:51.622143  1504 net.cpp:380] data -> data
I0416 23:00:51.622143  1504 net.cpp:380] data -> label
I0416 23:00:51.622143  1504 data_transformer.cpp:25] Loading mean file from: D:/ML/COMP551/Project4/models/cifar10/mean_file/mean.binaryproto
I0416 23:00:51.630250  1504 common.cpp:36] System entropy source not available, using fallback algorithm to generate seed instead.
I0416 23:00:51.630250  1504 data_layer.cpp:45] output data size: 100,3,32,32
I0416 23:00:51.636104  1504 net.cpp:122] Setting up data
I0416 23:00:51.636104  1504 net.cpp:129] Top shape: 100 3 32 32 (307200)
I0416 23:00:51.636104  1504 net.cpp:129] Top shape: 100 (100)
I0416 23:00:51.636104  1504 net.cpp:137] Memory required for data: 1229200
I0416 23:00:51.636104  1504 layer_factory.cpp:58] Creating layer label_data_1_split
I0416 23:00:51.637102  1504 net.cpp:84] Creating Layer label_data_1_split
I0416 23:00:51.637125  1504 net.cpp:406] label_data_1_split <- label
I0416 23:00:51.637125  1504 net.cpp:380] label_data_1_split -> label_data_1_split_0
I0416 23:00:51.637125  1504 net.cpp:380] label_data_1_split -> label_data_1_split_1
I0416 23:00:51.637125  1504 net.cpp:380] label_data_1_split -> label_data_1_split_2
I0416 23:00:51.637125  1504 net.cpp:122] Setting up label_data_1_split
I0416 23:00:51.637125  1504 net.cpp:129] Top shape: 100 (100)
I0416 23:00:51.637125  1504 net.cpp:129] Top shape: 100 (100)
I0416 23:00:51.637125  1504 net.cpp:129] Top shape: 100 (100)
I0416 23:00:51.637125  1504 net.cpp:137] Memory required for data: 1230400
I0416 23:00:51.637125  1504 layer_factory.cpp:58] Creating layer conv1
I0416 23:00:51.637125  1504 net.cpp:84] Creating Layer conv1
I0416 23:00:51.637125  1504 net.cpp:406] conv1 <- data
I0416 23:00:51.637125  1504 net.cpp:380] conv1 -> conv1
I0416 23:00:51.637125 17728 common.cpp:36] System entropy source not available, using fallback algorithm to generate seed instead.
I0416 23:00:52.968281  1504 net.cpp:122] Setting up conv1
I0416 23:00:52.968281  1504 net.cpp:129] Top shape: 100 96 13 13 (1622400)
I0416 23:00:52.968281  1504 net.cpp:137] Memory required for data: 7720000
I0416 23:00:52.968281  1504 layer_factory.cpp:58] Creating layer relu_conv1
I0416 23:00:52.969278  1504 net.cpp:84] Creating Layer relu_conv1
I0416 23:00:52.969278  1504 net.cpp:406] relu_conv1 <- conv1
I0416 23:00:52.969278  1504 net.cpp:367] relu_conv1 -> conv1 (in-place)
I0416 23:00:52.969693  1504 net.cpp:122] Setting up relu_conv1
I0416 23:00:52.969693  1504 net.cpp:129] Top shape: 100 96 13 13 (1622400)
I0416 23:00:52.969693  1504 net.cpp:137] Memory required for data: 14209600
I0416 23:00:52.969693  1504 layer_factory.cpp:58] Creating layer pool1
I0416 23:00:52.969693  1504 net.cpp:84] Creating Layer pool1
I0416 23:00:52.970275  1504 net.cpp:406] pool1 <- conv1
I0416 23:00:52.970275  1504 net.cpp:380] pool1 -> pool1
I0416 23:00:52.970275  1504 net.cpp:122] Setting up pool1
I0416 23:00:52.970275  1504 net.cpp:129] Top shape: 100 96 6 6 (345600)
I0416 23:00:52.970275  1504 net.cpp:137] Memory required for data: 15592000
I0416 23:00:52.970275  1504 layer_factory.cpp:58] Creating layer fire2/squeeze1x1
I0416 23:00:52.970275  1504 net.cpp:84] Creating Layer fire2/squeeze1x1
I0416 23:00:52.970275  1504 net.cpp:406] fire2/squeeze1x1 <- pool1
I0416 23:00:52.970275  1504 net.cpp:380] fire2/squeeze1x1 -> fire2/squeeze1x1
I0416 23:00:52.973276  1504 net.cpp:122] Setting up fire2/squeeze1x1
I0416 23:00:52.973276  1504 net.cpp:129] Top shape: 100 16 6 6 (57600)
I0416 23:00:52.973276  1504 net.cpp:137] Memory required for data: 15822400
I0416 23:00:52.973276  1504 layer_factory.cpp:58] Creating layer fire2/relu_squeeze1x1
I0416 23:00:52.973276  1504 net.cpp:84] Creating Layer fire2/relu_squeeze1x1
I0416 23:00:52.973276  1504 net.cpp:406] fire2/relu_squeeze1x1 <- fire2/squeeze1x1
I0416 23:00:52.973276  1504 net.cpp:367] fire2/relu_squeeze1x1 -> fire2/squeeze1x1 (in-place)
I0416 23:00:52.973276  1504 net.cpp:122] Setting up fire2/relu_squeeze1x1
I0416 23:00:52.973276  1504 net.cpp:129] Top shape: 100 16 6 6 (57600)
I0416 23:00:52.973276  1504 net.cpp:137] Memory required for data: 16052800
I0416 23:00:52.973276  1504 layer_factory.cpp:58] Creating layer fire2/squeeze1x1_fire2/relu_squeeze1x1_0_split
I0416 23:00:52.973276  1504 net.cpp:84] Creating Layer fire2/squeeze1x1_fire2/relu_squeeze1x1_0_split
I0416 23:00:52.973276  1504 net.cpp:406] fire2/squeeze1x1_fire2/relu_squeeze1x1_0_split <- fire2/squeeze1x1
I0416 23:00:52.974265  1504 net.cpp:380] fire2/squeeze1x1_fire2/relu_squeeze1x1_0_split -> fire2/squeeze1x1_fire2/relu_squeeze1x1_0_split_0
I0416 23:00:52.974265  1504 net.cpp:380] fire2/squeeze1x1_fire2/relu_squeeze1x1_0_split -> fire2/squeeze1x1_fire2/relu_squeeze1x1_0_split_1
I0416 23:00:52.974265  1504 net.cpp:122] Setting up fire2/squeeze1x1_fire2/relu_squeeze1x1_0_split
I0416 23:00:52.974265  1504 net.cpp:129] Top shape: 100 16 6 6 (57600)
I0416 23:00:52.974265  1504 net.cpp:129] Top shape: 100 16 6 6 (57600)
I0416 23:00:52.974265  1504 net.cpp:137] Memory required for data: 16513600
I0416 23:00:52.974265  1504 layer_factory.cpp:58] Creating layer fire2/expand1x1
I0416 23:00:52.974265  1504 net.cpp:84] Creating Layer fire2/expand1x1
I0416 23:00:52.974265  1504 net.cpp:406] fire2/expand1x1 <- fire2/squeeze1x1_fire2/relu_squeeze1x1_0_split_0
I0416 23:00:52.974265  1504 net.cpp:380] fire2/expand1x1 -> fire2/expand1x1
I0416 23:00:52.978255  1504 net.cpp:122] Setting up fire2/expand1x1
I0416 23:00:52.978255  1504 net.cpp:129] Top shape: 100 64 6 6 (230400)
I0416 23:00:52.978255  1504 net.cpp:137] Memory required for data: 17435200
I0416 23:00:52.978255  1504 layer_factory.cpp:58] Creating layer fire2/relu_expand1x1
I0416 23:00:52.978255  1504 net.cpp:84] Creating Layer fire2/relu_expand1x1
I0416 23:00:52.978255  1504 net.cpp:406] fire2/relu_expand1x1 <- fire2/expand1x1
I0416 23:00:52.978255  1504 net.cpp:367] fire2/relu_expand1x1 -> fire2/expand1x1 (in-place)
I0416 23:00:52.979300  1504 net.cpp:122] Setting up fire2/relu_expand1x1
I0416 23:00:52.979300  1504 net.cpp:129] Top shape: 100 64 6 6 (230400)
I0416 23:00:52.979300  1504 net.cpp:137] Memory required for data: 18356800
I0416 23:00:52.979300  1504 layer_factory.cpp:58] Creating layer fire2/expand3x3
I0416 23:00:52.979300  1504 net.cpp:84] Creating Layer fire2/expand3x3
I0416 23:00:52.979300  1504 net.cpp:406] fire2/expand3x3 <- fire2/squeeze1x1_fire2/relu_squeeze1x1_0_split_1
I0416 23:00:52.979300  1504 net.cpp:380] fire2/expand3x3 -> fire2/expand3x3
I0416 23:00:52.982244  1504 net.cpp:122] Setting up fire2/expand3x3
I0416 23:00:52.982244  1504 net.cpp:129] Top shape: 100 64 6 6 (230400)
I0416 23:00:52.982244  1504 net.cpp:137] Memory required for data: 19278400
I0416 23:00:52.982244  1504 layer_factory.cpp:58] Creating layer fire2/relu_expand3x3
I0416 23:00:52.982244  1504 net.cpp:84] Creating Layer fire2/relu_expand3x3
I0416 23:00:52.982244  1504 net.cpp:406] fire2/relu_expand3x3 <- fire2/expand3x3
I0416 23:00:52.982244  1504 net.cpp:367] fire2/relu_expand3x3 -> fire2/expand3x3 (in-place)
I0416 23:00:52.983242  1504 net.cpp:122] Setting up fire2/relu_expand3x3
I0416 23:00:52.983242  1504 net.cpp:129] Top shape: 100 64 6 6 (230400)
I0416 23:00:52.983242  1504 net.cpp:137] Memory required for data: 20200000
I0416 23:00:52.983242  1504 layer_factory.cpp:58] Creating layer fire2/concat
I0416 23:00:52.983242  1504 net.cpp:84] Creating Layer fire2/concat
I0416 23:00:52.983242  1504 net.cpp:406] fire2/concat <- fire2/expand1x1
I0416 23:00:52.983242  1504 net.cpp:406] fire2/concat <- fire2/expand3x3
I0416 23:00:52.983242  1504 net.cpp:380] fire2/concat -> fire2/concat
I0416 23:00:52.983242  1504 net.cpp:122] Setting up fire2/concat
I0416 23:00:52.983242  1504 net.cpp:129] Top shape: 100 128 6 6 (460800)
I0416 23:00:52.983242  1504 net.cpp:137] Memory required for data: 22043200
I0416 23:00:52.983242  1504 layer_factory.cpp:58] Creating layer fire3/squeeze1x1
I0416 23:00:52.983242  1504 net.cpp:84] Creating Layer fire3/squeeze1x1
I0416 23:00:52.983242  1504 net.cpp:406] fire3/squeeze1x1 <- fire2/concat
I0416 23:00:52.983242  1504 net.cpp:380] fire3/squeeze1x1 -> fire3/squeeze1x1
I0416 23:00:52.986233  1504 net.cpp:122] Setting up fire3/squeeze1x1
I0416 23:00:52.986233  1504 net.cpp:129] Top shape: 100 16 6 6 (57600)
I0416 23:00:52.986233  1504 net.cpp:137] Memory required for data: 22273600
I0416 23:00:52.987231  1504 layer_factory.cpp:58] Creating layer fire3/relu_squeeze1x1
I0416 23:00:52.987231  1504 net.cpp:84] Creating Layer fire3/relu_squeeze1x1
I0416 23:00:52.987231  1504 net.cpp:406] fire3/relu_squeeze1x1 <- fire3/squeeze1x1
I0416 23:00:52.987231  1504 net.cpp:367] fire3/relu_squeeze1x1 -> fire3/squeeze1x1 (in-place)
I0416 23:00:52.988277  1504 net.cpp:122] Setting up fire3/relu_squeeze1x1
I0416 23:00:52.988277  1504 net.cpp:129] Top shape: 100 16 6 6 (57600)
I0416 23:00:52.988277  1504 net.cpp:137] Memory required for data: 22504000
I0416 23:00:52.988277  1504 layer_factory.cpp:58] Creating layer fire3/squeeze1x1_fire3/relu_squeeze1x1_0_split
I0416 23:00:52.988277  1504 net.cpp:84] Creating Layer fire3/squeeze1x1_fire3/relu_squeeze1x1_0_split
I0416 23:00:52.988277  1504 net.cpp:406] fire3/squeeze1x1_fire3/relu_squeeze1x1_0_split <- fire3/squeeze1x1
I0416 23:00:52.988277  1504 net.cpp:380] fire3/squeeze1x1_fire3/relu_squeeze1x1_0_split -> fire3/squeeze1x1_fire3/relu_squeeze1x1_0_split_0
I0416 23:00:52.988277  1504 net.cpp:380] fire3/squeeze1x1_fire3/relu_squeeze1x1_0_split -> fire3/squeeze1x1_fire3/relu_squeeze1x1_0_split_1
I0416 23:00:52.988277  1504 net.cpp:122] Setting up fire3/squeeze1x1_fire3/relu_squeeze1x1_0_split
I0416 23:00:52.988277  1504 net.cpp:129] Top shape: 100 16 6 6 (57600)
I0416 23:00:52.988277  1504 net.cpp:129] Top shape: 100 16 6 6 (57600)
I0416 23:00:52.988277  1504 net.cpp:137] Memory required for data: 22964800
I0416 23:00:52.988277  1504 layer_factory.cpp:58] Creating layer fire3/expand1x1
I0416 23:00:52.988277  1504 net.cpp:84] Creating Layer fire3/expand1x1
I0416 23:00:52.988277  1504 net.cpp:406] fire3/expand1x1 <- fire3/squeeze1x1_fire3/relu_squeeze1x1_0_split_0
I0416 23:00:52.988277  1504 net.cpp:380] fire3/expand1x1 -> fire3/expand1x1
I0416 23:00:52.991220  1504 net.cpp:122] Setting up fire3/expand1x1
I0416 23:00:52.991220  1504 net.cpp:129] Top shape: 100 64 6 6 (230400)
I0416 23:00:52.991220  1504 net.cpp:137] Memory required for data: 23886400
I0416 23:00:52.991220  1504 layer_factory.cpp:58] Creating layer fire3/relu_expand1x1
I0416 23:00:52.991220  1504 net.cpp:84] Creating Layer fire3/relu_expand1x1
I0416 23:00:52.991220  1504 net.cpp:406] fire3/relu_expand1x1 <- fire3/expand1x1
I0416 23:00:52.991220  1504 net.cpp:367] fire3/relu_expand1x1 -> fire3/expand1x1 (in-place)
I0416 23:00:52.992218  1504 net.cpp:122] Setting up fire3/relu_expand1x1
I0416 23:00:52.992218  1504 net.cpp:129] Top shape: 100 64 6 6 (230400)
I0416 23:00:52.992218  1504 net.cpp:137] Memory required for data: 24808000
I0416 23:00:52.992218  1504 layer_factory.cpp:58] Creating layer fire3/expand3x3
I0416 23:00:52.992218  1504 net.cpp:84] Creating Layer fire3/expand3x3
I0416 23:00:52.992218  1504 net.cpp:406] fire3/expand3x3 <- fire3/squeeze1x1_fire3/relu_squeeze1x1_0_split_1
I0416 23:00:52.992218  1504 net.cpp:380] fire3/expand3x3 -> fire3/expand3x3
I0416 23:00:52.995209  1504 net.cpp:122] Setting up fire3/expand3x3
I0416 23:00:52.995209  1504 net.cpp:129] Top shape: 100 64 6 6 (230400)
I0416 23:00:52.995209  1504 net.cpp:137] Memory required for data: 25729600
I0416 23:00:52.995209  1504 layer_factory.cpp:58] Creating layer fire3/relu_expand3x3
I0416 23:00:52.995209  1504 net.cpp:84] Creating Layer fire3/relu_expand3x3
I0416 23:00:52.995209  1504 net.cpp:406] fire3/relu_expand3x3 <- fire3/expand3x3
I0416 23:00:52.995209  1504 net.cpp:367] fire3/relu_expand3x3 -> fire3/expand3x3 (in-place)
I0416 23:00:52.995209  1504 net.cpp:122] Setting up fire3/relu_expand3x3
I0416 23:00:52.995209  1504 net.cpp:129] Top shape: 100 64 6 6 (230400)
I0416 23:00:52.995209  1504 net.cpp:137] Memory required for data: 26651200
I0416 23:00:52.995209  1504 layer_factory.cpp:58] Creating layer fire3/concat
I0416 23:00:52.995209  1504 net.cpp:84] Creating Layer fire3/concat
I0416 23:00:52.995209  1504 net.cpp:406] fire3/concat <- fire3/expand1x1
I0416 23:00:52.995209  1504 net.cpp:406] fire3/concat <- fire3/expand3x3
I0416 23:00:52.995209  1504 net.cpp:380] fire3/concat -> fire3/concat
I0416 23:00:52.995209  1504 net.cpp:122] Setting up fire3/concat
I0416 23:00:52.995209  1504 net.cpp:129] Top shape: 100 128 6 6 (460800)
I0416 23:00:52.995209  1504 net.cpp:137] Memory required for data: 28494400
I0416 23:00:52.995209  1504 layer_factory.cpp:58] Creating layer fire4/squeeze1x1
I0416 23:00:52.996237  1504 net.cpp:84] Creating Layer fire4/squeeze1x1
I0416 23:00:52.996237  1504 net.cpp:406] fire4/squeeze1x1 <- fire3/concat
I0416 23:00:52.996237  1504 net.cpp:380] fire4/squeeze1x1 -> fire4/squeeze1x1
I0416 23:00:53.000344  1504 net.cpp:122] Setting up fire4/squeeze1x1
I0416 23:00:53.000344  1504 net.cpp:129] Top shape: 100 32 6 6 (115200)
I0416 23:00:53.000344  1504 net.cpp:137] Memory required for data: 28955200
I0416 23:00:53.000344  1504 layer_factory.cpp:58] Creating layer fire4/relu_squeeze1x1
I0416 23:00:53.000344  1504 net.cpp:84] Creating Layer fire4/relu_squeeze1x1
I0416 23:00:53.000344  1504 net.cpp:406] fire4/relu_squeeze1x1 <- fire4/squeeze1x1
I0416 23:00:53.000344  1504 net.cpp:367] fire4/relu_squeeze1x1 -> fire4/squeeze1x1 (in-place)
I0416 23:00:53.001194  1504 net.cpp:122] Setting up fire4/relu_squeeze1x1
I0416 23:00:53.001194  1504 net.cpp:129] Top shape: 100 32 6 6 (115200)
I0416 23:00:53.001194  1504 net.cpp:137] Memory required for data: 29416000
I0416 23:00:53.001194  1504 layer_factory.cpp:58] Creating layer fire4/squeeze1x1_fire4/relu_squeeze1x1_0_split
I0416 23:00:53.001194  1504 net.cpp:84] Creating Layer fire4/squeeze1x1_fire4/relu_squeeze1x1_0_split
I0416 23:00:53.001194  1504 net.cpp:406] fire4/squeeze1x1_fire4/relu_squeeze1x1_0_split <- fire4/squeeze1x1
I0416 23:00:53.001194  1504 net.cpp:380] fire4/squeeze1x1_fire4/relu_squeeze1x1_0_split -> fire4/squeeze1x1_fire4/relu_squeeze1x1_0_split_0
I0416 23:00:53.001194  1504 net.cpp:380] fire4/squeeze1x1_fire4/relu_squeeze1x1_0_split -> fire4/squeeze1x1_fire4/relu_squeeze1x1_0_split_1
I0416 23:00:53.001194  1504 net.cpp:122] Setting up fire4/squeeze1x1_fire4/relu_squeeze1x1_0_split
I0416 23:00:53.001194  1504 net.cpp:129] Top shape: 100 32 6 6 (115200)
I0416 23:00:53.001194  1504 net.cpp:129] Top shape: 100 32 6 6 (115200)
I0416 23:00:53.001194  1504 net.cpp:137] Memory required for data: 30337600
I0416 23:00:53.001194  1504 layer_factory.cpp:58] Creating layer fire4/expand1x1
I0416 23:00:53.001194  1504 net.cpp:84] Creating Layer fire4/expand1x1
I0416 23:00:53.001194  1504 net.cpp:406] fire4/expand1x1 <- fire4/squeeze1x1_fire4/relu_squeeze1x1_0_split_0
I0416 23:00:53.001194  1504 net.cpp:380] fire4/expand1x1 -> fire4/expand1x1
I0416 23:00:53.004186  1504 net.cpp:122] Setting up fire4/expand1x1
I0416 23:00:53.004186  1504 net.cpp:129] Top shape: 100 128 6 6 (460800)
I0416 23:00:53.004186  1504 net.cpp:137] Memory required for data: 32180800
I0416 23:00:53.004186  1504 layer_factory.cpp:58] Creating layer fire4/relu_expand1x1
I0416 23:00:53.004186  1504 net.cpp:84] Creating Layer fire4/relu_expand1x1
I0416 23:00:53.004186  1504 net.cpp:406] fire4/relu_expand1x1 <- fire4/expand1x1
I0416 23:00:53.004186  1504 net.cpp:367] fire4/relu_expand1x1 -> fire4/expand1x1 (in-place)
I0416 23:00:53.005220  1504 net.cpp:122] Setting up fire4/relu_expand1x1
I0416 23:00:53.005220  1504 net.cpp:129] Top shape: 100 128 6 6 (460800)
I0416 23:00:53.005220  1504 net.cpp:137] Memory required for data: 34024000
I0416 23:00:53.005220  1504 layer_factory.cpp:58] Creating layer fire4/expand3x3
I0416 23:00:53.005220  1504 net.cpp:84] Creating Layer fire4/expand3x3
I0416 23:00:53.005220  1504 net.cpp:406] fire4/expand3x3 <- fire4/squeeze1x1_fire4/relu_squeeze1x1_0_split_1
I0416 23:00:53.005220  1504 net.cpp:380] fire4/expand3x3 -> fire4/expand3x3
I0416 23:00:53.009178  1504 net.cpp:122] Setting up fire4/expand3x3
I0416 23:00:53.009178  1504 net.cpp:129] Top shape: 100 128 6 6 (460800)
I0416 23:00:53.009178  1504 net.cpp:137] Memory required for data: 35867200
I0416 23:00:53.009178  1504 layer_factory.cpp:58] Creating layer fire4/relu_expand3x3
I0416 23:00:53.009178  1504 net.cpp:84] Creating Layer fire4/relu_expand3x3
I0416 23:00:53.009178  1504 net.cpp:406] fire4/relu_expand3x3 <- fire4/expand3x3
I0416 23:00:53.009178  1504 net.cpp:367] fire4/relu_expand3x3 -> fire4/expand3x3 (in-place)
I0416 23:00:53.011168  1504 net.cpp:122] Setting up fire4/relu_expand3x3
I0416 23:00:53.011168  1504 net.cpp:129] Top shape: 100 128 6 6 (460800)
I0416 23:00:53.012166  1504 net.cpp:137] Memory required for data: 37710400
I0416 23:00:53.012166  1504 layer_factory.cpp:58] Creating layer fire4/concat
I0416 23:00:53.012166  1504 net.cpp:84] Creating Layer fire4/concat
I0416 23:00:53.012166  1504 net.cpp:406] fire4/concat <- fire4/expand1x1
I0416 23:00:53.012166  1504 net.cpp:406] fire4/concat <- fire4/expand3x3
I0416 23:00:53.012166  1504 net.cpp:380] fire4/concat -> fire4/concat
I0416 23:00:53.012166  1504 net.cpp:122] Setting up fire4/concat
I0416 23:00:53.012166  1504 net.cpp:129] Top shape: 100 256 6 6 (921600)
I0416 23:00:53.012166  1504 net.cpp:137] Memory required for data: 41396800
I0416 23:00:53.012166  1504 layer_factory.cpp:58] Creating layer pool4
I0416 23:00:53.012166  1504 net.cpp:84] Creating Layer pool4
I0416 23:00:53.012166  1504 net.cpp:406] pool4 <- fire4/concat
I0416 23:00:53.012166  1504 net.cpp:380] pool4 -> pool4
I0416 23:00:53.012166  1504 net.cpp:122] Setting up pool4
I0416 23:00:53.012166  1504 net.cpp:129] Top shape: 100 256 3 3 (230400)
I0416 23:00:53.012166  1504 net.cpp:137] Memory required for data: 42318400
I0416 23:00:53.012166  1504 layer_factory.cpp:58] Creating layer fire5/squeeze1x1
I0416 23:00:53.012166  1504 net.cpp:84] Creating Layer fire5/squeeze1x1
I0416 23:00:53.012166  1504 net.cpp:406] fire5/squeeze1x1 <- pool4
I0416 23:00:53.012166  1504 net.cpp:380] fire5/squeeze1x1 -> fire5/squeeze1x1
I0416 23:00:53.021142  1504 net.cpp:122] Setting up fire5/squeeze1x1
I0416 23:00:53.021142  1504 net.cpp:129] Top shape: 100 32 3 3 (28800)
I0416 23:00:53.021142  1504 net.cpp:137] Memory required for data: 42433600
I0416 23:00:53.021142  1504 layer_factory.cpp:58] Creating layer fire5/relu_squeeze1x1
I0416 23:00:53.021142  1504 net.cpp:84] Creating Layer fire5/relu_squeeze1x1
I0416 23:00:53.021142  1504 net.cpp:406] fire5/relu_squeeze1x1 <- fire5/squeeze1x1
I0416 23:00:53.021142  1504 net.cpp:367] fire5/relu_squeeze1x1 -> fire5/squeeze1x1 (in-place)
I0416 23:00:53.024134  1504 net.cpp:122] Setting up fire5/relu_squeeze1x1
I0416 23:00:53.024134  1504 net.cpp:129] Top shape: 100 32 3 3 (28800)
I0416 23:00:53.024134  1504 net.cpp:137] Memory required for data: 42548800
I0416 23:00:53.024134  1504 layer_factory.cpp:58] Creating layer fire5/squeeze1x1_fire5/relu_squeeze1x1_0_split
I0416 23:00:53.024134  1504 net.cpp:84] Creating Layer fire5/squeeze1x1_fire5/relu_squeeze1x1_0_split
I0416 23:00:53.024134  1504 net.cpp:406] fire5/squeeze1x1_fire5/relu_squeeze1x1_0_split <- fire5/squeeze1x1
I0416 23:00:53.025135  1504 net.cpp:380] fire5/squeeze1x1_fire5/relu_squeeze1x1_0_split -> fire5/squeeze1x1_fire5/relu_squeeze1x1_0_split_0
I0416 23:00:53.025135  1504 net.cpp:380] fire5/squeeze1x1_fire5/relu_squeeze1x1_0_split -> fire5/squeeze1x1_fire5/relu_squeeze1x1_0_split_1
I0416 23:00:53.025135  1504 net.cpp:122] Setting up fire5/squeeze1x1_fire5/relu_squeeze1x1_0_split
I0416 23:00:53.025135  1504 net.cpp:129] Top shape: 100 32 3 3 (28800)
I0416 23:00:53.025135  1504 net.cpp:129] Top shape: 100 32 3 3 (28800)
I0416 23:00:53.025135  1504 net.cpp:137] Memory required for data: 42779200
I0416 23:00:53.025135  1504 layer_factory.cpp:58] Creating layer fire5/expand1x1
I0416 23:00:53.025135  1504 net.cpp:84] Creating Layer fire5/expand1x1
I0416 23:00:53.025135  1504 net.cpp:406] fire5/expand1x1 <- fire5/squeeze1x1_fire5/relu_squeeze1x1_0_split_0
I0416 23:00:53.025135  1504 net.cpp:380] fire5/expand1x1 -> fire5/expand1x1
I0416 23:00:53.031149  1504 net.cpp:122] Setting up fire5/expand1x1
I0416 23:00:53.031149  1504 net.cpp:129] Top shape: 100 128 3 3 (115200)
I0416 23:00:53.031149  1504 net.cpp:137] Memory required for data: 43240000
I0416 23:00:53.031149  1504 layer_factory.cpp:58] Creating layer fire5/relu_expand1x1
I0416 23:00:53.031149  1504 net.cpp:84] Creating Layer fire5/relu_expand1x1
I0416 23:00:53.031149  1504 net.cpp:406] fire5/relu_expand1x1 <- fire5/expand1x1
I0416 23:00:53.031149  1504 net.cpp:367] fire5/relu_expand1x1 -> fire5/expand1x1 (in-place)
I0416 23:00:53.034108  1504 net.cpp:122] Setting up fire5/relu_expand1x1
I0416 23:00:53.034108  1504 net.cpp:129] Top shape: 100 128 3 3 (115200)
I0416 23:00:53.034108  1504 net.cpp:137] Memory required for data: 43700800
I0416 23:00:53.034108  1504 layer_factory.cpp:58] Creating layer fire5/expand3x3
I0416 23:00:53.034108  1504 net.cpp:84] Creating Layer fire5/expand3x3
I0416 23:00:53.034108  1504 net.cpp:406] fire5/expand3x3 <- fire5/squeeze1x1_fire5/relu_squeeze1x1_0_split_1
I0416 23:00:53.034108  1504 net.cpp:380] fire5/expand3x3 -> fire5/expand3x3
I0416 23:00:53.044294  1504 net.cpp:122] Setting up fire5/expand3x3
I0416 23:00:53.044294  1504 net.cpp:129] Top shape: 100 128 3 3 (115200)
I0416 23:00:53.044294  1504 net.cpp:137] Memory required for data: 44161600
I0416 23:00:53.044294  1504 layer_factory.cpp:58] Creating layer fire5/relu_expand3x3
I0416 23:00:53.044294  1504 net.cpp:84] Creating Layer fire5/relu_expand3x3
I0416 23:00:53.044294  1504 net.cpp:406] fire5/relu_expand3x3 <- fire5/expand3x3
I0416 23:00:53.044294  1504 net.cpp:367] fire5/relu_expand3x3 -> fire5/expand3x3 (in-place)
I0416 23:00:53.046120  1504 net.cpp:122] Setting up fire5/relu_expand3x3
I0416 23:00:53.046120  1504 net.cpp:129] Top shape: 100 128 3 3 (115200)
I0416 23:00:53.046120  1504 net.cpp:137] Memory required for data: 44622400
I0416 23:00:53.046120  1504 layer_factory.cpp:58] Creating layer fire5/concat
I0416 23:00:53.046120  1504 net.cpp:84] Creating Layer fire5/concat
I0416 23:00:53.046120  1504 net.cpp:406] fire5/concat <- fire5/expand1x1
I0416 23:00:53.046120  1504 net.cpp:406] fire5/concat <- fire5/expand3x3
I0416 23:00:53.046120  1504 net.cpp:380] fire5/concat -> fire5/concat
I0416 23:00:53.046120  1504 net.cpp:122] Setting up fire5/concat
I0416 23:00:53.046120  1504 net.cpp:129] Top shape: 100 256 3 3 (230400)
I0416 23:00:53.046120  1504 net.cpp:137] Memory required for data: 45544000
I0416 23:00:53.046120  1504 layer_factory.cpp:58] Creating layer fire6/squeeze1x1
I0416 23:00:53.046120  1504 net.cpp:84] Creating Layer fire6/squeeze1x1
I0416 23:00:53.046120  1504 net.cpp:406] fire6/squeeze1x1 <- fire5/concat
I0416 23:00:53.046120  1504 net.cpp:380] fire6/squeeze1x1 -> fire6/squeeze1x1
I0416 23:00:53.053056  1504 net.cpp:122] Setting up fire6/squeeze1x1
I0416 23:00:53.053056  1504 net.cpp:129] Top shape: 100 48 3 3 (43200)
I0416 23:00:53.053056  1504 net.cpp:137] Memory required for data: 45716800
I0416 23:00:53.053056  1504 layer_factory.cpp:58] Creating layer fire6/relu_squeeze1x1
I0416 23:00:53.053056  1504 net.cpp:84] Creating Layer fire6/relu_squeeze1x1
I0416 23:00:53.053056  1504 net.cpp:406] fire6/relu_squeeze1x1 <- fire6/squeeze1x1
I0416 23:00:53.053056  1504 net.cpp:367] fire6/relu_squeeze1x1 -> fire6/squeeze1x1 (in-place)
I0416 23:00:53.055049  1504 net.cpp:122] Setting up fire6/relu_squeeze1x1
I0416 23:00:53.055049  1504 net.cpp:129] Top shape: 100 48 3 3 (43200)
I0416 23:00:53.056047  1504 net.cpp:137] Memory required for data: 45889600
I0416 23:00:53.056047  1504 layer_factory.cpp:58] Creating layer fire6/squeeze1x1_fire6/relu_squeeze1x1_0_split
I0416 23:00:53.056047  1504 net.cpp:84] Creating Layer fire6/squeeze1x1_fire6/relu_squeeze1x1_0_split
I0416 23:00:53.056047  1504 net.cpp:406] fire6/squeeze1x1_fire6/relu_squeeze1x1_0_split <- fire6/squeeze1x1
I0416 23:00:53.056047  1504 net.cpp:380] fire6/squeeze1x1_fire6/relu_squeeze1x1_0_split -> fire6/squeeze1x1_fire6/relu_squeeze1x1_0_split_0
I0416 23:00:53.056047  1504 net.cpp:380] fire6/squeeze1x1_fire6/relu_squeeze1x1_0_split -> fire6/squeeze1x1_fire6/relu_squeeze1x1_0_split_1
I0416 23:00:53.056047  1504 net.cpp:122] Setting up fire6/squeeze1x1_fire6/relu_squeeze1x1_0_split
I0416 23:00:53.056047  1504 net.cpp:129] Top shape: 100 48 3 3 (43200)
I0416 23:00:53.056047  1504 net.cpp:129] Top shape: 100 48 3 3 (43200)
I0416 23:00:53.056047  1504 net.cpp:137] Memory required for data: 46235200
I0416 23:00:53.056047  1504 layer_factory.cpp:58] Creating layer fire6/expand1x1
I0416 23:00:53.056047  1504 net.cpp:84] Creating Layer fire6/expand1x1
I0416 23:00:53.056047  1504 net.cpp:406] fire6/expand1x1 <- fire6/squeeze1x1_fire6/relu_squeeze1x1_0_split_0
I0416 23:00:53.056047  1504 net.cpp:380] fire6/expand1x1 -> fire6/expand1x1
I0416 23:00:53.063028  1504 net.cpp:122] Setting up fire6/expand1x1
I0416 23:00:53.063028  1504 net.cpp:129] Top shape: 100 192 3 3 (172800)
I0416 23:00:53.063028  1504 net.cpp:137] Memory required for data: 46926400
I0416 23:00:53.063028  1504 layer_factory.cpp:58] Creating layer fire6/relu_expand1x1
I0416 23:00:53.063028  1504 net.cpp:84] Creating Layer fire6/relu_expand1x1
I0416 23:00:53.063028  1504 net.cpp:406] fire6/relu_expand1x1 <- fire6/expand1x1
I0416 23:00:53.063028  1504 net.cpp:367] fire6/relu_expand1x1 -> fire6/expand1x1 (in-place)
I0416 23:00:53.067018  1504 net.cpp:122] Setting up fire6/relu_expand1x1
I0416 23:00:53.067018  1504 net.cpp:129] Top shape: 100 192 3 3 (172800)
I0416 23:00:53.067018  1504 net.cpp:137] Memory required for data: 47617600
I0416 23:00:53.067018  1504 layer_factory.cpp:58] Creating layer fire6/expand3x3
I0416 23:00:53.067018  1504 net.cpp:84] Creating Layer fire6/expand3x3
I0416 23:00:53.067018  1504 net.cpp:406] fire6/expand3x3 <- fire6/squeeze1x1_fire6/relu_squeeze1x1_0_split_1
I0416 23:00:53.067018  1504 net.cpp:380] fire6/expand3x3 -> fire6/expand3x3
I0416 23:00:53.074996  1504 net.cpp:122] Setting up fire6/expand3x3
I0416 23:00:53.074996  1504 net.cpp:129] Top shape: 100 192 3 3 (172800)
I0416 23:00:53.074996  1504 net.cpp:137] Memory required for data: 48308800
I0416 23:00:53.074996  1504 layer_factory.cpp:58] Creating layer fire6/relu_expand3x3
I0416 23:00:53.074996  1504 net.cpp:84] Creating Layer fire6/relu_expand3x3
I0416 23:00:53.074996  1504 net.cpp:406] fire6/relu_expand3x3 <- fire6/expand3x3
I0416 23:00:53.074996  1504 net.cpp:367] fire6/relu_expand3x3 -> fire6/expand3x3 (in-place)
I0416 23:00:53.076992  1504 net.cpp:122] Setting up fire6/relu_expand3x3
I0416 23:00:53.076992  1504 net.cpp:129] Top shape: 100 192 3 3 (172800)
I0416 23:00:53.076992  1504 net.cpp:137] Memory required for data: 49000000
I0416 23:00:53.076992  1504 layer_factory.cpp:58] Creating layer fire6/concat
I0416 23:00:53.076992  1504 net.cpp:84] Creating Layer fire6/concat
I0416 23:00:53.076992  1504 net.cpp:406] fire6/concat <- fire6/expand1x1
I0416 23:00:53.076992  1504 net.cpp:406] fire6/concat <- fire6/expand3x3
I0416 23:00:53.076992  1504 net.cpp:380] fire6/concat -> fire6/concat
I0416 23:00:53.076992  1504 net.cpp:122] Setting up fire6/concat
I0416 23:00:53.076992  1504 net.cpp:129] Top shape: 100 384 3 3 (345600)
I0416 23:00:53.078034  1504 net.cpp:137] Memory required for data: 50382400
I0416 23:00:53.078034  1504 layer_factory.cpp:58] Creating layer fire7/squeeze1x1
I0416 23:00:53.078034  1504 net.cpp:84] Creating Layer fire7/squeeze1x1
I0416 23:00:53.078034  1504 net.cpp:406] fire7/squeeze1x1 <- fire6/concat
I0416 23:00:53.078034  1504 net.cpp:380] fire7/squeeze1x1 -> fire7/squeeze1x1
I0416 23:00:53.083972  1504 net.cpp:122] Setting up fire7/squeeze1x1
I0416 23:00:53.083972  1504 net.cpp:129] Top shape: 100 48 3 3 (43200)
I0416 23:00:53.083972  1504 net.cpp:137] Memory required for data: 50555200
I0416 23:00:53.083972  1504 layer_factory.cpp:58] Creating layer fire7/relu_squeeze1x1
I0416 23:00:53.084342  1504 net.cpp:84] Creating Layer fire7/relu_squeeze1x1
I0416 23:00:53.084342  1504 net.cpp:406] fire7/relu_squeeze1x1 <- fire7/squeeze1x1
I0416 23:00:53.084342  1504 net.cpp:367] fire7/relu_squeeze1x1 -> fire7/squeeze1x1 (in-place)
I0416 23:00:53.085968  1504 net.cpp:122] Setting up fire7/relu_squeeze1x1
I0416 23:00:53.085968  1504 net.cpp:129] Top shape: 100 48 3 3 (43200)
I0416 23:00:53.085968  1504 net.cpp:137] Memory required for data: 50728000
I0416 23:00:53.085968  1504 layer_factory.cpp:58] Creating layer fire7/squeeze1x1_fire7/relu_squeeze1x1_0_split
I0416 23:00:53.085968  1504 net.cpp:84] Creating Layer fire7/squeeze1x1_fire7/relu_squeeze1x1_0_split
I0416 23:00:53.085968  1504 net.cpp:406] fire7/squeeze1x1_fire7/relu_squeeze1x1_0_split <- fire7/squeeze1x1
I0416 23:00:53.085968  1504 net.cpp:380] fire7/squeeze1x1_fire7/relu_squeeze1x1_0_split -> fire7/squeeze1x1_fire7/relu_squeeze1x1_0_split_0
I0416 23:00:53.085968  1504 net.cpp:380] fire7/squeeze1x1_fire7/relu_squeeze1x1_0_split -> fire7/squeeze1x1_fire7/relu_squeeze1x1_0_split_1
I0416 23:00:53.085968  1504 net.cpp:122] Setting up fire7/squeeze1x1_fire7/relu_squeeze1x1_0_split
I0416 23:00:53.086966  1504 net.cpp:129] Top shape: 100 48 3 3 (43200)
I0416 23:00:53.086966  1504 net.cpp:129] Top shape: 100 48 3 3 (43200)
I0416 23:00:53.086966  1504 net.cpp:137] Memory required for data: 51073600
I0416 23:00:53.086966  1504 layer_factory.cpp:58] Creating layer fire7/expand1x1
I0416 23:00:53.086966  1504 net.cpp:84] Creating Layer fire7/expand1x1
I0416 23:00:53.086966  1504 net.cpp:406] fire7/expand1x1 <- fire7/squeeze1x1_fire7/relu_squeeze1x1_0_split_0
I0416 23:00:53.086966  1504 net.cpp:380] fire7/expand1x1 -> fire7/expand1x1
I0416 23:00:53.096310  1504 net.cpp:122] Setting up fire7/expand1x1
I0416 23:00:53.096310  1504 net.cpp:129] Top shape: 100 192 3 3 (172800)
I0416 23:00:53.096310  1504 net.cpp:137] Memory required for data: 51764800
I0416 23:00:53.096310  1504 layer_factory.cpp:58] Creating layer fire7/relu_expand1x1
I0416 23:00:53.096310  1504 net.cpp:84] Creating Layer fire7/relu_expand1x1
I0416 23:00:53.096310  1504 net.cpp:406] fire7/relu_expand1x1 <- fire7/expand1x1
I0416 23:00:53.096941  1504 net.cpp:367] fire7/relu_expand1x1 -> fire7/expand1x1 (in-place)
I0416 23:00:53.097940  1504 net.cpp:122] Setting up fire7/relu_expand1x1
I0416 23:00:53.097940  1504 net.cpp:129] Top shape: 100 192 3 3 (172800)
I0416 23:00:53.097940  1504 net.cpp:137] Memory required for data: 52456000
I0416 23:00:53.097940  1504 layer_factory.cpp:58] Creating layer fire7/expand3x3
I0416 23:00:53.097940  1504 net.cpp:84] Creating Layer fire7/expand3x3
I0416 23:00:53.097940  1504 net.cpp:406] fire7/expand3x3 <- fire7/squeeze1x1_fire7/relu_squeeze1x1_0_split_1
I0416 23:00:53.097940  1504 net.cpp:380] fire7/expand3x3 -> fire7/expand3x3
I0416 23:00:53.107743  1504 net.cpp:122] Setting up fire7/expand3x3
I0416 23:00:53.107913  1504 net.cpp:129] Top shape: 100 192 3 3 (172800)
I0416 23:00:53.107913  1504 net.cpp:137] Memory required for data: 53147200
I0416 23:00:53.107913  1504 layer_factory.cpp:58] Creating layer fire7/relu_expand3x3
I0416 23:00:53.107913  1504 net.cpp:84] Creating Layer fire7/relu_expand3x3
I0416 23:00:53.107913  1504 net.cpp:406] fire7/relu_expand3x3 <- fire7/expand3x3
I0416 23:00:53.107913  1504 net.cpp:367] fire7/relu_expand3x3 -> fire7/expand3x3 (in-place)
I0416 23:00:53.109907  1504 net.cpp:122] Setting up fire7/relu_expand3x3
I0416 23:00:53.109907  1504 net.cpp:129] Top shape: 100 192 3 3 (172800)
I0416 23:00:53.109907  1504 net.cpp:137] Memory required for data: 53838400
I0416 23:00:53.109907  1504 layer_factory.cpp:58] Creating layer fire7/concat
I0416 23:00:53.109907  1504 net.cpp:84] Creating Layer fire7/concat
I0416 23:00:53.109907  1504 net.cpp:406] fire7/concat <- fire7/expand1x1
I0416 23:00:53.109907  1504 net.cpp:406] fire7/concat <- fire7/expand3x3
I0416 23:00:53.109907  1504 net.cpp:380] fire7/concat -> fire7/concat
I0416 23:00:53.109907  1504 net.cpp:122] Setting up fire7/concat
I0416 23:00:53.109907  1504 net.cpp:129] Top shape: 100 384 3 3 (345600)
I0416 23:00:53.109907  1504 net.cpp:137] Memory required for data: 55220800
I0416 23:00:53.109907  1504 layer_factory.cpp:58] Creating layer fire8/squeeze1x1
I0416 23:00:53.109907  1504 net.cpp:84] Creating Layer fire8/squeeze1x1
I0416 23:00:53.110905  1504 net.cpp:406] fire8/squeeze1x1 <- fire7/concat
I0416 23:00:53.110905  1504 net.cpp:380] fire8/squeeze1x1 -> fire8/squeeze1x1
I0416 23:00:53.116885  1504 net.cpp:122] Setting up fire8/squeeze1x1
I0416 23:00:53.116885  1504 net.cpp:129] Top shape: 100 64 3 3 (57600)
I0416 23:00:53.117408  1504 net.cpp:137] Memory required for data: 55451200
I0416 23:00:53.117408  1504 layer_factory.cpp:58] Creating layer fire8/relu_squeeze1x1
I0416 23:00:53.117408  1504 net.cpp:84] Creating Layer fire8/relu_squeeze1x1
I0416 23:00:53.117408  1504 net.cpp:406] fire8/relu_squeeze1x1 <- fire8/squeeze1x1
I0416 23:00:53.117408  1504 net.cpp:367] fire8/relu_squeeze1x1 -> fire8/squeeze1x1 (in-place)
I0416 23:00:53.121498  1504 net.cpp:122] Setting up fire8/relu_squeeze1x1
I0416 23:00:53.121872  1504 net.cpp:129] Top shape: 100 64 3 3 (57600)
I0416 23:00:53.121872  1504 net.cpp:137] Memory required for data: 55681600
I0416 23:00:53.121872  1504 layer_factory.cpp:58] Creating layer fire8/squeeze1x1_fire8/relu_squeeze1x1_0_split
I0416 23:00:53.121872  1504 net.cpp:84] Creating Layer fire8/squeeze1x1_fire8/relu_squeeze1x1_0_split
I0416 23:00:53.121872  1504 net.cpp:406] fire8/squeeze1x1_fire8/relu_squeeze1x1_0_split <- fire8/squeeze1x1
I0416 23:00:53.121872  1504 net.cpp:380] fire8/squeeze1x1_fire8/relu_squeeze1x1_0_split -> fire8/squeeze1x1_fire8/relu_squeeze1x1_0_split_0
I0416 23:00:53.121872  1504 net.cpp:380] fire8/squeeze1x1_fire8/relu_squeeze1x1_0_split -> fire8/squeeze1x1_fire8/relu_squeeze1x1_0_split_1
I0416 23:00:53.121872  1504 net.cpp:122] Setting up fire8/squeeze1x1_fire8/relu_squeeze1x1_0_split
I0416 23:00:53.121872  1504 net.cpp:129] Top shape: 100 64 3 3 (57600)
I0416 23:00:53.121872  1504 net.cpp:129] Top shape: 100 64 3 3 (57600)
I0416 23:00:53.121872  1504 net.cpp:137] Memory required for data: 56142400
I0416 23:00:53.121872  1504 layer_factory.cpp:58] Creating layer fire8/expand1x1
I0416 23:00:53.121872  1504 net.cpp:84] Creating Layer fire8/expand1x1
I0416 23:00:53.121872  1504 net.cpp:406] fire8/expand1x1 <- fire8/squeeze1x1_fire8/relu_squeeze1x1_0_split_0
I0416 23:00:53.121872  1504 net.cpp:380] fire8/expand1x1 -> fire8/expand1x1
I0416 23:00:53.127857  1504 net.cpp:122] Setting up fire8/expand1x1
I0416 23:00:53.128854  1504 net.cpp:129] Top shape: 100 256 3 3 (230400)
I0416 23:00:53.128854  1504 net.cpp:137] Memory required for data: 57064000
I0416 23:00:53.128854  1504 layer_factory.cpp:58] Creating layer fire8/relu_expand1x1
I0416 23:00:53.128854  1504 net.cpp:84] Creating Layer fire8/relu_expand1x1
I0416 23:00:53.128854  1504 net.cpp:406] fire8/relu_expand1x1 <- fire8/expand1x1
I0416 23:00:53.128854  1504 net.cpp:367] fire8/relu_expand1x1 -> fire8/expand1x1 (in-place)
I0416 23:00:53.130848  1504 net.cpp:122] Setting up fire8/relu_expand1x1
I0416 23:00:53.130848  1504 net.cpp:129] Top shape: 100 256 3 3 (230400)
I0416 23:00:53.130848  1504 net.cpp:137] Memory required for data: 57985600
I0416 23:00:53.130848  1504 layer_factory.cpp:58] Creating layer fire8/expand3x3
I0416 23:00:53.130848  1504 net.cpp:84] Creating Layer fire8/expand3x3
I0416 23:00:53.130848  1504 net.cpp:406] fire8/expand3x3 <- fire8/squeeze1x1_fire8/relu_squeeze1x1_0_split_1
I0416 23:00:53.130848  1504 net.cpp:380] fire8/expand3x3 -> fire8/expand3x3
I0416 23:00:53.140954  1504 net.cpp:122] Setting up fire8/expand3x3
I0416 23:00:53.140954  1504 net.cpp:129] Top shape: 100 256 3 3 (230400)
I0416 23:00:53.140954  1504 net.cpp:137] Memory required for data: 58907200
I0416 23:00:53.140954  1504 layer_factory.cpp:58] Creating layer fire8/relu_expand3x3
I0416 23:00:53.140954  1504 net.cpp:84] Creating Layer fire8/relu_expand3x3
I0416 23:00:53.140954  1504 net.cpp:406] fire8/relu_expand3x3 <- fire8/expand3x3
I0416 23:00:53.140954  1504 net.cpp:367] fire8/relu_expand3x3 -> fire8/expand3x3 (in-place)
I0416 23:00:53.144811  1504 net.cpp:122] Setting up fire8/relu_expand3x3
I0416 23:00:53.144811  1504 net.cpp:129] Top shape: 100 256 3 3 (230400)
I0416 23:00:53.144811  1504 net.cpp:137] Memory required for data: 59828800
I0416 23:00:53.144811  1504 layer_factory.cpp:58] Creating layer fire8/concat
I0416 23:00:53.145815  1504 net.cpp:84] Creating Layer fire8/concat
I0416 23:00:53.145815  1504 net.cpp:406] fire8/concat <- fire8/expand1x1
I0416 23:00:53.145815  1504 net.cpp:406] fire8/concat <- fire8/expand3x3
I0416 23:00:53.145815  1504 net.cpp:380] fire8/concat -> fire8/concat
I0416 23:00:53.145815  1504 net.cpp:122] Setting up fire8/concat
I0416 23:00:53.145815  1504 net.cpp:129] Top shape: 100 512 3 3 (460800)
I0416 23:00:53.145815  1504 net.cpp:137] Memory required for data: 61672000
I0416 23:00:53.145815  1504 layer_factory.cpp:58] Creating layer pool8
I0416 23:00:53.145815  1504 net.cpp:84] Creating Layer pool8
I0416 23:00:53.145815  1504 net.cpp:406] pool8 <- fire8/concat
I0416 23:00:53.146806  1504 net.cpp:380] pool8 -> pool8
I0416 23:00:53.146958  1504 net.cpp:122] Setting up pool8
I0416 23:00:53.146958  1504 net.cpp:129] Top shape: 100 512 1 1 (51200)
I0416 23:00:53.146958  1504 net.cpp:137] Memory required for data: 61876800
I0416 23:00:53.146958  1504 layer_factory.cpp:58] Creating layer fire9/squeeze1x1
I0416 23:00:53.146958  1504 net.cpp:84] Creating Layer fire9/squeeze1x1
I0416 23:00:53.146958  1504 net.cpp:406] fire9/squeeze1x1 <- pool8
I0416 23:00:53.146958  1504 net.cpp:380] fire9/squeeze1x1 -> fire9/squeeze1x1
I0416 23:00:53.157173  1504 net.cpp:122] Setting up fire9/squeeze1x1
I0416 23:00:53.157778  1504 net.cpp:129] Top shape: 100 64 1 1 (6400)
I0416 23:00:53.157778  1504 net.cpp:137] Memory required for data: 61902400
I0416 23:00:53.157778  1504 layer_factory.cpp:58] Creating layer fire9/relu_squeeze1x1
I0416 23:00:53.157778  1504 net.cpp:84] Creating Layer fire9/relu_squeeze1x1
I0416 23:00:53.157778  1504 net.cpp:406] fire9/relu_squeeze1x1 <- fire9/squeeze1x1
I0416 23:00:53.157778  1504 net.cpp:367] fire9/relu_squeeze1x1 -> fire9/squeeze1x1 (in-place)
I0416 23:00:53.158778  1504 net.cpp:122] Setting up fire9/relu_squeeze1x1
I0416 23:00:53.158778  1504 net.cpp:129] Top shape: 100 64 1 1 (6400)
I0416 23:00:53.158778  1504 net.cpp:137] Memory required for data: 61928000
I0416 23:00:53.158778  1504 layer_factory.cpp:58] Creating layer fire9/squeeze1x1_fire9/relu_squeeze1x1_0_split
I0416 23:00:53.158778  1504 net.cpp:84] Creating Layer fire9/squeeze1x1_fire9/relu_squeeze1x1_0_split
I0416 23:00:53.158778  1504 net.cpp:406] fire9/squeeze1x1_fire9/relu_squeeze1x1_0_split <- fire9/squeeze1x1
I0416 23:00:53.158778  1504 net.cpp:380] fire9/squeeze1x1_fire9/relu_squeeze1x1_0_split -> fire9/squeeze1x1_fire9/relu_squeeze1x1_0_split_0
I0416 23:00:53.158778  1504 net.cpp:380] fire9/squeeze1x1_fire9/relu_squeeze1x1_0_split -> fire9/squeeze1x1_fire9/relu_squeeze1x1_0_split_1
I0416 23:00:53.159773  1504 net.cpp:122] Setting up fire9/squeeze1x1_fire9/relu_squeeze1x1_0_split
I0416 23:00:53.159773  1504 net.cpp:129] Top shape: 100 64 1 1 (6400)
I0416 23:00:53.159773  1504 net.cpp:129] Top shape: 100 64 1 1 (6400)
I0416 23:00:53.159773  1504 net.cpp:137] Memory required for data: 61979200
I0416 23:00:53.159773  1504 layer_factory.cpp:58] Creating layer fire9/expand1x1
I0416 23:00:53.159773  1504 net.cpp:84] Creating Layer fire9/expand1x1
I0416 23:00:53.159773  1504 net.cpp:406] fire9/expand1x1 <- fire9/squeeze1x1_fire9/relu_squeeze1x1_0_split_0
I0416 23:00:53.159773  1504 net.cpp:380] fire9/expand1x1 -> fire9/expand1x1
I0416 23:00:53.163759  1504 net.cpp:122] Setting up fire9/expand1x1
I0416 23:00:53.163759  1504 net.cpp:129] Top shape: 100 256 1 1 (25600)
I0416 23:00:53.163759  1504 net.cpp:137] Memory required for data: 62081600
I0416 23:00:53.163759  1504 layer_factory.cpp:58] Creating layer fire9/relu_expand1x1
I0416 23:00:53.163759  1504 net.cpp:84] Creating Layer fire9/relu_expand1x1
I0416 23:00:53.163759  1504 net.cpp:406] fire9/relu_expand1x1 <- fire9/expand1x1
I0416 23:00:53.164758  1504 net.cpp:367] fire9/relu_expand1x1 -> fire9/expand1x1 (in-place)
I0416 23:00:53.164860  1504 net.cpp:122] Setting up fire9/relu_expand1x1
I0416 23:00:53.164860  1504 net.cpp:129] Top shape: 100 256 1 1 (25600)
I0416 23:00:53.164860  1504 net.cpp:137] Memory required for data: 62184000
I0416 23:00:53.164860  1504 layer_factory.cpp:58] Creating layer fire9/expand3x3
I0416 23:00:53.164860  1504 net.cpp:84] Creating Layer fire9/expand3x3
I0416 23:00:53.164860  1504 net.cpp:406] fire9/expand3x3 <- fire9/squeeze1x1_fire9/relu_squeeze1x1_0_split_1
I0416 23:00:53.164860  1504 net.cpp:380] fire9/expand3x3 -> fire9/expand3x3
I0416 23:00:53.170742  1504 net.cpp:122] Setting up fire9/expand3x3
I0416 23:00:53.171737  1504 net.cpp:129] Top shape: 100 256 1 1 (25600)
I0416 23:00:53.171737  1504 net.cpp:137] Memory required for data: 62286400
I0416 23:00:53.171737  1504 layer_factory.cpp:58] Creating layer fire9/relu_expand3x3
I0416 23:00:53.171737  1504 net.cpp:84] Creating Layer fire9/relu_expand3x3
I0416 23:00:53.171737  1504 net.cpp:406] fire9/relu_expand3x3 <- fire9/expand3x3
I0416 23:00:53.171737  1504 net.cpp:367] fire9/relu_expand3x3 -> fire9/expand3x3 (in-place)
I0416 23:00:53.173733  1504 net.cpp:122] Setting up fire9/relu_expand3x3
I0416 23:00:53.173733  1504 net.cpp:129] Top shape: 100 256 1 1 (25600)
I0416 23:00:53.173733  1504 net.cpp:137] Memory required for data: 62388800
I0416 23:00:53.173733  1504 layer_factory.cpp:58] Creating layer fire9/concat
I0416 23:00:53.173733  1504 net.cpp:84] Creating Layer fire9/concat
I0416 23:00:53.173733  1504 net.cpp:406] fire9/concat <- fire9/expand1x1
I0416 23:00:53.173733  1504 net.cpp:406] fire9/concat <- fire9/expand3x3
I0416 23:00:53.173733  1504 net.cpp:380] fire9/concat -> fire9/concat
I0416 23:00:53.174731  1504 net.cpp:122] Setting up fire9/concat
I0416 23:00:53.174731  1504 net.cpp:129] Top shape: 100 512 1 1 (51200)
I0416 23:00:53.174731  1504 net.cpp:137] Memory required for data: 62593600
I0416 23:00:53.174731  1504 layer_factory.cpp:58] Creating layer drop9
I0416 23:00:53.174731  1504 net.cpp:84] Creating Layer drop9
I0416 23:00:53.174731  1504 net.cpp:406] drop9 <- fire9/concat
I0416 23:00:53.174731  1504 net.cpp:367] drop9 -> fire9/concat (in-place)
I0416 23:00:53.174731  1504 net.cpp:122] Setting up drop9
I0416 23:00:53.174731  1504 net.cpp:129] Top shape: 100 512 1 1 (51200)
I0416 23:00:53.174731  1504 net.cpp:137] Memory required for data: 62798400
I0416 23:00:53.174731  1504 layer_factory.cpp:58] Creating layer conv10_modified
I0416 23:00:53.174731  1504 net.cpp:84] Creating Layer conv10_modified
I0416 23:00:53.174731  1504 net.cpp:406] conv10_modified <- fire9/concat
I0416 23:00:53.174731  1504 net.cpp:380] conv10_modified -> conv10
I0416 23:00:53.178719  1504 net.cpp:122] Setting up conv10_modified
I0416 23:00:53.178719  1504 net.cpp:129] Top shape: 100 10 3 3 (9000)
I0416 23:00:53.178719  1504 net.cpp:137] Memory required for data: 62834400
I0416 23:00:53.179718  1504 layer_factory.cpp:58] Creating layer relu_conv10
I0416 23:00:53.179718  1504 net.cpp:84] Creating Layer relu_conv10
I0416 23:00:53.179718  1504 net.cpp:406] relu_conv10 <- conv10
I0416 23:00:53.179718  1504 net.cpp:367] relu_conv10 -> conv10 (in-place)
I0416 23:00:53.180713  1504 net.cpp:122] Setting up relu_conv10
I0416 23:00:53.180713  1504 net.cpp:129] Top shape: 100 10 3 3 (9000)
I0416 23:00:53.180713  1504 net.cpp:137] Memory required for data: 62870400
I0416 23:00:53.180713  1504 layer_factory.cpp:58] Creating layer pool10
I0416 23:00:53.180713  1504 net.cpp:84] Creating Layer pool10
I0416 23:00:53.180713  1504 net.cpp:406] pool10 <- conv10
I0416 23:00:53.180713  1504 net.cpp:380] pool10 -> pool10
I0416 23:00:53.181861  1504 net.cpp:122] Setting up pool10
I0416 23:00:53.181861  1504 net.cpp:129] Top shape: 100 10 1 1 (1000)
I0416 23:00:53.182709  1504 net.cpp:137] Memory required for data: 62874400
I0416 23:00:53.182709  1504 layer_factory.cpp:58] Creating layer pool10_pool10_0_split
I0416 23:00:53.182709  1504 net.cpp:84] Creating Layer pool10_pool10_0_split
I0416 23:00:53.182709  1504 net.cpp:406] pool10_pool10_0_split <- pool10
I0416 23:00:53.182709  1504 net.cpp:380] pool10_pool10_0_split -> pool10_pool10_0_split_0
I0416 23:00:53.182709  1504 net.cpp:380] pool10_pool10_0_split -> pool10_pool10_0_split_1
I0416 23:00:53.182709  1504 net.cpp:380] pool10_pool10_0_split -> pool10_pool10_0_split_2
I0416 23:00:53.182709  1504 net.cpp:122] Setting up pool10_pool10_0_split
I0416 23:00:53.182709  1504 net.cpp:129] Top shape: 100 10 1 1 (1000)
I0416 23:00:53.182709  1504 net.cpp:129] Top shape: 100 10 1 1 (1000)
I0416 23:00:53.182709  1504 net.cpp:129] Top shape: 100 10 1 1 (1000)
I0416 23:00:53.182709  1504 net.cpp:137] Memory required for data: 62886400
I0416 23:00:53.182709  1504 layer_factory.cpp:58] Creating layer loss
I0416 23:00:53.182709  1504 net.cpp:84] Creating Layer loss
I0416 23:00:53.182709  1504 net.cpp:406] loss <- pool10_pool10_0_split_0
I0416 23:00:53.182709  1504 net.cpp:406] loss <- label_data_1_split_0
I0416 23:00:53.182709  1504 net.cpp:380] loss -> loss
…
I0416 23:00:53.189690  1504 net.cpp:294] The NetState phase (1) differed from the phase (0) specified by a rule in layer loss
I0416 23:00:53.190687  1504 net.cpp:51] Initializing net from parameters: 
state {
  phase: TEST
}
layer {
  name: "data"
  type: "Data"
  top: "data"
  top: "label"
  include {
    phase: TEST
  }
  transform_param {
    mirror: true
    mean_file: "D:/ML/COMP551/Project4/models/cifar10/mean_file/mean.binaryproto"
  }
  data_param {
    source: "D:/ML/COMP551/Project4/models/cifar10/cifar10_test_leveldb"
    batch_size: 100
    backend: LEVELDB
  }
}
layer {
  name: "conv1"
  type: "Convolution"
  bottom: "data"
  top: "conv1"
  convolution_param {
    num_output: 96
    kernel_size: 7
    stride: 2
    weight_filler {
      type: "xavier"
    }
  }
}
layer {
  name: "relu_conv1"
  type: "ReLU"
  bottom: "conv1"
  top: "conv1"
}
layer {
  name: "pool1"
  type: "Pooling"
  bottom: "conv1"
  top: "pool1"
  pooling_param {
    pool: MAX
    kernel_size: 3
    stride: 2
  }
}
layer {
  name: "fire2/squeeze1x1"
  type: "Convolution"
  bottom: "pool1"
  top: "fire2/squeeze1x1"
  convolution_param {
    num_output: 16
    kernel_size: 1
    weight_filler {
      type: "xavier"
    }
  }
}
layer {
  name: "fire2/relu_squeeze1x1"
  type: "ReLU"
  bottom: "fire2/squeeze1x1"
  top: "fire2/squeeze1x1"
}
layer {
  name: "fire2/expand1x1"
  type: "Convolution"
  bottom: "fire2/squeeze1x1"
  top: "fire2/expand1x1"
  convolution_param {
    num_output: 64
    kernel_size: 1
    weight_filler {
      type: "xavier"
    }
  }
}
layer {
  name: "fire2/relu_expand1x1"
  type: "ReLU"
  bottom: "fire2/expand1x1"
  top: "fire2/expand1x1"
}
layer {
  name: "fire2/expand3x3"
  type: "Convolution"
  bottom: "fire2/squeeze1x1"
  top: "fire2/expand3x3"
  convolution_param {
    num_output: 64
    pad: 1
    kernel_size: 3
    weight_filler {
      type: "xavier"
    }
  }
}
layer {
  name: "fire2/relu_expand3x3"
  type: "ReLU"
  bottom: "fire2/expand3x3"
  top: "fire2/expand3x3"
}
layer {
  name: "fire2/concat"
  type: "Concat"
  bottom: "fire2/expand1x1"
  bottom: "fire2/expand3x3"
  top: "fire2/concat"
}
layer {
  name: "fire3/squeeze1x1"
  type: "Convolution"
  bottom: "fire2/concat"
  top: "fire3/squeeze1x1"
  convolution_param {
    num_output: 16
    kernel_size: 1
    weight_filler {
      type: "xavier"
    }
  }
}
layer {
  name: "fire3/relu_squeeze1x1"
  type: "ReLU"
  bottom: "fire3/squeeze1x1"
  top: "fire3/squeeze1x1"
}
layer {
  name: "fire3/expand1x1"
  type: "Convolution"
  bottom: "fire3/squeeze1x1"
  top: "fire3/expand1x1"
  convolution_param {
    num_output: 64
    kernel_size: 1
    weight_filler {
      type: "xavier"
    }
  }
}
layer {
  name: "fire3/relu_expand1x1"
  type: "ReLU"
  bottom: "fire3/expand1x1"
  top: "fire3/expand1x1"
}
layer {
  name: "fire3/expand3x3"
  type: "Convolution"
  bottom: "fire3/squeeze1x1"
  top: "fire3/expand3x3"
  convolution_param {
    num_output: 64
    pad: 1
    kernel_size: 3
    weight_filler {
      type: "xavier"
    }
  }
}
layer {
  name: "fire3/relu_expand3x3"
  type: "ReLU"
  bottom: "fire3/expand3x3"
  top: "fire3/expand3x3"
}
layer {
  name: "fire3/concat"
  type: "Concat"
  bottom: "fire3/expand1x1"
  bottom: "fire3/expand3x3"
  top: "fire3/concat"
}
layer {
  name: "fire4/squeeze1x1"
  type: "Convolution"
  bottom: "fire3/concat"
  top: "fire4/squeeze1x1"
  convolution_param {
    num_output: 32
    kernel_size: 1
    weight_filler {
      type: "xavier"
    }
  }
}
layer {
  name: "fire4/relu_squeeze1x1"
  type: "ReLU"
  bottom: "fire4/squeeze1x1"
  top: "fire4/squeeze1x1"
}
layer {
  name: "fire4/expand1x1"
  type: "Convolution"
  bottom: "fire4/squeeze1x1"
  top: "fire4/expand1x1"
  convolution_param {
    num_output: 128
    kernel_size: 1
    weight_filler {
      type: "xavier"
    }
  }
}
layer {
  name: "fire4/relu_expand1x1"
  type: "ReLU"
  bottom: "fire4/expand1x1"
  top: "fire4/expand1x1"
}
layer {
  name: "fire4/expand3x3"
  type: "Convolution"
  bottom: "fire4/squeeze1x1"
  top: "fire4/expand3x3"
  convolution_param {
    num_output: 128
    pad: 1
    kernel_size: 3
    weight_filler {
      type: "xavier"
    }
  }
}
layer {
  name: "fire4/relu_expand3x3"
  type: "ReLU"
  bottom: "fire4/expand3x3"
  top: "fire4/expand3x3"
}
layer {
  name: "fire4/concat"
  type: "Concat"
  bottom: "fire4/expand1x1"
  bottom: "fire4/expand3x3"
  top: "fire4/concat"
}
layer {
  name: "pool4"
  type: "Pooling"
  bottom: "fire4/concat"
  top: "pool4"
  pooling_param {
    pool: MAX
    kernel_size: 3
    stride: 2
  }
}
layer {
  name: "fire5/squeeze1x1"
  type: "Convolution"
  bottom: "pool4"
  top: "fire5/squeeze1x1"
  convolution_param {
    num_output: 32
    kernel_size: 1
    weight_filler {
      type: "xavier"
    }
  }
}
layer {
  name: "fire5/relu_squeeze1x1"
  type: "ReLU"
  bottom: "fire5/squeeze1x1"
  top: "fire5/squeeze1x1"
}
layer {
  name: "fire5/expand1x1"
  type: "Convolution"
  bottom: "fire5/squeeze1x1"
  top: "fire5/expand1x1"
  convolution_param {
    num_output: 128
    kernel_size: 1
    weight_filler {
      type: "xavier"
    }
  }
}
layer {
  name: "fire5/relu_expand1x1"
  type: "ReLU"
  bottom: "fire5/expand1x1"
  top: "fire5/expand1x1"
}
layer {
  name: "fire5/expand3x3"
  type: "Convolution"
  bottom: "fire5/squeeze1x1"
  top: "fire5/expand3x3"
  convolution_param {
    num_output: 128
    pad: 1
    kernel_size: 3
    weight_filler {
      type: "xavier"
    }
  }
}
layer {
  name: "fire5/relu_expand3x3"
  type: "ReLU"
  bottom: "fire5/expand3x3"
  top: "fire5/expand3x3"
}
layer {
  name: "fire5/concat"
  type: "Concat"
  bottom: "fire5/expand1x1"
  bottom: "fire5/expand3x3"
  top: "fire5/concat"
}
layer {
  name: "fire6/squeeze1x1"
  type: "Convolution"
  bottom: "fire5/concat"
  top: "fire6/squeeze1x1"
  convolution_param {
    num_output: 48
    kernel_size: 1
    weight_filler {
      type: "xavier"
    }
  }
}
layer {
  name: "fire6/relu_squeeze1x1"
  type: "ReLU"
  bottom: "fire6/squeeze1x1"
  top: "fire6/squeeze1x1"
}
layer {
  name: "fire6/expand1x1"
  type: "Convolution"
  bottom: "fire6/squeeze1x1"
  top: "fire6/expand1x1"
  convolution_param {
    num_output: 192
    kernel_size: 1
    weight_filler {
      type: "xavier"
    }
  }
}
layer {
  name: "fire6/relu_expand1x1"
  type: "ReLU"
  bottom: "fire6/expand1x1"
  top: "fire6/expand1x1"
}
layer {
  name: "fire6/expand3x3"
  type: "Convolution"
  bottom: "fire6/squeeze1x1"
  top: "fire6/expand3x3"
  convolution_param {
    num_output: 192
    pad: 1
    kernel_size: 3
    weight_filler {
      type: "xavier"
    }
  }
}
layer {
  name: "fire6/relu_expand3x3"
  type: "ReLU"
  bottom: "fire6/expand3x3"
  top: "fire6/expand3x3"
}
layer {
  name: "fire6/concat"
  type: "Concat"
  bottom: "fire6/expand1x1"
  bottom: "fire6/expand3x3"
  top: "fire6/concat"
}
layer {
  name: "fire7/squeeze1x1"
  type: "Convolution"
  bottom: "fire6/concat"
  top: "fire7/squeeze1x1"
  convolution_param {
    num_output: 48
    kernel_size: 1
    weight_filler {
      type: "xavier"
    }
  }
}
layer {
  name: "fire7/relu_squeeze1x1"
  type: "ReLU"
  bottom: "fire7/squeeze1x1"
  top: "fire7/squeeze1x1"
}
layer {
  name: "fire7/expand1x1"
  type: "Convolution"
  bottom: "fire7/squeeze1x1"
  top: "fire7/expand1x1"
  convolution_param {
    num_output: 192
    kernel_size: 1
    weight_filler {
      type: "xavier"
    }
  }
}
layer {
  name: "fire7/relu_expand1x1"
  type: "ReLU"
  bottom: "fire7/expand1x1"
  top: "fire7/expand1x1"
}
layer {
  name: "fire7/expand3x3"
  type: "Convolution"
  bottom: "fire7/squeeze1x1"
  top: "fire7/expand3x3"
  convolution_param {
    num_output: 192
    pad: 1
    kernel_size: 3
    weight_filler {
      type: "xavier"
    }
  }
}
layer {
  name: "fire7/relu_expand3x3"
  type: "ReLU"
  bottom: "fire7/expand3x3"
  top: "fire7/expand3x3"
}
layer {
  name: "fire7/concat"
  type: "Concat"
  bottom: "fire7/expand1x1"
  bottom: "fire7/expand3x3"
  top: "fire7/concat"
}
layer {
  name: "fire8/squeeze1x1"
  type: "Convolution"
  bottom: "fire7/concat"
  top: "fire8/squeeze1x1"
  convolution_param {
    num_output: 64
    kernel_size: 1
    weight_filler {
      type: "xavier"
    }
  }
}
layer {
  name: "fire8/relu_squeeze1x1"
  type: "ReLU"
  bottom: "fire8/squeeze1x1"
  top: "fire8/squeeze1x1"
}
layer {
  name: "fire8/expand1x1"
  type: "Convolution"
  bottom: "fire8/squeeze1x1"
  top: "fire8/expand1x1"
  convolution_param {
    num_output: 256
    kernel_size: 1
    weight_filler {
      type: "xavier"
    }
  }
}
layer {
  name: "fire8/relu_expand1x1"
  type: "ReLU"
  bottom: "fire8/expand1x1"
  top: "fire8/expand1x1"
}
layer {
  name: "fire8/expand3x3"
  type: "Convolution"
  bottom: "fire8/squeeze1x1"
  top: "fire8/expand3x3"
  convolution_param {
    num_output: 256
    pad: 1
    kernel_size: 3
    weight_filler {
      type: "xavier"
    }
  }
}
layer {
  name: "fire8/relu_expand3x3"
  type: "ReLU"
  bottom: "fire8/expand3x3"
  top: "fire8/expand3x3"
}
layer {
  name: "fire8/concat"
  type: "Concat"
  bottom: "fire8/expand1x1"
  bottom: "fire8/expand3x3"
  top: "fire8/concat"
}
layer {
  name: "pool8"
  type: "Pooling"
  bottom: "fire8/concat"
  top: "pool8"
  pooling_param {
    pool: MAX
    kernel_size: 3
    stride: 2
  }
}
layer {
  name: "fire9/squeeze1x1"
  type: "Convolution"
  bottom: "pool8"
  top: "fire9/squeeze1x1"
  convolution_param {
    num_output: 64
    kernel_size: 1
    weight_filler {
      type: "xavier"
    }
  }
}
layer {
  name: "fire9/relu_squeeze1x1"
  type: "ReLU"
  bottom: "fire9/squeeze1x1"
  top: "fire9/squeeze1x1"
}
layer {
  name: "fire9/expand1x1"
  type: "Convolution"
  bottom: "fire9/squeeze1x1"
  top: "fire9/expand1x1"
  convolution_param {
    num_output: 256
    kernel_size: 1
    weight_filler {
      type: "xavier"
    }
  }
}
layer {
  name: "fire9/relu_expand1x1"
  type: "ReLU"
  bottom: "fire9/expand1x1"
  top: "fire9/expand1x1"
}
layer {
  name: "fire9/expand3x3"
  type: "Convolution"
  bottom: "fire9/squeeze1x1"
  top: "fire9/expand3x3"
  convolution_param {
    num_output: 256
    pad: 1
    kernel_size: 3
    weight_filler {
      type: "xavier"
    }
  }
}
layer {
  name: "fire9/relu_expand3x3"
  type: "ReLU"
  bottom: "fire9/expand3x3"
  top: "fire9/expand3x3"
}
layer {
  name: "fire9/concat"
  type: "Concat"
  bottom: "fire9/expand1x1"
  bottom: "fire9/expand3x3"
  top: "fire9/concat"
}
layer {
  name: "drop9"
  type: "Dropout"
  bottom: "fire9/concat"
  top: "fire9/concat"
  dropout_param {
    dropout_ratio: 0.5
  }
}
layer {
  name: "conv10_modified"
  type: "Convolution"
  bottom: "fire9/concat"
  top: "conv10"
  convolution_param {
    num_output: 10
    pad: 1
    kernel_size: 1
    weight_filler {
      type: "gaussian"
      mean: 0
      std: 0.01
    }
  }
}
layer {
  name: "relu_conv10"
  type: "ReLU"
  bottom: "conv10"
  top: "conv10"
}
layer {
  name: "pool10"
  type: "Pooling"
  bottom: "conv10"
  top: "pool10"
  pooling_param {
    pool: AVE
    global_pooling: true
  }
}
layer {
  name: "accuracy"
  type: "Accuracy"
  bottom: "pool10"
  bottom: "label"
  top: "accuracy"
  include {
  }
}
layer {
  name: "accuracy_top5"
  type: "Accuracy"
  bottom: "pool10"
  bottom: "label"
  top: "accuracy_top5"
  include {
  }
  accuracy_param {
    top_k: 5
  }
}
I0416 23:00:53.191684  1504 layer_factory.cpp:58] Creating layer data
I0416 23:00:53.215620  1504 db_leveldb.cpp:18] Opened leveldb D:/ML/COMP551/Project4/models/cifar10/cifar10_test_leveldb
I0416 23:00:53.217617  1504 net.cpp:84] Creating Layer data
I0416 23:00:53.217617  1504 net.cpp:380] data -> data
I0416 23:00:53.217617  1504 net.cpp:380] data -> label
I0416 23:00:53.217617  1504 data_transformer.cpp:25] Loading mean file from: D:/ML/COMP551/Project4/models/cifar10/mean_file/mean.binaryproto
I0416 23:00:53.217617  1504 data_layer.cpp:45] output data size: 100,3,32,32
I0416 23:00:53.233573  1504 net.cpp:122] Setting up data
I0416 23:00:53.233573  1504 net.cpp:129] Top shape: 100 3 32 32 (307200)
I0416 23:00:53.233573  1504 net.cpp:129] Top shape: 100 (100)
I0416 23:00:53.233573  1504 net.cpp:137] Memory required for data: 1229200
I0416 23:00:53.233573  1504 layer_factory.cpp:58] Creating layer label_data_1_split
I0416 23:00:53.233573  1504 net.cpp:84] Creating Layer label_data_1_split
I0416 23:00:53.233573  1504 net.cpp:406] label_data_1_split <- label
I0416 23:00:53.233573  1504 net.cpp:380] label_data_1_split -> label_data_1_split_0
I0416 23:00:53.234571  1504 net.cpp:380] label_data_1_split -> label_data_1_split_1
I0416 23:00:53.234571  1504 net.cpp:122] Setting up label_data_1_split
I0416 23:00:53.234571  1504 net.cpp:129] Top shape: 100 (100)
I0416 23:00:53.234571  1504 net.cpp:129] Top shape: 100 (100)
I0416 23:00:53.234571  1504 net.cpp:137] Memory required for data: 1230000
I0416 23:00:53.235569  1504 layer_factory.cpp:58] Creating layer conv1
I0416 23:00:53.235569  1504 net.cpp:84] Creating Layer conv1
I0416 23:00:53.235569  1504 net.cpp:406] conv1 <- data
I0416 23:00:53.235569  1504 net.cpp:380] conv1 -> conv1
I0416 23:00:53.235569 10928 common.cpp:36] System entropy source not available, using fallback algorithm to generate seed instead.
I0416 23:00:53.243552  1504 net.cpp:122] Setting up conv1
I0416 23:00:53.243552  1504 net.cpp:129] Top shape: 100 96 13 13 (1622400)
I0416 23:00:53.243552  1504 net.cpp:137] Memory required for data: 7719600
I0416 23:00:53.243552  1504 layer_factory.cpp:58] Creating layer relu_conv1
I0416 23:00:53.243552  1504 net.cpp:84] Creating Layer relu_conv1
I0416 23:00:53.243552  1504 net.cpp:406] relu_conv1 <- conv1
I0416 23:00:53.244544  1504 net.cpp:367] relu_conv1 -> conv1 (in-place)
I0416 23:00:53.248595  1504 net.cpp:122] Setting up relu_conv1
I0416 23:00:53.248595  1504 net.cpp:129] Top shape: 100 96 13 13 (1622400)
I0416 23:00:53.248595  1504 net.cpp:137] Memory required for data: 14209200
I0416 23:00:53.248595  1504 layer_factory.cpp:58] Creating layer pool1
I0416 23:00:53.248595  1504 net.cpp:84] Creating Layer pool1
I0416 23:00:53.248595  1504 net.cpp:406] pool1 <- conv1
I0416 23:00:53.248595  1504 net.cpp:380] pool1 -> pool1
I0416 23:00:53.248595  1504 net.cpp:122] Setting up pool1
I0416 23:00:53.248595  1504 net.cpp:129] Top shape: 100 96 6 6 (345600)
I0416 23:00:53.248595  1504 net.cpp:137] Memory required for data: 15591600
I0416 23:00:53.248595  1504 layer_factory.cpp:58] Creating layer fire2/squeeze1x1
I0416 23:00:53.249533  1504 net.cpp:84] Creating Layer fire2/squeeze1x1
I0416 23:00:53.249533  1504 net.cpp:406] fire2/squeeze1x1 <- pool1
I0416 23:00:53.249533  1504 net.cpp:380] fire2/squeeze1x1 -> fire2/squeeze1x1
I0416 23:00:53.255550  1504 net.cpp:122] Setting up fire2/squeeze1x1
I0416 23:00:53.255550  1504 net.cpp:129] Top shape: 100 16 6 6 (57600)
I0416 23:00:53.255550  1504 net.cpp:137] Memory required for data: 15822000
I0416 23:00:53.255550  1504 layer_factory.cpp:58] Creating layer fire2/relu_squeeze1x1
I0416 23:00:53.255550  1504 net.cpp:84] Creating Layer fire2/relu_squeeze1x1
I0416 23:00:53.255550  1504 net.cpp:406] fire2/relu_squeeze1x1 <- fire2/squeeze1x1
I0416 23:00:53.255550  1504 net.cpp:367] fire2/relu_squeeze1x1 -> fire2/squeeze1x1 (in-place)
I0416 23:00:53.257508  1504 net.cpp:122] Setting up fire2/relu_squeeze1x1
I0416 23:00:53.258507  1504 net.cpp:129] Top shape: 100 16 6 6 (57600)
I0416 23:00:53.258507  1504 net.cpp:137] Memory required for data: 16052400
I0416 23:00:53.258507  1504 layer_factory.cpp:58] Creating layer fire2/squeeze1x1_fire2/relu_squeeze1x1_0_split
I0416 23:00:53.258507  1504 net.cpp:84] Creating Layer fire2/squeeze1x1_fire2/relu_squeeze1x1_0_split
I0416 23:00:53.258507  1504 net.cpp:406] fire2/squeeze1x1_fire2/relu_squeeze1x1_0_split <- fire2/squeeze1x1
I0416 23:00:53.258507  1504 net.cpp:380] fire2/squeeze1x1_fire2/relu_squeeze1x1_0_split -> fire2/squeeze1x1_fire2/relu_squeeze1x1_0_split_0
I0416 23:00:53.258507  1504 net.cpp:380] fire2/squeeze1x1_fire2/relu_squeeze1x1_0_split -> fire2/squeeze1x1_fire2/relu_squeeze1x1_0_split_1
I0416 23:00:53.258507  1504 net.cpp:122] Setting up fire2/squeeze1x1_fire2/relu_squeeze1x1_0_split
I0416 23:00:53.258507  1504 net.cpp:129] Top shape: 100 16 6 6 (57600)
I0416 23:00:53.258507  1504 net.cpp:129] Top shape: 100 16 6 6 (57600)
I0416 23:00:53.258507  1504 net.cpp:137] Memory required for data: 16513200
I0416 23:00:53.258507  1504 layer_factory.cpp:58] Creating layer fire2/expand1x1
I0416 23:00:53.258507  1504 net.cpp:84] Creating Layer fire2/expand1x1
I0416 23:00:53.259506  1504 net.cpp:406] fire2/expand1x1 <- fire2/squeeze1x1_fire2/relu_squeeze1x1_0_split_0
I0416 23:00:53.259506  1504 net.cpp:380] fire2/expand1x1 -> fire2/expand1x1
I0416 23:00:53.264492  1504 net.cpp:122] Setting up fire2/expand1x1
I0416 23:00:53.264492  1504 net.cpp:129] Top shape: 100 64 6 6 (230400)
I0416 23:00:53.264492  1504 net.cpp:137] Memory required for data: 17434800
I0416 23:00:53.264492  1504 layer_factory.cpp:58] Creating layer fire2/relu_expand1x1
I0416 23:00:53.264492  1504 net.cpp:84] Creating Layer fire2/relu_expand1x1
I0416 23:00:53.264492  1504 net.cpp:406] fire2/relu_expand1x1 <- fire2/expand1x1
I0416 23:00:53.265488  1504 net.cpp:367] fire2/relu_expand1x1 -> fire2/expand1x1 (in-place)
I0416 23:00:53.267483  1504 net.cpp:122] Setting up fire2/relu_expand1x1
I0416 23:00:53.267483  1504 net.cpp:129] Top shape: 100 64 6 6 (230400)
I0416 23:00:53.267483  1504 net.cpp:137] Memory required for data: 18356400
I0416 23:00:53.267483  1504 layer_factory.cpp:58] Creating layer fire2/expand3x3
I0416 23:00:53.267483  1504 net.cpp:84] Creating Layer fire2/expand3x3
I0416 23:00:53.267483  1504 net.cpp:406] fire2/expand3x3 <- fire2/squeeze1x1_fire2/relu_squeeze1x1_0_split_1
I0416 23:00:53.267483  1504 net.cpp:380] fire2/expand3x3 -> fire2/expand3x3
I0416 23:00:53.275461  1504 net.cpp:122] Setting up fire2/expand3x3
I0416 23:00:53.275461  1504 net.cpp:129] Top shape: 100 64 6 6 (230400)
I0416 23:00:53.275461  1504 net.cpp:137] Memory required for data: 19278000
I0416 23:00:53.275461  1504 layer_factory.cpp:58] Creating layer fire2/relu_expand3x3
I0416 23:00:53.275461  1504 net.cpp:84] Creating Layer fire2/relu_expand3x3
I0416 23:00:53.275461  1504 net.cpp:406] fire2/relu_expand3x3 <- fire2/expand3x3
I0416 23:00:53.275461  1504 net.cpp:367] fire2/relu_expand3x3 -> fire2/expand3x3 (in-place)
I0416 23:00:53.278455  1504 net.cpp:122] Setting up fire2/relu_expand3x3
I0416 23:00:53.278455  1504 net.cpp:129] Top shape: 100 64 6 6 (230400)
I0416 23:00:53.278455  1504 net.cpp:137] Memory required for data: 20199600
I0416 23:00:53.278455  1504 layer_factory.cpp:58] Creating layer fire2/concat
I0416 23:00:53.279451  1504 net.cpp:84] Creating Layer fire2/concat
I0416 23:00:53.279451  1504 net.cpp:406] fire2/concat <- fire2/expand1x1
I0416 23:00:53.279451  1504 net.cpp:406] fire2/concat <- fire2/expand3x3
I0416 23:00:53.279451  1504 net.cpp:380] fire2/concat -> fire2/concat
I0416 23:00:53.279451  1504 net.cpp:122] Setting up fire2/concat
I0416 23:00:53.279451  1504 net.cpp:129] Top shape: 100 128 6 6 (460800)
I0416 23:00:53.279451  1504 net.cpp:137] Memory required for data: 22042800
I0416 23:00:53.279451  1504 layer_factory.cpp:58] Creating layer fire3/squeeze1x1
I0416 23:00:53.279451  1504 net.cpp:84] Creating Layer fire3/squeeze1x1
I0416 23:00:53.279451  1504 net.cpp:406] fire3/squeeze1x1 <- fire2/concat
I0416 23:00:53.279451  1504 net.cpp:380] fire3/squeeze1x1 -> fire3/squeeze1x1
I0416 23:00:53.286604  1504 net.cpp:122] Setting up fire3/squeeze1x1
I0416 23:00:53.286604  1504 net.cpp:129] Top shape: 100 16 6 6 (57600)
I0416 23:00:53.286604  1504 net.cpp:137] Memory required for data: 22273200
I0416 23:00:53.286604  1504 layer_factory.cpp:58] Creating layer fire3/relu_squeeze1x1
I0416 23:00:53.286604  1504 net.cpp:84] Creating Layer fire3/relu_squeeze1x1
I0416 23:00:53.286604  1504 net.cpp:406] fire3/relu_squeeze1x1 <- fire3/squeeze1x1
I0416 23:00:53.286604  1504 net.cpp:367] fire3/relu_squeeze1x1 -> fire3/squeeze1x1 (in-place)
I0416 23:00:53.288431  1504 net.cpp:122] Setting up fire3/relu_squeeze1x1
I0416 23:00:53.288431  1504 net.cpp:129] Top shape: 100 16 6 6 (57600)
I0416 23:00:53.288431  1504 net.cpp:137] Memory required for data: 22503600
I0416 23:00:53.288431  1504 layer_factory.cpp:58] Creating layer fire3/squeeze1x1_fire3/relu_squeeze1x1_0_split
I0416 23:00:53.288431  1504 net.cpp:84] Creating Layer fire3/squeeze1x1_fire3/relu_squeeze1x1_0_split
I0416 23:00:53.288431  1504 net.cpp:406] fire3/squeeze1x1_fire3/relu_squeeze1x1_0_split <- fire3/squeeze1x1
I0416 23:00:53.288431  1504 net.cpp:380] fire3/squeeze1x1_fire3/relu_squeeze1x1_0_split -> fire3/squeeze1x1_fire3/relu_squeeze1x1_0_split_0
I0416 23:00:53.288431  1504 net.cpp:380] fire3/squeeze1x1_fire3/relu_squeeze1x1_0_split -> fire3/squeeze1x1_fire3/relu_squeeze1x1_0_split_1
I0416 23:00:53.288431  1504 net.cpp:122] Setting up fire3/squeeze1x1_fire3/relu_squeeze1x1_0_split
I0416 23:00:53.288431  1504 net.cpp:129] Top shape: 100 16 6 6 (57600)
I0416 23:00:53.288431  1504 net.cpp:129] Top shape: 100 16 6 6 (57600)
I0416 23:00:53.288431  1504 net.cpp:137] Memory required for data: 22964400
I0416 23:00:53.288431  1504 layer_factory.cpp:58] Creating layer fire3/expand1x1
I0416 23:00:53.288431  1504 net.cpp:84] Creating Layer fire3/expand1x1
I0416 23:00:53.288431  1504 net.cpp:406] fire3/expand1x1 <- fire3/squeeze1x1_fire3/relu_squeeze1x1_0_split_0
I0416 23:00:53.289428  1504 net.cpp:380] fire3/expand1x1 -> fire3/expand1x1
I0416 23:00:53.295411  1504 net.cpp:122] Setting up fire3/expand1x1
I0416 23:00:53.295411  1504 net.cpp:129] Top shape: 100 64 6 6 (230400)
I0416 23:00:53.295411  1504 net.cpp:137] Memory required for data: 23886000
I0416 23:00:53.295411  1504 layer_factory.cpp:58] Creating layer fire3/relu_expand1x1
I0416 23:00:53.295411  1504 net.cpp:84] Creating Layer fire3/relu_expand1x1
I0416 23:00:53.295411  1504 net.cpp:406] fire3/relu_expand1x1 <- fire3/expand1x1
I0416 23:00:53.295411  1504 net.cpp:367] fire3/relu_expand1x1 -> fire3/expand1x1 (in-place)
I0416 23:00:53.299427  1504 net.cpp:122] Setting up fire3/relu_expand1x1
I0416 23:00:53.299427  1504 net.cpp:129] Top shape: 100 64 6 6 (230400)
I0416 23:00:53.299427  1504 net.cpp:137] Memory required for data: 24807600
I0416 23:00:53.299427  1504 layer_factory.cpp:58] Creating layer fire3/expand3x3
I0416 23:00:53.299427  1504 net.cpp:84] Creating Layer fire3/expand3x3
I0416 23:00:53.299427  1504 net.cpp:406] fire3/expand3x3 <- fire3/squeeze1x1_fire3/relu_squeeze1x1_0_split_1
I0416 23:00:53.299427  1504 net.cpp:380] fire3/expand3x3 -> fire3/expand3x3
I0416 23:00:53.305411  1504 net.cpp:122] Setting up fire3/expand3x3
I0416 23:00:53.305411  1504 net.cpp:129] Top shape: 100 64 6 6 (230400)
I0416 23:00:53.305411  1504 net.cpp:137] Memory required for data: 25729200
I0416 23:00:53.305411  1504 layer_factory.cpp:58] Creating layer fire3/relu_expand3x3
I0416 23:00:53.305411  1504 net.cpp:84] Creating Layer fire3/relu_expand3x3
I0416 23:00:53.305411  1504 net.cpp:406] fire3/relu_expand3x3 <- fire3/expand3x3
I0416 23:00:53.305411  1504 net.cpp:367] fire3/relu_expand3x3 -> fire3/expand3x3 (in-place)
I0416 23:00:53.308375  1504 net.cpp:122] Setting up fire3/relu_expand3x3
I0416 23:00:53.309370  1504 net.cpp:129] Top shape: 100 64 6 6 (230400)
I0416 23:00:53.309370  1504 net.cpp:137] Memory required for data: 26650800
I0416 23:00:53.309370  1504 layer_factory.cpp:58] Creating layer fire3/concat
I0416 23:00:53.309370  1504 net.cpp:84] Creating Layer fire3/concat
I0416 23:00:53.309370  1504 net.cpp:406] fire3/concat <- fire3/expand1x1
I0416 23:00:53.309370  1504 net.cpp:406] fire3/concat <- fire3/expand3x3
I0416 23:00:53.309370  1504 net.cpp:380] fire3/concat -> fire3/concat
I0416 23:00:53.309370  1504 net.cpp:122] Setting up fire3/concat
I0416 23:00:53.309370  1504 net.cpp:129] Top shape: 100 128 6 6 (460800)
I0416 23:00:53.309370  1504 net.cpp:137] Memory required for data: 28494000
I0416 23:00:53.309370  1504 layer_factory.cpp:58] Creating layer fire4/squeeze1x1
I0416 23:00:53.309370  1504 net.cpp:84] Creating Layer fire4/squeeze1x1
I0416 23:00:53.309370  1504 net.cpp:406] fire4/squeeze1x1 <- fire3/concat
I0416 23:00:53.309370  1504 net.cpp:380] fire4/squeeze1x1 -> fire4/squeeze1x1
I0416 23:00:53.315354  1504 net.cpp:122] Setting up fire4/squeeze1x1
I0416 23:00:53.315354  1504 net.cpp:129] Top shape: 100 32 6 6 (115200)
I0416 23:00:53.315706  1504 net.cpp:137] Memory required for data: 28954800
I0416 23:00:53.315706  1504 layer_factory.cpp:58] Creating layer fire4/relu_squeeze1x1
I0416 23:00:53.315706  1504 net.cpp:84] Creating Layer fire4/relu_squeeze1x1
I0416 23:00:53.315706  1504 net.cpp:406] fire4/relu_squeeze1x1 <- fire4/squeeze1x1
I0416 23:00:53.315706  1504 net.cpp:367] fire4/relu_squeeze1x1 -> fire4/squeeze1x1 (in-place)
I0416 23:00:53.317559  1504 net.cpp:122] Setting up fire4/relu_squeeze1x1
I0416 23:00:53.318346  1504 net.cpp:129] Top shape: 100 32 6 6 (115200)
I0416 23:00:53.318346  1504 net.cpp:137] Memory required for data: 29415600
I0416 23:00:53.318346  1504 layer_factory.cpp:58] Creating layer fire4/squeeze1x1_fire4/relu_squeeze1x1_0_split
I0416 23:00:53.318346  1504 net.cpp:84] Creating Layer fire4/squeeze1x1_fire4/relu_squeeze1x1_0_split
I0416 23:00:53.318346  1504 net.cpp:406] fire4/squeeze1x1_fire4/relu_squeeze1x1_0_split <- fire4/squeeze1x1
I0416 23:00:53.318346  1504 net.cpp:380] fire4/squeeze1x1_fire4/relu_squeeze1x1_0_split -> fire4/squeeze1x1_fire4/relu_squeeze1x1_0_split_0
I0416 23:00:53.318346  1504 net.cpp:380] fire4/squeeze1x1_fire4/relu_squeeze1x1_0_split -> fire4/squeeze1x1_fire4/relu_squeeze1x1_0_split_1
I0416 23:00:53.318346  1504 net.cpp:122] Setting up fire4/squeeze1x1_fire4/relu_squeeze1x1_0_split
I0416 23:00:53.318346  1504 net.cpp:129] Top shape: 100 32 6 6 (115200)
I0416 23:00:53.318346  1504 net.cpp:129] Top shape: 100 32 6 6 (115200)
I0416 23:00:53.318346  1504 net.cpp:137] Memory required for data: 30337200
I0416 23:00:53.318346  1504 layer_factory.cpp:58] Creating layer fire4/expand1x1
I0416 23:00:53.318346  1504 net.cpp:84] Creating Layer fire4/expand1x1
I0416 23:00:53.318346  1504 net.cpp:406] fire4/expand1x1 <- fire4/squeeze1x1_fire4/relu_squeeze1x1_0_split_0
I0416 23:00:53.319344  1504 net.cpp:380] fire4/expand1x1 -> fire4/expand1x1
I0416 23:00:53.326324  1504 net.cpp:122] Setting up fire4/expand1x1
I0416 23:00:53.326324  1504 net.cpp:129] Top shape: 100 128 6 6 (460800)
I0416 23:00:53.326324  1504 net.cpp:137] Memory required for data: 32180400
I0416 23:00:53.326324  1504 layer_factory.cpp:58] Creating layer fire4/relu_expand1x1
I0416 23:00:53.326324  1504 net.cpp:84] Creating Layer fire4/relu_expand1x1
I0416 23:00:53.326324  1504 net.cpp:406] fire4/relu_expand1x1 <- fire4/expand1x1
I0416 23:00:53.326324  1504 net.cpp:367] fire4/relu_expand1x1 -> fire4/expand1x1 (in-place)
I0416 23:00:53.328320  1504 net.cpp:122] Setting up fire4/relu_expand1x1
I0416 23:00:53.328320  1504 net.cpp:129] Top shape: 100 128 6 6 (460800)
I0416 23:00:53.328320  1504 net.cpp:137] Memory required for data: 34023600
I0416 23:00:53.328320  1504 layer_factory.cpp:58] Creating layer fire4/expand3x3
I0416 23:00:53.328320  1504 net.cpp:84] Creating Layer fire4/expand3x3
I0416 23:00:53.328320  1504 net.cpp:406] fire4/expand3x3 <- fire4/squeeze1x1_fire4/relu_squeeze1x1_0_split_1
I0416 23:00:53.329146  1504 net.cpp:380] fire4/expand3x3 -> fire4/expand3x3
I0416 23:00:53.336300  1504 net.cpp:122] Setting up fire4/expand3x3
I0416 23:00:53.336300  1504 net.cpp:129] Top shape: 100 128 6 6 (460800)
I0416 23:00:53.336300  1504 net.cpp:137] Memory required for data: 35866800
I0416 23:00:53.336300  1504 layer_factory.cpp:58] Creating layer fire4/relu_expand3x3
I0416 23:00:53.336300  1504 net.cpp:84] Creating Layer fire4/relu_expand3x3
I0416 23:00:53.336300  1504 net.cpp:406] fire4/relu_expand3x3 <- fire4/expand3x3
I0416 23:00:53.336300  1504 net.cpp:367] fire4/relu_expand3x3 -> fire4/expand3x3 (in-place)
I0416 23:00:53.337297  1504 net.cpp:122] Setting up fire4/relu_expand3x3
I0416 23:00:53.337297  1504 net.cpp:129] Top shape: 100 128 6 6 (460800)
I0416 23:00:53.337297  1504 net.cpp:137] Memory required for data: 37710000
I0416 23:00:53.337297  1504 layer_factory.cpp:58] Creating layer fire4/concat
I0416 23:00:53.337297  1504 net.cpp:84] Creating Layer fire4/concat
I0416 23:00:53.337297  1504 net.cpp:406] fire4/concat <- fire4/expand1x1
I0416 23:00:53.337297  1504 net.cpp:406] fire4/concat <- fire4/expand3x3
I0416 23:00:53.337297  1504 net.cpp:380] fire4/concat -> fire4/concat
I0416 23:00:53.338294  1504 net.cpp:122] Setting up fire4/concat
I0416 23:00:53.338294  1504 net.cpp:129] Top shape: 100 256 6 6 (921600)
I0416 23:00:53.338294  1504 net.cpp:137] Memory required for data: 41396400
I0416 23:00:53.338294  1504 layer_factory.cpp:58] Creating layer pool4
I0416 23:00:53.338294  1504 net.cpp:84] Creating Layer pool4
I0416 23:00:53.338294  1504 net.cpp:406] pool4 <- fire4/concat
I0416 23:00:53.338294  1504 net.cpp:380] pool4 -> pool4
I0416 23:00:53.338294  1504 net.cpp:122] Setting up pool4
I0416 23:00:53.338294  1504 net.cpp:129] Top shape: 100 256 3 3 (230400)
I0416 23:00:53.338294  1504 net.cpp:137] Memory required for data: 42318000
I0416 23:00:53.338294  1504 layer_factory.cpp:58] Creating layer fire5/squeeze1x1
I0416 23:00:53.338294  1504 net.cpp:84] Creating Layer fire5/squeeze1x1
I0416 23:00:53.338294  1504 net.cpp:406] fire5/squeeze1x1 <- pool4
I0416 23:00:53.338294  1504 net.cpp:380] fire5/squeeze1x1 -> fire5/squeeze1x1
I0416 23:00:53.344277  1504 net.cpp:122] Setting up fire5/squeeze1x1
I0416 23:00:53.344277  1504 net.cpp:129] Top shape: 100 32 3 3 (28800)
I0416 23:00:53.344277  1504 net.cpp:137] Memory required for data: 42433200
I0416 23:00:53.344277  1504 layer_factory.cpp:58] Creating layer fire5/relu_squeeze1x1
I0416 23:00:53.344277  1504 net.cpp:84] Creating Layer fire5/relu_squeeze1x1
I0416 23:00:53.344277  1504 net.cpp:406] fire5/relu_squeeze1x1 <- fire5/squeeze1x1
I0416 23:00:53.344277  1504 net.cpp:367] fire5/relu_squeeze1x1 -> fire5/squeeze1x1 (in-place)
I0416 23:00:53.345273  1504 net.cpp:122] Setting up fire5/relu_squeeze1x1
I0416 23:00:53.345273  1504 net.cpp:129] Top shape: 100 32 3 3 (28800)
I0416 23:00:53.345273  1504 net.cpp:137] Memory required for data: 42548400
I0416 23:00:53.345273  1504 layer_factory.cpp:58] Creating layer fire5/squeeze1x1_fire5/relu_squeeze1x1_0_split
I0416 23:00:53.345273  1504 net.cpp:84] Creating Layer fire5/squeeze1x1_fire5/relu_squeeze1x1_0_split
I0416 23:00:53.345273  1504 net.cpp:406] fire5/squeeze1x1_fire5/relu_squeeze1x1_0_split <- fire5/squeeze1x1
I0416 23:00:53.345273  1504 net.cpp:380] fire5/squeeze1x1_fire5/relu_squeeze1x1_0_split -> fire5/squeeze1x1_fire5/relu_squeeze1x1_0_split_0
I0416 23:00:53.345273  1504 net.cpp:380] fire5/squeeze1x1_fire5/relu_squeeze1x1_0_split -> fire5/squeeze1x1_fire5/relu_squeeze1x1_0_split_1
I0416 23:00:53.345273  1504 net.cpp:122] Setting up fire5/squeeze1x1_fire5/relu_squeeze1x1_0_split
I0416 23:00:53.345273  1504 net.cpp:129] Top shape: 100 32 3 3 (28800)
I0416 23:00:53.345273  1504 net.cpp:129] Top shape: 100 32 3 3 (28800)
I0416 23:00:53.345273  1504 net.cpp:137] Memory required for data: 42778800
I0416 23:00:53.345273  1504 layer_factory.cpp:58] Creating layer fire5/expand1x1
I0416 23:00:53.345273  1504 net.cpp:84] Creating Layer fire5/expand1x1
I0416 23:00:53.345273  1504 net.cpp:406] fire5/expand1x1 <- fire5/squeeze1x1_fire5/relu_squeeze1x1_0_split_0
I0416 23:00:53.346271  1504 net.cpp:380] fire5/expand1x1 -> fire5/expand1x1
I0416 23:00:53.351259  1504 net.cpp:122] Setting up fire5/expand1x1
I0416 23:00:53.351259  1504 net.cpp:129] Top shape: 100 128 3 3 (115200)
I0416 23:00:53.351259  1504 net.cpp:137] Memory required for data: 43239600
I0416 23:00:53.352255  1504 layer_factory.cpp:58] Creating layer fire5/relu_expand1x1
I0416 23:00:53.352255  1504 net.cpp:84] Creating Layer fire5/relu_expand1x1
I0416 23:00:53.352255  1504 net.cpp:406] fire5/relu_expand1x1 <- fire5/expand1x1
I0416 23:00:53.352255  1504 net.cpp:367] fire5/relu_expand1x1 -> fire5/expand1x1 (in-place)
I0416 23:00:53.353255  1504 net.cpp:122] Setting up fire5/relu_expand1x1
I0416 23:00:53.353255  1504 net.cpp:129] Top shape: 100 128 3 3 (115200)
I0416 23:00:53.353255  1504 net.cpp:137] Memory required for data: 43700400
I0416 23:00:53.353255  1504 layer_factory.cpp:58] Creating layer fire5/expand3x3
I0416 23:00:53.353255  1504 net.cpp:84] Creating Layer fire5/expand3x3
I0416 23:00:53.353255  1504 net.cpp:406] fire5/expand3x3 <- fire5/squeeze1x1_fire5/relu_squeeze1x1_0_split_1
I0416 23:00:53.353255  1504 net.cpp:380] fire5/expand3x3 -> fire5/expand3x3
I0416 23:00:53.358371  1504 net.cpp:122] Setting up fire5/expand3x3
I0416 23:00:53.358371  1504 net.cpp:129] Top shape: 100 128 3 3 (115200)
I0416 23:00:53.358371  1504 net.cpp:137] Memory required for data: 44161200
I0416 23:00:53.358371  1504 layer_factory.cpp:58] Creating layer fire5/relu_expand3x3
I0416 23:00:53.358371  1504 net.cpp:84] Creating Layer fire5/relu_expand3x3
I0416 23:00:53.358371  1504 net.cpp:406] fire5/relu_expand3x3 <- fire5/expand3x3
I0416 23:00:53.358371  1504 net.cpp:367] fire5/relu_expand3x3 -> fire5/expand3x3 (in-place)
I0416 23:00:53.360235  1504 net.cpp:122] Setting up fire5/relu_expand3x3
I0416 23:00:53.360235  1504 net.cpp:129] Top shape: 100 128 3 3 (115200)
I0416 23:00:53.360235  1504 net.cpp:137] Memory required for data: 44622000
I0416 23:00:53.360235  1504 layer_factory.cpp:58] Creating layer fire5/concat
I0416 23:00:53.360235  1504 net.cpp:84] Creating Layer fire5/concat
I0416 23:00:53.360235  1504 net.cpp:406] fire5/concat <- fire5/expand1x1
I0416 23:00:53.360235  1504 net.cpp:406] fire5/concat <- fire5/expand3x3
I0416 23:00:53.360235  1504 net.cpp:380] fire5/concat -> fire5/concat
I0416 23:00:53.360235  1504 net.cpp:122] Setting up fire5/concat
I0416 23:00:53.360235  1504 net.cpp:129] Top shape: 100 256 3 3 (230400)
I0416 23:00:53.360235  1504 net.cpp:137] Memory required for data: 45543600
I0416 23:00:53.360235  1504 layer_factory.cpp:58] Creating layer fire6/squeeze1x1
I0416 23:00:53.360235  1504 net.cpp:84] Creating Layer fire6/squeeze1x1
I0416 23:00:53.360235  1504 net.cpp:406] fire6/squeeze1x1 <- fire5/concat
I0416 23:00:53.360235  1504 net.cpp:380] fire6/squeeze1x1 -> fire6/squeeze1x1
I0416 23:00:53.366219  1504 net.cpp:122] Setting up fire6/squeeze1x1
I0416 23:00:53.366219  1504 net.cpp:129] Top shape: 100 48 3 3 (43200)
I0416 23:00:53.366219  1504 net.cpp:137] Memory required for data: 45716400
I0416 23:00:53.366219  1504 layer_factory.cpp:58] Creating layer fire6/relu_squeeze1x1
I0416 23:00:53.366219  1504 net.cpp:84] Creating Layer fire6/relu_squeeze1x1
I0416 23:00:53.366219  1504 net.cpp:406] fire6/relu_squeeze1x1 <- fire6/squeeze1x1
I0416 23:00:53.366219  1504 net.cpp:367] fire6/relu_squeeze1x1 -> fire6/squeeze1x1 (in-place)
I0416 23:00:53.368257  1504 net.cpp:122] Setting up fire6/relu_squeeze1x1
I0416 23:00:53.368257  1504 net.cpp:129] Top shape: 100 48 3 3 (43200)
I0416 23:00:53.368257  1504 net.cpp:137] Memory required for data: 45889200
I0416 23:00:53.368257  1504 layer_factory.cpp:58] Creating layer fire6/squeeze1x1_fire6/relu_squeeze1x1_0_split
I0416 23:00:53.368257  1504 net.cpp:84] Creating Layer fire6/squeeze1x1_fire6/relu_squeeze1x1_0_split
I0416 23:00:53.368257  1504 net.cpp:406] fire6/squeeze1x1_fire6/relu_squeeze1x1_0_split <- fire6/squeeze1x1
I0416 23:00:53.368257  1504 net.cpp:380] fire6/squeeze1x1_fire6/relu_squeeze1x1_0_split -> fire6/squeeze1x1_fire6/relu_squeeze1x1_0_split_0
I0416 23:00:53.368257  1504 net.cpp:380] fire6/squeeze1x1_fire6/relu_squeeze1x1_0_split -> fire6/squeeze1x1_fire6/relu_squeeze1x1_0_split_1
I0416 23:00:53.368257  1504 net.cpp:122] Setting up fire6/squeeze1x1_fire6/relu_squeeze1x1_0_split
I0416 23:00:53.368257  1504 net.cpp:129] Top shape: 100 48 3 3 (43200)
I0416 23:00:53.369210  1504 net.cpp:129] Top shape: 100 48 3 3 (43200)
I0416 23:00:53.369210  1504 net.cpp:137] Memory required for data: 46234800
I0416 23:00:53.369210  1504 layer_factory.cpp:58] Creating layer fire6/expand1x1
I0416 23:00:53.369210  1504 net.cpp:84] Creating Layer fire6/expand1x1
I0416 23:00:53.369210  1504 net.cpp:406] fire6/expand1x1 <- fire6/squeeze1x1_fire6/relu_squeeze1x1_0_split_0
I0416 23:00:53.369210  1504 net.cpp:380] fire6/expand1x1 -> fire6/expand1x1
I0416 23:00:53.372203  1504 net.cpp:122] Setting up fire6/expand1x1
I0416 23:00:53.372203  1504 net.cpp:129] Top shape: 100 192 3 3 (172800)
I0416 23:00:53.372203  1504 net.cpp:137] Memory required for data: 46926000
I0416 23:00:53.373231  1504 layer_factory.cpp:58] Creating layer fire6/relu_expand1x1
I0416 23:00:53.373231  1504 net.cpp:84] Creating Layer fire6/relu_expand1x1
I0416 23:00:53.373231  1504 net.cpp:406] fire6/relu_expand1x1 <- fire6/expand1x1
I0416 23:00:53.373231  1504 net.cpp:367] fire6/relu_expand1x1 -> fire6/expand1x1 (in-place)
I0416 23:00:53.374323  1504 net.cpp:122] Setting up fire6/relu_expand1x1
I0416 23:00:53.374323  1504 net.cpp:129] Top shape: 100 192 3 3 (172800)
I0416 23:00:53.374323  1504 net.cpp:137] Memory required for data: 47617200
I0416 23:00:53.374323  1504 layer_factory.cpp:58] Creating layer fire6/expand3x3
I0416 23:00:53.374323  1504 net.cpp:84] Creating Layer fire6/expand3x3
I0416 23:00:53.374323  1504 net.cpp:406] fire6/expand3x3 <- fire6/squeeze1x1_fire6/relu_squeeze1x1_0_split_1
I0416 23:00:53.374323  1504 net.cpp:380] fire6/expand3x3 -> fire6/expand3x3
I0416 23:00:53.410780  1504 net.cpp:122] Setting up fire6/expand3x3
I0416 23:00:53.410780  1504 net.cpp:129] Top shape: 100 192 3 3 (172800)
I0416 23:00:53.410780  1504 net.cpp:137] Memory required for data: 48308400
I0416 23:00:53.410780  1504 layer_factory.cpp:58] Creating layer fire6/relu_expand3x3
I0416 23:00:53.410780  1504 net.cpp:84] Creating Layer fire6/relu_expand3x3
I0416 23:00:53.410780  1504 net.cpp:406] fire6/relu_expand3x3 <- fire6/expand3x3
I0416 23:00:53.410780  1504 net.cpp:367] fire6/relu_expand3x3 -> fire6/expand3x3 (in-place)
I0416 23:00:53.411777  1504 net.cpp:122] Setting up fire6/relu_expand3x3
I0416 23:00:53.411777  1504 net.cpp:129] Top shape: 100 192 3 3 (172800)
I0416 23:00:53.411777  1504 net.cpp:137] Memory required for data: 48999600
I0416 23:00:53.411777  1504 layer_factory.cpp:58] Creating layer fire6/concat
I0416 23:00:53.411777  1504 net.cpp:84] Creating Layer fire6/concat
I0416 23:00:53.411777  1504 net.cpp:406] fire6/concat <- fire6/expand1x1
I0416 23:00:53.411777  1504 net.cpp:406] fire6/concat <- fire6/expand3x3
I0416 23:00:53.411777  1504 net.cpp:380] fire6/concat -> fire6/concat
I0416 23:00:53.411777  1504 net.cpp:122] Setting up fire6/concat
I0416 23:00:53.411777  1504 net.cpp:129] Top shape: 100 384 3 3 (345600)
I0416 23:00:53.411777  1504 net.cpp:137] Memory required for data: 50382000
I0416 23:00:53.411777  1504 layer_factory.cpp:58] Creating layer fire7/squeeze1x1
I0416 23:00:53.411777  1504 net.cpp:84] Creating Layer fire7/squeeze1x1
I0416 23:00:53.411777  1504 net.cpp:406] fire7/squeeze1x1 <- fire6/concat
I0416 23:00:53.411777  1504 net.cpp:380] fire7/squeeze1x1 -> fire7/squeeze1x1
I0416 23:00:53.417760  1504 net.cpp:122] Setting up fire7/squeeze1x1
I0416 23:00:53.417760  1504 net.cpp:129] Top shape: 100 48 3 3 (43200)
I0416 23:00:53.417760  1504 net.cpp:137] Memory required for data: 50554800
I0416 23:00:53.417760  1504 layer_factory.cpp:58] Creating layer fire7/relu_squeeze1x1
I0416 23:00:53.417760  1504 net.cpp:84] Creating Layer fire7/relu_squeeze1x1
I0416 23:00:53.417760  1504 net.cpp:406] fire7/relu_squeeze1x1 <- fire7/squeeze1x1
I0416 23:00:53.417760  1504 net.cpp:367] fire7/relu_squeeze1x1 -> fire7/squeeze1x1 (in-place)
I0416 23:00:53.419756  1504 net.cpp:122] Setting up fire7/relu_squeeze1x1
I0416 23:00:53.419756  1504 net.cpp:129] Top shape: 100 48 3 3 (43200)
I0416 23:00:53.419756  1504 net.cpp:137] Memory required for data: 50727600
I0416 23:00:53.419756  1504 layer_factory.cpp:58] Creating layer fire7/squeeze1x1_fire7/relu_squeeze1x1_0_split
I0416 23:00:53.419756  1504 net.cpp:84] Creating Layer fire7/squeeze1x1_fire7/relu_squeeze1x1_0_split
I0416 23:00:53.419756  1504 net.cpp:406] fire7/squeeze1x1_fire7/relu_squeeze1x1_0_split <- fire7/squeeze1x1
I0416 23:00:53.419756  1504 net.cpp:380] fire7/squeeze1x1_fire7/relu_squeeze1x1_0_split -> fire7/squeeze1x1_fire7/relu_squeeze1x1_0_split_0
I0416 23:00:53.419756  1504 net.cpp:380] fire7/squeeze1x1_fire7/relu_squeeze1x1_0_split -> fire7/squeeze1x1_fire7/relu_squeeze1x1_0_split_1
I0416 23:00:53.419756  1504 net.cpp:122] Setting up fire7/squeeze1x1_fire7/relu_squeeze1x1_0_split
I0416 23:00:53.419756  1504 net.cpp:129] Top shape: 100 48 3 3 (43200)
I0416 23:00:53.419756  1504 net.cpp:129] Top shape: 100 48 3 3 (43200)
I0416 23:00:53.419756  1504 net.cpp:137] Memory required for data: 51073200
I0416 23:00:53.419756  1504 layer_factory.cpp:58] Creating layer fire7/expand1x1
I0416 23:00:53.419756  1504 net.cpp:84] Creating Layer fire7/expand1x1
I0416 23:00:53.419756  1504 net.cpp:406] fire7/expand1x1 <- fire7/squeeze1x1_fire7/relu_squeeze1x1_0_split_0
I0416 23:00:53.420753  1504 net.cpp:380] fire7/expand1x1 -> fire7/expand1x1
I0416 23:00:53.424743  1504 net.cpp:122] Setting up fire7/expand1x1
I0416 23:00:53.424743  1504 net.cpp:129] Top shape: 100 192 3 3 (172800)
I0416 23:00:53.424743  1504 net.cpp:137] Memory required for data: 51764400
I0416 23:00:53.424743  1504 layer_factory.cpp:58] Creating layer fire7/relu_expand1x1
I0416 23:00:53.424743  1504 net.cpp:84] Creating Layer fire7/relu_expand1x1
I0416 23:00:53.424743  1504 net.cpp:406] fire7/relu_expand1x1 <- fire7/expand1x1
I0416 23:00:53.424743  1504 net.cpp:367] fire7/relu_expand1x1 -> fire7/expand1x1 (in-place)
I0416 23:00:53.425742  1504 net.cpp:122] Setting up fire7/relu_expand1x1
I0416 23:00:53.425742  1504 net.cpp:129] Top shape: 100 192 3 3 (172800)
I0416 23:00:53.425742  1504 net.cpp:137] Memory required for data: 52455600
I0416 23:00:53.425742  1504 layer_factory.cpp:58] Creating layer fire7/expand3x3
I0416 23:00:53.425742  1504 net.cpp:84] Creating Layer fire7/expand3x3
I0416 23:00:53.425742  1504 net.cpp:406] fire7/expand3x3 <- fire7/squeeze1x1_fire7/relu_squeeze1x1_0_split_1
I0416 23:00:53.426738  1504 net.cpp:380] fire7/expand3x3 -> fire7/expand3x3
I0416 23:00:53.432315  1504 net.cpp:122] Setting up fire7/expand3x3
I0416 23:00:53.432315  1504 net.cpp:129] Top shape: 100 192 3 3 (172800)
I0416 23:00:53.432315  1504 net.cpp:137] Memory required for data: 53146800
I0416 23:00:53.432315  1504 layer_factory.cpp:58] Creating layer fire7/relu_expand3x3
I0416 23:00:53.432315  1504 net.cpp:84] Creating Layer fire7/relu_expand3x3
I0416 23:00:53.432315  1504 net.cpp:406] fire7/relu_expand3x3 <- fire7/expand3x3
I0416 23:00:53.432315  1504 net.cpp:367] fire7/relu_expand3x3 -> fire7/expand3x3 (in-place)
I0416 23:00:53.432749  1504 net.cpp:122] Setting up fire7/relu_expand3x3
I0416 23:00:53.432749  1504 net.cpp:129] Top shape: 100 192 3 3 (172800)
I0416 23:00:53.432749  1504 net.cpp:137] Memory required for data: 53838000
I0416 23:00:53.432749  1504 layer_factory.cpp:58] Creating layer fire7/concat
I0416 23:00:53.432749  1504 net.cpp:84] Creating Layer fire7/concat
I0416 23:00:53.432749  1504 net.cpp:406] fire7/concat <- fire7/expand1x1
I0416 23:00:53.433749  1504 net.cpp:406] fire7/concat <- fire7/expand3x3
I0416 23:00:53.433749  1504 net.cpp:380] fire7/concat -> fire7/concat
I0416 23:00:53.433749  1504 net.cpp:122] Setting up fire7/concat
I0416 23:00:53.433749  1504 net.cpp:129] Top shape: 100 384 3 3 (345600)
I0416 23:00:53.433749  1504 net.cpp:137] Memory required for data: 55220400
I0416 23:00:53.433749  1504 layer_factory.cpp:58] Creating layer fire8/squeeze1x1
I0416 23:00:53.433749  1504 net.cpp:84] Creating Layer fire8/squeeze1x1
I0416 23:00:53.433749  1504 net.cpp:406] fire8/squeeze1x1 <- fire7/concat
I0416 23:00:53.433749  1504 net.cpp:380] fire8/squeeze1x1 -> fire8/squeeze1x1
I0416 23:00:53.435813  1504 net.cpp:122] Setting up fire8/squeeze1x1
I0416 23:00:53.435813  1504 net.cpp:129] Top shape: 100 64 3 3 (57600)
I0416 23:00:53.435813  1504 net.cpp:137] Memory required for data: 55450800
I0416 23:00:53.436740  1504 layer_factory.cpp:58] Creating layer fire8/relu_squeeze1x1
I0416 23:00:53.436740  1504 net.cpp:84] Creating Layer fire8/relu_squeeze1x1
I0416 23:00:53.436740  1504 net.cpp:406] fire8/relu_squeeze1x1 <- fire8/squeeze1x1
I0416 23:00:53.436740  1504 net.cpp:367] fire8/relu_squeeze1x1 -> fire8/squeeze1x1 (in-place)
I0416 23:00:53.437743  1504 net.cpp:122] Setting up fire8/relu_squeeze1x1
I0416 23:00:53.437743  1504 net.cpp:129] Top shape: 100 64 3 3 (57600)
I0416 23:00:53.437743  1504 net.cpp:137] Memory required for data: 55681200
I0416 23:00:53.437743  1504 layer_factory.cpp:58] Creating layer fire8/squeeze1x1_fire8/relu_squeeze1x1_0_split
I0416 23:00:53.437743  1504 net.cpp:84] Creating Layer fire8/squeeze1x1_fire8/relu_squeeze1x1_0_split
I0416 23:00:53.437743  1504 net.cpp:406] fire8/squeeze1x1_fire8/relu_squeeze1x1_0_split <- fire8/squeeze1x1
I0416 23:00:53.437743  1504 net.cpp:380] fire8/squeeze1x1_fire8/relu_squeeze1x1_0_split -> fire8/squeeze1x1_fire8/relu_squeeze1x1_0_split_0
I0416 23:00:53.437743  1504 net.cpp:380] fire8/squeeze1x1_fire8/relu_squeeze1x1_0_split -> fire8/squeeze1x1_fire8/relu_squeeze1x1_0_split_1
I0416 23:00:53.437743  1504 net.cpp:122] Setting up fire8/squeeze1x1_fire8/relu_squeeze1x1_0_split
I0416 23:00:53.437743  1504 net.cpp:129] Top shape: 100 64 3 3 (57600)
I0416 23:00:53.437743  1504 net.cpp:129] Top shape: 100 64 3 3 (57600)
I0416 23:00:53.437743  1504 net.cpp:137] Memory required for data: 56142000
I0416 23:00:53.437743  1504 layer_factory.cpp:58] Creating layer fire8/expand1x1
I0416 23:00:53.437743  1504 net.cpp:84] Creating Layer fire8/expand1x1
I0416 23:00:53.437743  1504 net.cpp:406] fire8/expand1x1 <- fire8/squeeze1x1_fire8/relu_squeeze1x1_0_split_0
I0416 23:00:53.437743  1504 net.cpp:380] fire8/expand1x1 -> fire8/expand1x1
I0416 23:00:53.440699  1504 net.cpp:122] Setting up fire8/expand1x1
I0416 23:00:53.440699  1504 net.cpp:129] Top shape: 100 256 3 3 (230400)
I0416 23:00:53.441728  1504 net.cpp:137] Memory required for data: 57063600
I0416 23:00:53.441728  1504 layer_factory.cpp:58] Creating layer fire8/relu_expand1x1
I0416 23:00:53.441728  1504 net.cpp:84] Creating Layer fire8/relu_expand1x1
I0416 23:00:53.441728  1504 net.cpp:406] fire8/relu_expand1x1 <- fire8/expand1x1
I0416 23:00:53.441728  1504 net.cpp:367] fire8/relu_expand1x1 -> fire8/expand1x1 (in-place)
I0416 23:00:53.442214  1504 net.cpp:122] Setting up fire8/relu_expand1x1
I0416 23:00:53.442214  1504 net.cpp:129] Top shape: 100 256 3 3 (230400)
I0416 23:00:53.442214  1504 net.cpp:137] Memory required for data: 57985200
I0416 23:00:53.442214  1504 layer_factory.cpp:58] Creating layer fire8/expand3x3
I0416 23:00:53.442214  1504 net.cpp:84] Creating Layer fire8/expand3x3
I0416 23:00:53.442214  1504 net.cpp:406] fire8/expand3x3 <- fire8/squeeze1x1_fire8/relu_squeeze1x1_0_split_1
I0416 23:00:53.442214  1504 net.cpp:380] fire8/expand3x3 -> fire8/expand3x3
I0416 23:00:53.448686  1504 net.cpp:122] Setting up fire8/expand3x3
I0416 23:00:53.448686  1504 net.cpp:129] Top shape: 100 256 3 3 (230400)
I0416 23:00:53.448686  1504 net.cpp:137] Memory required for data: 58906800
I0416 23:00:53.448686  1504 layer_factory.cpp:58] Creating layer fire8/relu_expand3x3
I0416 23:00:53.448686  1504 net.cpp:84] Creating Layer fire8/relu_expand3x3
I0416 23:00:53.448686  1504 net.cpp:406] fire8/relu_expand3x3 <- fire8/expand3x3
I0416 23:00:53.448686  1504 net.cpp:367] fire8/relu_expand3x3 -> fire8/expand3x3 (in-place)
I0416 23:00:53.449748  1504 net.cpp:122] Setting up fire8/relu_expand3x3
I0416 23:00:53.449748  1504 net.cpp:129] Top shape: 100 256 3 3 (230400)
I0416 23:00:53.449748  1504 net.cpp:137] Memory required for data: 59828400
I0416 23:00:53.449748  1504 layer_factory.cpp:58] Creating layer fire8/concat
I0416 23:00:53.449748  1504 net.cpp:84] Creating Layer fire8/concat
I0416 23:00:53.449748  1504 net.cpp:406] fire8/concat <- fire8/expand1x1
I0416 23:00:53.449748  1504 net.cpp:406] fire8/concat <- fire8/expand3x3
I0416 23:00:53.449748  1504 net.cpp:380] fire8/concat -> fire8/concat
I0416 23:00:53.449748  1504 net.cpp:122] Setting up fire8/concat
I0416 23:00:53.449748  1504 net.cpp:129] Top shape: 100 512 3 3 (460800)
I0416 23:00:53.449748  1504 net.cpp:137] Memory required for data: 61671600
I0416 23:00:53.449748  1504 layer_factory.cpp:58] Creating layer pool8
I0416 23:00:53.449748  1504 net.cpp:84] Creating Layer pool8
I0416 23:00:53.450672  1504 net.cpp:406] pool8 <- fire8/concat
I0416 23:00:53.450672  1504 net.cpp:380] pool8 -> pool8
I0416 23:00:53.450672  1504 net.cpp:122] Setting up pool8
I0416 23:00:53.450672  1504 net.cpp:129] Top shape: 100 512 1 1 (51200)
I0416 23:00:53.450672  1504 net.cpp:137] Memory required for data: 61876400
I0416 23:00:53.450672  1504 layer_factory.cpp:58] Creating layer fire9/squeeze1x1
I0416 23:00:53.450672  1504 net.cpp:84] Creating Layer fire9/squeeze1x1
I0416 23:00:53.450672  1504 net.cpp:406] fire9/squeeze1x1 <- pool8
I0416 23:00:53.450672  1504 net.cpp:380] fire9/squeeze1x1 -> fire9/squeeze1x1
I0416 23:00:53.453776  1504 net.cpp:122] Setting up fire9/squeeze1x1
I0416 23:00:53.453776  1504 net.cpp:129] Top shape: 100 64 1 1 (6400)
I0416 23:00:53.453776  1504 net.cpp:137] Memory required for data: 61902000
I0416 23:00:53.453776  1504 layer_factory.cpp:58] Creating layer fire9/relu_squeeze1x1
I0416 23:00:53.453776  1504 net.cpp:84] Creating Layer fire9/relu_squeeze1x1
I0416 23:00:53.453776  1504 net.cpp:406] fire9/relu_squeeze1x1 <- fire9/squeeze1x1
I0416 23:00:53.453776  1504 net.cpp:367] fire9/relu_squeeze1x1 -> fire9/squeeze1x1 (in-place)
I0416 23:00:53.454661  1504 net.cpp:122] Setting up fire9/relu_squeeze1x1
I0416 23:00:53.454661  1504 net.cpp:129] Top shape: 100 64 1 1 (6400)
I0416 23:00:53.454661  1504 net.cpp:137] Memory required for data: 61927600
I0416 23:00:53.454661  1504 layer_factory.cpp:58] Creating layer fire9/squeeze1x1_fire9/relu_squeeze1x1_0_split
I0416 23:00:53.454661  1504 net.cpp:84] Creating Layer fire9/squeeze1x1_fire9/relu_squeeze1x1_0_split
I0416 23:00:53.454661  1504 net.cpp:406] fire9/squeeze1x1_fire9/relu_squeeze1x1_0_split <- fire9/squeeze1x1
I0416 23:00:53.454661  1504 net.cpp:380] fire9/squeeze1x1_fire9/relu_squeeze1x1_0_split -> fire9/squeeze1x1_fire9/relu_squeeze1x1_0_split_0
I0416 23:00:53.454661  1504 net.cpp:380] fire9/squeeze1x1_fire9/relu_squeeze1x1_0_split -> fire9/squeeze1x1_fire9/relu_squeeze1x1_0_split_1
I0416 23:00:53.454661  1504 net.cpp:122] Setting up fire9/squeeze1x1_fire9/relu_squeeze1x1_0_split
I0416 23:00:53.454661  1504 net.cpp:129] Top shape: 100 64 1 1 (6400)
I0416 23:00:53.454661  1504 net.cpp:129] Top shape: 100 64 1 1 (6400)
I0416 23:00:53.454661  1504 net.cpp:137] Memory required for data: 61978800
I0416 23:00:53.454661  1504 layer_factory.cpp:58] Creating layer fire9/expand1x1
I0416 23:00:53.454661  1504 net.cpp:84] Creating Layer fire9/expand1x1
I0416 23:00:53.454661  1504 net.cpp:406] fire9/expand1x1 <- fire9/squeeze1x1_fire9/relu_squeeze1x1_0_split_0
I0416 23:00:53.455659  1504 net.cpp:380] fire9/expand1x1 -> fire9/expand1x1
I0416 23:00:53.458670  1504 net.cpp:122] Setting up fire9/expand1x1
I0416 23:00:53.458670  1504 net.cpp:129] Top shape: 100 256 1 1 (25600)
I0416 23:00:53.458670  1504 net.cpp:137] Memory required for data: 62081200
I0416 23:00:53.459648  1504 layer_factory.cpp:58] Creating layer fire9/relu_expand1x1
I0416 23:00:53.459648  1504 net.cpp:84] Creating Layer fire9/relu_expand1x1
I0416 23:00:53.459648  1504 net.cpp:406] fire9/relu_expand1x1 <- fire9/expand1x1
I0416 23:00:53.459648  1504 net.cpp:367] fire9/relu_expand1x1 -> fire9/expand1x1 (in-place)
I0416 23:00:53.460647  1504 net.cpp:122] Setting up fire9/relu_expand1x1
I0416 23:00:53.460647  1504 net.cpp:129] Top shape: 100 256 1 1 (25600)
I0416 23:00:53.460647  1504 net.cpp:137] Memory required for data: 62183600
I0416 23:00:53.460647  1504 layer_factory.cpp:58] Creating layer fire9/expand3x3
I0416 23:00:53.460647  1504 net.cpp:84] Creating Layer fire9/expand3x3
I0416 23:00:53.460647  1504 net.cpp:406] fire9/expand3x3 <- fire9/squeeze1x1_fire9/relu_squeeze1x1_0_split_1
I0416 23:00:53.460647  1504 net.cpp:380] fire9/expand3x3 -> fire9/expand3x3
I0416 23:00:53.464859  1504 net.cpp:122] Setting up fire9/expand3x3
I0416 23:00:53.464859  1504 net.cpp:129] Top shape: 100 256 1 1 (25600)
I0416 23:00:53.464859  1504 net.cpp:137] Memory required for data: 62286000
I0416 23:00:53.464859  1504 layer_factory.cpp:58] Creating layer fire9/relu_expand3x3
I0416 23:00:53.464859  1504 net.cpp:84] Creating Layer fire9/relu_expand3x3
I0416 23:00:53.464859  1504 net.cpp:406] fire9/relu_expand3x3 <- fire9/expand3x3
I0416 23:00:53.464859  1504 net.cpp:367] fire9/relu_expand3x3 -> fire9/expand3x3 (in-place)
I0416 23:00:53.466313  1504 net.cpp:122] Setting up fire9/relu_expand3x3
I0416 23:00:53.466313  1504 net.cpp:129] Top shape: 100 256 1 1 (25600)
I0416 23:00:53.466313  1504 net.cpp:137] Memory required for data: 62388400
I0416 23:00:53.466658  1504 layer_factory.cpp:58] Creating layer fire9/concat
I0416 23:00:53.466658  1504 net.cpp:84] Creating Layer fire9/concat
I0416 23:00:53.466658  1504 net.cpp:406] fire9/concat <- fire9/expand1x1
I0416 23:00:53.466658  1504 net.cpp:406] fire9/concat <- fire9/expand3x3
I0416 23:00:53.466658  1504 net.cpp:380] fire9/concat -> fire9/concat
I0416 23:00:53.466658  1504 net.cpp:122] Setting up fire9/concat
I0416 23:00:53.466658  1504 net.cpp:129] Top shape: 100 512 1 1 (51200)
I0416 23:00:53.466658  1504 net.cpp:137] Memory required for data: 62593200
I0416 23:00:53.466658  1504 layer_factory.cpp:58] Creating layer drop9
I0416 23:00:53.466658  1504 net.cpp:84] Creating Layer drop9
I0416 23:00:53.466658  1504 net.cpp:406] drop9 <- fire9/concat
I0416 23:00:53.466658  1504 net.cpp:367] drop9 -> fire9/concat (in-place)
I0416 23:00:53.466658  1504 net.cpp:122] Setting up drop9
I0416 23:00:53.466658  1504 net.cpp:129] Top shape: 100 512 1 1 (51200)
I0416 23:00:53.466658  1504 net.cpp:137] Memory required for data: 62798000
I0416 23:00:53.466658  1504 layer_factory.cpp:58] Creating layer conv10_modified
I0416 23:00:53.466658  1504 net.cpp:84] Creating Layer conv10_modified
I0416 23:00:53.466658  1504 net.cpp:406] conv10_modified <- fire9/concat
I0416 23:00:53.466658  1504 net.cpp:380] conv10_modified -> conv10
I0416 23:00:53.470619  1504 net.cpp:122] Setting up conv10_modified
I0416 23:00:53.470619  1504 net.cpp:129] Top shape: 100 10 3 3 (9000)
I0416 23:00:53.470619  1504 net.cpp:137] Memory required for data: 62834000
I0416 23:00:53.470619  1504 layer_factory.cpp:58] Creating layer relu_conv10
I0416 23:00:53.470619  1504 net.cpp:84] Creating Layer relu_conv10
I0416 23:00:53.470619  1504 net.cpp:406] relu_conv10 <- conv10
I0416 23:00:53.470619  1504 net.cpp:367] relu_conv10 -> conv10 (in-place)
I0416 23:00:53.471617  1504 net.cpp:122] Setting up relu_conv10
I0416 23:00:53.471617  1504 net.cpp:129] Top shape: 100 10 3 3 (9000)
I0416 23:00:53.471617  1504 net.cpp:137] Memory required for data: 62870000
I0416 23:00:53.471617  1504 layer_factory.cpp:58] Creating layer pool10
I0416 23:00:53.471617  1504 net.cpp:84] Creating Layer pool10
I0416 23:00:53.471617  1504 net.cpp:406] pool10 <- conv10
I0416 23:00:53.471617  1504 net.cpp:380] pool10 -> pool10
I0416 23:00:53.473611  1504 net.cpp:122] Setting up pool10
I0416 23:00:53.473611  1504 net.cpp:129] Top shape: 100 10 1 1 (1000)
I0416 23:00:53.473611  1504 net.cpp:137] Memory required for data: 62874000
I0416 23:00:53.473611  1504 layer_factory.cpp:58] Creating layer pool10_pool10_0_split
I0416 23:00:53.473611  1504 net.cpp:84] Creating Layer pool10_pool10_0_split
I0416 23:00:53.473611  1504 net.cpp:406] pool10_pool10_0_split <- pool10
I0416 23:00:53.473611  1504 net.cpp:380] pool10_pool10_0_split -> pool10_pool10_0_split_0
I0416 23:00:53.473611  1504 net.cpp:380] pool10_pool10_0_split -> pool10_pool10_0_split_1
I0416 23:00:53.473611  1504 net.cpp:122] Setting up pool10_pool10_0_split
I0416 23:00:53.473611  1504 net.cpp:129] Top shape: 100 10 1 1 (1000)
I0416 23:00:53.473611  1504 net.cpp:129] Top shape: 100 10 1 1 (1000)
I0416 23:00:53.473611  1504 net.cpp:137] Memory required for data: 62882000
I0416 23:00:53.473611  1504 layer_factory.cpp:58] Creating layer accuracy
I0416 23:00:53.473611  1504 net.cpp:84] Creating Layer accuracy
I0416 23:00:53.473611  1504 net.cpp:406] accuracy <- pool10_pool10_0_split_0
I0416 23:00:53.473611  1504 net.cpp:406] accuracy <- label_data_1_split_0
I0416 23:00:53.473611  1504 net.cpp:380] accuracy -> accuracy
…
