…
I0416 21:28:37.139686 31012 net.cpp:294] The NetState phase (0) differed from the phase (1) specified by a rule in layer data
I0416 21:28:37.139686 31012 net.cpp:51] Initializing net from parameters: 
state {
  phase: TRAIN
  level: 0
  stage: ""
}
layer {
  name: "data"
  type: "Data"
  top: "data"
  top: "label"
  include {
    phase: TRAIN
  }
  transform_param {
    mirror: true
    mean_file: "D:/ML/COMP551/Project4/models/cifar10/mean_file/mean.binaryproto"
  }
  data_param {
    source: "D:/ML/COMP551/Project4/models/cifar10/cifar10_train_leveldb"
    batch_size: 100
    backend: LEVELDB
  }
}
layer {
  name: "conv1"
  type: "Convolution"
  bottom: "data"
  top: "conv1"
  convolution_param {
    num_output: 96
    kernel_size: 7
    stride: 2
    weight_filler {
      type: "xavier"
    }
  }
}
layer {
  name: "relu_conv1"
  type: "ReLU"
  bottom: "conv1"
  top: "conv1"
}
layer {
  name: "pool1"
  type: "Pooling"
  bottom: "conv1"
  top: "pool1"
  pooling_param {
    pool: MAX
    kernel_size: 3
    stride: 2
  }
}
layer {
  name: "fire2/squeeze1x1"
  type: "Convolution"
  bottom: "pool1"
  top: "fire2/squeeze1x1"
  convolution_param {
    num_output: 16
    kernel_size: 1
    weight_filler {
      type: "xavier"
    }
  }
}
layer {
  name: "fire2/relu_squeeze1x1"
  type: "ReLU"
  bottom: "fire2/squeeze1x1"
  top: "fire2/squeeze1x1"
}
layer {
  name: "fire2/expand1x1"
  type: "Convolution"
  bottom: "fire2/squeeze1x1"
  top: "fire2/expand1x1"
  convolution_param {
    num_output: 64
    kernel_size: 1
    weight_filler {
      type: "xavier"
    }
  }
}
layer {
  name: "fire2/relu_expand1x1"
  type: "ReLU"
  bottom: "fire2/expand1x1"
  top: "fire2/expand1x1"
}
layer {
  name: "fire2/expand3x3"
  type: "Convolution"
  bottom: "fire2/squeeze1x1"
  top: "fire2/expand3x3"
  convolution_param {
    num_output: 64
    pad: 1
    kernel_size: 3
    weight_filler {
      type: "xavier"
    }
  }
}
layer {
  name: "fire2/relu_expand3x3"
  type: "ReLU"
  bottom: "fire2/expand3x3"
  top: "fire2/expand3x3"
}
layer {
  name: "fire2/concat"
  type: "Concat"
  bottom: "fire2/expand1x1"
  bottom: "fire2/expand3x3"
  top: "fire2/concat"
}
layer {
  name: "fire3/squeeze1x1"
  type: "Convolution"
  bottom: "fire2/concat"
  top: "fire3/squeeze1x1"
  convolution_param {
    num_output: 16
    kernel_size: 1
    weight_filler {
      type: "xavier"
    }
  }
}
layer {
  name: "fire3/relu_squeeze1x1"
  type: "ReLU"
  bottom: "fire3/squeeze1x1"
  top: "fire3/squeeze1x1"
}
layer {
  name: "fire3/expand1x1"
  type: "Convolution"
  bottom: "fire3/squeeze1x1"
  top: "fire3/expand1x1"
  convolution_param {
    num_output: 64
    kernel_size: 1
    weight_filler {
      type: "xavier"
    }
  }
}
layer {
  name: "fire3/relu_expand1x1"
  type: "ReLU"
  bottom: "fire3/expand1x1"
  top: "fire3/expand1x1"
}
layer {
  name: "fire3/expand3x3"
  type: "Convolution"
  bottom: "fire3/squeeze1x1"
  top: "fire3/expand3x3"
  convolution_param {
    num_output: 64
    pad: 1
    kernel_size: 3
    weight_filler {
      type: "xavier"
    }
  }
}
layer {
  name: "fire3/relu_expand3x3"
  type: "ReLU"
  bottom: "fire3/expand3x3"
  top: "fire3/expand3x3"
}
layer {
  name: "fire3/concat"
  type: "Concat"
  bottom: "fire3/expand1x1"
  bottom: "fire3/expand3x3"
  top: "fire3/concat"
}
layer {
  name: "bypass_23"
  type: "Eltwise"
  bottom: "fire2/concat"
  bottom: "fire3/concat"
  top: "fire3_EltAdd"
}
layer {
  name: "fire4/squeeze1x1"
  type: "Convolution"
  bottom: "fire3_EltAdd"
  top: "fire4/squeeze1x1"
  convolution_param {
    num_output: 32
    kernel_size: 1
    weight_filler {
      type: "xavier"
    }
  }
}
layer {
  name: "fire4/relu_squeeze1x1"
  type: "ReLU"
  bottom: "fire4/squeeze1x1"
  top: "fire4/squeeze1x1"
}
layer {
  name: "fire4/expand1x1"
  type: "Convolution"
  bottom: "fire4/squeeze1x1"
  top: "fire4/expand1x1"
  convolution_param {
    num_output: 128
    kernel_size: 1
    weight_filler {
      type: "xavier"
    }
  }
}
layer {
  name: "fire4/relu_expand1x1"
  type: "ReLU"
  bottom: "fire4/expand1x1"
  top: "fire4/expand1x1"
}
layer {
  name: "fire4/expand3x3"
  type: "Convolution"
  bottom: "fire4/squeeze1x1"
  top: "fire4/expand3x3"
  convolution_param {
    num_output: 128
    pad: 1
    kernel_size: 3
    weight_filler {
      type: "xavier"
    }
  }
}
layer {
  name: "fire4/relu_expand3x3"
  type: "ReLU"
  bottom: "fire4/expand3x3"
  top: "fire4/expand3x3"
}
layer {
  name: "fire4/concat"
  type: "Concat"
  bottom: "fire4/expand1x1"
  bottom: "fire4/expand3x3"
  top: "fire4/concat"
}
layer {
  name: "pool4"
  type: "Pooling"
  bottom: "fire4/concat"
  top: "pool4"
  pooling_param {
    pool: MAX
    kernel_size: 3
    stride: 2
  }
}
layer {
  name: "fire5/squeeze1x1"
  type: "Convolution"
  bottom: "pool4"
  top: "fire5/squeeze1x1"
  convolution_param {
    num_output: 32
    kernel_size: 1
    weight_filler {
      type: "xavier"
    }
  }
}
layer {
  name: "fire5/relu_squeeze1x1"
  type: "ReLU"
  bottom: "fire5/squeeze1x1"
  top: "fire5/squeeze1x1"
}
layer {
  name: "fire5/expand1x1"
  type: "Convolution"
  bottom: "fire5/squeeze1x1"
  top: "fire5/expand1x1"
  convolution_param {
    num_output: 128
    kernel_size: 1
    weight_filler {
      type: "xavier"
    }
  }
}
layer {
  name: "fire5/relu_expand1x1"
  type: "ReLU"
  bottom: "fire5/expand1x1"
  top: "fire5/expand1x1"
}
layer {
  name: "fire5/expand3x3"
  type: "Convolution"
  bottom: "fire5/squeeze1x1"
  top: "fire5/expand3x3"
  convolution_param {
    num_output: 128
    pad: 1
    kernel_size: 3
    weight_filler {
      type: "xavier"
    }
  }
}
layer {
  name: "fire5/relu_expand3x3"
  type: "ReLU"
  bottom: "fire5/expand3x3"
  top: "fire5/expand3x3"
}
layer {
  name: "fire5/concat"
  type: "Concat"
  bottom: "fire5/expand1x1"
  bottom: "fire5/expand3x3"
  top: "fire5/concat"
}
layer {
  name: "bypass_45"
  type: "Eltwise"
  bottom: "pool4"
  bottom: "fire5/concat"
  top: "fire5_EltAdd"
}
layer {
  name: "fire6/squeeze1x1"
  type: "Convolution"
  bottom: "fire5_EltAdd"
  top: "fire6/squeeze1x1"
  convolution_param {
    num_output: 48
    kernel_size: 1
    weight_filler {
      type: "xavier"
    }
  }
}
layer {
  name: "fire6/relu_squeeze1x1"
  type: "ReLU"
  bottom: "fire6/squeeze1x1"
  top: "fire6/squeeze1x1"
}
layer {
  name: "fire6/expand1x1"
  type: "Convolution"
  bottom: "fire6/squeeze1x1"
  top: "fire6/expand1x1"
  convolution_param {
    num_output: 192
    kernel_size: 1
    weight_filler {
      type: "xavier"
    }
  }
}
layer {
  name: "fire6/relu_expand1x1"
  type: "ReLU"
  bottom: "fire6/expand1x1"
  top: "fire6/expand1x1"
}
layer {
  name: "fire6/expand3x3"
  type: "Convolution"
  bottom: "fire6/squeeze1x1"
  top: "fire6/expand3x3"
  convolution_param {
    num_output: 192
    pad: 1
    kernel_size: 3
    weight_filler {
      type: "xavier"
    }
  }
}
layer {
  name: "fire6/relu_expand3x3"
  type: "ReLU"
  bottom: "fire6/expand3x3"
  top: "fire6/expand3x3"
}
layer {
  name: "fire6/concat"
  type: "Concat"
  bottom: "fire6/expand1x1"
  bottom: "fire6/expand3x3"
  top: "fire6/concat"
}
layer {
  name: "fire7/squeeze1x1"
  type: "Convolution"
  bottom: "fire6/concat"
  top: "fire7/squeeze1x1"
  convolution_param {
    num_output: 48
    kernel_size: 1
    weight_filler {
      type: "xavier"
    }
  }
}
layer {
  name: "fire7/relu_squeeze1x1"
  type: "ReLU"
  bottom: "fire7/squeeze1x1"
  top: "fire7/squeeze1x1"
}
layer {
  name: "fire7/expand1x1"
  type: "Convolution"
  bottom: "fire7/squeeze1x1"
  top: "fire7/expand1x1"
  convolution_param {
    num_output: 192
    kernel_size: 1
    weight_filler {
      type: "xavier"
    }
  }
}
layer {
  name: "fire7/relu_expand1x1"
  type: "ReLU"
  bottom: "fire7/expand1x1"
  top: "fire7/expand1x1"
}
layer {
  name: "fire7/expand3x3"
  type: "Convolution"
  bottom: "fire7/squeeze1x1"
  top: "fire7/expand3x3"
  convolution_param {
    num_output: 192
    pad: 1
    kernel_size: 3
    weight_filler {
      type: "xavier"
    }
  }
}
layer {
  name: "fire7/relu_expand3x3"
  type: "ReLU"
  bottom: "fire7/expand3x3"
  top: "fire7/expand3x3"
}
layer {
  name: "fire7/concat"
  type: "Concat"
  bottom: "fire7/expand1x1"
  bottom: "fire7/expand3x3"
  top: "fire7/concat"
}
layer {
  name: "bypass_67"
  type: "Eltwise"
  bottom: "fire6/concat"
  bottom: "fire7/concat"
  top: "fire7_EltAdd"
}
layer {
  name: "fire8/squeeze1x1"
  type: "Convolution"
  bottom: "fire7_EltAdd"
  top: "fire8/squeeze1x1"
  convolution_param {
    num_output: 64
    kernel_size: 1
    weight_filler {
      type: "xavier"
    }
  }
}
layer {
  name: "fire8/relu_squeeze1x1"
  type: "ReLU"
  bottom: "fire8/squeeze1x1"
  top: "fire8/squeeze1x1"
}
layer {
  name: "fire8/expand1x1"
  type: "Convolution"
  bottom: "fire8/squeeze1x1"
  top: "fire8/expand1x1"
  convolution_param {
    num_output: 256
    kernel_size: 1
    weight_filler {
      type: "xavier"
    }
  }
}
layer {
  name: "fire8/relu_expand1x1"
  type: "ReLU"
  bottom: "fire8/expand1x1"
  top: "fire8/expand1x1"
}
layer {
  name: "fire8/expand3x3"
  type: "Convolution"
  bottom: "fire8/squeeze1x1"
  top: "fire8/expand3x3"
  convolution_param {
    num_output: 256
    pad: 1
    kernel_size: 3
    weight_filler {
      type: "xavier"
    }
  }
}
layer {
  name: "fire8/relu_expand3x3"
  type: "ReLU"
  bottom: "fire8/expand3x3"
  top: "fire8/expand3x3"
}
layer {
  name: "fire8/concat"
  type: "Concat"
  bottom: "fire8/expand1x1"
  bottom: "fire8/expand3x3"
  top: "fire8/concat"
}
layer {
  name: "pool8"
  type: "Pooling"
  bottom: "fire8/concat"
  top: "pool8"
  pooling_param {
    pool: MAX
    kernel_size: 3
    stride: 2
  }
}
layer {
  name: "fire9/squeeze1x1"
  type: "Convolution"
  bottom: "pool8"
  top: "fire9/squeeze1x1"
  convolution_param {
    num_output: 64
    kernel_size: 1
    weight_filler {
      type: "xavier"
    }
  }
}
layer {
  name: "fire9/relu_squeeze1x1"
  type: "ReLU"
  bottom: "fire9/squeeze1x1"
  top: "fire9/squeeze1x1"
}
layer {
  name: "fire9/expand1x1"
  type: "Convolution"
  bottom: "fire9/squeeze1x1"
  top: "fire9/expand1x1"
  convolution_param {
    num_output: 256
    kernel_size: 1
    weight_filler {
      type: "xavier"
    }
  }
}
layer {
  name: "fire9/relu_expand1x1"
  type: "ReLU"
  bottom: "fire9/expand1x1"
  top: "fire9/expand1x1"
}
layer {
  name: "fire9/expand3x3"
  type: "Convolution"
  bottom: "fire9/squeeze1x1"
  top: "fire9/expand3x3"
  convolution_param {
    num_output: 256
    pad: 1
    kernel_size: 3
    weight_filler {
      type: "xavier"
    }
  }
}
layer {
  name: "fire9/relu_expand3x3"
  type: "ReLU"
  bottom: "fire9/expand3x3"
  top: "fire9/expand3x3"
}
layer {
  name: "fire9/concat"
  type: "Concat"
  bottom: "fire9/expand1x1"
  bottom: "fire9/expand3x3"
  top: "fire9/concat"
}
layer {
  name: "bypass_89"
  type: "Eltwise"
  bottom: "pool8"
  bottom: "fire9/concat"
  top: "fire9_EltAdd"
}
layer {
  name: "drop9"
  type: "Dropout"
  bottom: "fire9_EltAdd"
  top: "fire9_EltAdd"
  dropout_param {
    dropout_ratio: 0.5
  }
}
layer {
  name: "conv10_modified"
  type: "Convolution"
  bottom: "fire9_EltAdd"
  top: "conv10"
  convolution_param {
    num_output: 10
    pad: 1
    kernel_size: 1
    weight_filler {
      type: "gaussian"
      mean: 0
      std: 0.01
    }
  }
}
layer {
  name: "relu_conv10"
  type: "ReLU"
  bottom: "conv10"
  top: "conv10"
}
layer {
  name: "pool10"
  type: "Pooling"
  bottom: "conv10"
  top: "pool10"
  pooling_param {
    pool: AVE
    global_pooling: true
  }
}
layer {
  name: "loss"
  type: "SoftmaxWithLoss"
  bottom: "pool10"
  bottom: "label"
  top: "loss"
  include {
  }
}
layer {
  name: "accuracy_top1"
  type: "Accuracy"
  bottom: "pool10"
  bottom: "label"
  top: "accuracy_top1"
  include {
  }
  accuracy_param {
    top_k: 1
  }
}
layer {
  name: "accuracy_top5"
  type: "Accuracy"
  bottom: "pool10"
  bottom: "label"
  top: "accuracy_top5"
  include {
  }
  accuracy_param {
    top_k: 5
  }
}
I0416 21:28:37.142612 31012 layer_factory.cpp:58] Creating layer data
I0416 21:28:37.150059 31012 db_leveldb.cpp:18] Opened leveldb D:/ML/COMP551/Project4/models/cifar10/cifar10_train_leveldb
I0416 21:28:37.150059 31012 net.cpp:84] Creating Layer data
I0416 21:28:37.150059 31012 net.cpp:380] data -> data
I0416 21:28:37.150059 31012 net.cpp:380] data -> label
I0416 21:28:37.150059 31012 data_transformer.cpp:25] Loading mean file from: D:/ML/COMP551/Project4/models/cifar10/mean_file/mean.binaryproto
I0416 21:28:37.152053 31012 common.cpp:36] System entropy source not available, using fallback algorithm to generate seed instead.
I0416 21:28:37.152053 31012 data_layer.cpp:45] output data size: 100,3,32,32
I0416 21:28:37.158520 31012 net.cpp:122] Setting up data
I0416 21:28:37.159518 31012 net.cpp:129] Top shape: 100 3 32 32 (307200)
I0416 21:28:37.159518 31012 net.cpp:129] Top shape: 100 (100)
I0416 21:28:37.159518 31012 net.cpp:137] Memory required for data: 1229200
I0416 21:28:37.159518 31012 layer_factory.cpp:58] Creating layer label_data_1_split
I0416 21:28:37.159518 31012 net.cpp:84] Creating Layer label_data_1_split
I0416 21:28:37.159518 31012 net.cpp:406] label_data_1_split <- label
I0416 21:28:37.159518 31012 net.cpp:380] label_data_1_split -> label_data_1_split_0
I0416 21:28:37.159518 31012 net.cpp:380] label_data_1_split -> label_data_1_split_1
I0416 21:28:37.159518 31012 net.cpp:380] label_data_1_split -> label_data_1_split_2
I0416 21:28:37.159518 31012 net.cpp:122] Setting up label_data_1_split
I0416 21:28:37.159518 31012 net.cpp:129] Top shape: 100 (100)
I0416 21:28:37.160074 31012 net.cpp:129] Top shape: 100 (100)
I0416 21:28:37.160074 31012 net.cpp:129] Top shape: 100 (100)
I0416 21:28:37.160074 31012 net.cpp:137] Memory required for data: 1230400
I0416 21:28:37.160074 31012 layer_factory.cpp:58] Creating layer conv1
I0416 21:28:37.160074 31012 net.cpp:84] Creating Layer conv1
I0416 21:28:37.160074 31012 net.cpp:406] conv1 <- data
I0416 21:28:37.160074 31012 net.cpp:380] conv1 -> conv1
I0416 21:28:37.160074 27752 common.cpp:36] System entropy source not available, using fallback algorithm to generate seed instead.
I0416 21:28:38.346369 31012 net.cpp:122] Setting up conv1
I0416 21:28:38.347316 31012 net.cpp:129] Top shape: 100 96 13 13 (1622400)
I0416 21:28:38.347316 31012 net.cpp:137] Memory required for data: 7720000
I0416 21:28:38.347316 31012 layer_factory.cpp:58] Creating layer relu_conv1
I0416 21:28:38.347316 31012 net.cpp:84] Creating Layer relu_conv1
I0416 21:28:38.347316 31012 net.cpp:406] relu_conv1 <- conv1
I0416 21:28:38.347316 31012 net.cpp:367] relu_conv1 -> conv1 (in-place)
I0416 21:28:38.348278 31012 net.cpp:122] Setting up relu_conv1
I0416 21:28:38.348278 31012 net.cpp:129] Top shape: 100 96 13 13 (1622400)
I0416 21:28:38.348278 31012 net.cpp:137] Memory required for data: 14209600
I0416 21:28:38.348278 31012 layer_factory.cpp:58] Creating layer pool1
I0416 21:28:38.348278 31012 net.cpp:84] Creating Layer pool1
I0416 21:28:38.348278 31012 net.cpp:406] pool1 <- conv1
I0416 21:28:38.348278 31012 net.cpp:380] pool1 -> pool1
I0416 21:28:38.349275 31012 net.cpp:122] Setting up pool1
I0416 21:28:38.349275 31012 net.cpp:129] Top shape: 100 96 6 6 (345600)
I0416 21:28:38.349275 31012 net.cpp:137] Memory required for data: 15592000
I0416 21:28:38.349275 31012 layer_factory.cpp:58] Creating layer fire2/squeeze1x1
I0416 21:28:38.349275 31012 net.cpp:84] Creating Layer fire2/squeeze1x1
I0416 21:28:38.349275 31012 net.cpp:406] fire2/squeeze1x1 <- pool1
I0416 21:28:38.349275 31012 net.cpp:380] fire2/squeeze1x1 -> fire2/squeeze1x1
I0416 21:28:38.352385 31012 net.cpp:122] Setting up fire2/squeeze1x1
I0416 21:28:38.352385 31012 net.cpp:129] Top shape: 100 16 6 6 (57600)
I0416 21:28:38.352385 31012 net.cpp:137] Memory required for data: 15822400
I0416 21:28:38.352385 31012 layer_factory.cpp:58] Creating layer fire2/relu_squeeze1x1
I0416 21:28:38.352385 31012 net.cpp:84] Creating Layer fire2/relu_squeeze1x1
I0416 21:28:38.352385 31012 net.cpp:406] fire2/relu_squeeze1x1 <- fire2/squeeze1x1
I0416 21:28:38.352385 31012 net.cpp:367] fire2/relu_squeeze1x1 -> fire2/squeeze1x1 (in-place)
I0416 21:28:38.353265 31012 net.cpp:122] Setting up fire2/relu_squeeze1x1
I0416 21:28:38.353265 31012 net.cpp:129] Top shape: 100 16 6 6 (57600)
I0416 21:28:38.353265 31012 net.cpp:137] Memory required for data: 16052800
I0416 21:28:38.353265 31012 layer_factory.cpp:58] Creating layer fire2/squeeze1x1_fire2/relu_squeeze1x1_0_split
I0416 21:28:38.353265 31012 net.cpp:84] Creating Layer fire2/squeeze1x1_fire2/relu_squeeze1x1_0_split
I0416 21:28:38.353265 31012 net.cpp:406] fire2/squeeze1x1_fire2/relu_squeeze1x1_0_split <- fire2/squeeze1x1
I0416 21:28:38.353265 31012 net.cpp:380] fire2/squeeze1x1_fire2/relu_squeeze1x1_0_split -> fire2/squeeze1x1_fire2/relu_squeeze1x1_0_split_0
I0416 21:28:38.353265 31012 net.cpp:380] fire2/squeeze1x1_fire2/relu_squeeze1x1_0_split -> fire2/squeeze1x1_fire2/relu_squeeze1x1_0_split_1
I0416 21:28:38.353265 31012 net.cpp:122] Setting up fire2/squeeze1x1_fire2/relu_squeeze1x1_0_split
I0416 21:28:38.353265 31012 net.cpp:129] Top shape: 100 16 6 6 (57600)
I0416 21:28:38.353265 31012 net.cpp:129] Top shape: 100 16 6 6 (57600)
I0416 21:28:38.353265 31012 net.cpp:137] Memory required for data: 16513600
I0416 21:28:38.353265 31012 layer_factory.cpp:58] Creating layer fire2/expand1x1
I0416 21:28:38.353265 31012 net.cpp:84] Creating Layer fire2/expand1x1
I0416 21:28:38.353265 31012 net.cpp:406] fire2/expand1x1 <- fire2/squeeze1x1_fire2/relu_squeeze1x1_0_split_0
I0416 21:28:38.353265 31012 net.cpp:380] fire2/expand1x1 -> fire2/expand1x1
I0416 21:28:38.357254 31012 net.cpp:122] Setting up fire2/expand1x1
I0416 21:28:38.357254 31012 net.cpp:129] Top shape: 100 64 6 6 (230400)
I0416 21:28:38.357254 31012 net.cpp:137] Memory required for data: 17435200
I0416 21:28:38.357254 31012 layer_factory.cpp:58] Creating layer fire2/relu_expand1x1
I0416 21:28:38.357254 31012 net.cpp:84] Creating Layer fire2/relu_expand1x1
I0416 21:28:38.357254 31012 net.cpp:406] fire2/relu_expand1x1 <- fire2/expand1x1
I0416 21:28:38.357254 31012 net.cpp:367] fire2/relu_expand1x1 -> fire2/expand1x1 (in-place)
I0416 21:28:38.358429 31012 net.cpp:122] Setting up fire2/relu_expand1x1
I0416 21:28:38.358429 31012 net.cpp:129] Top shape: 100 64 6 6 (230400)
I0416 21:28:38.358429 31012 net.cpp:137] Memory required for data: 18356800
I0416 21:28:38.358429 31012 layer_factory.cpp:58] Creating layer fire2/expand3x3
I0416 21:28:38.358429 31012 net.cpp:84] Creating Layer fire2/expand3x3
I0416 21:28:38.358429 31012 net.cpp:406] fire2/expand3x3 <- fire2/squeeze1x1_fire2/relu_squeeze1x1_0_split_1
I0416 21:28:38.358429 31012 net.cpp:380] fire2/expand3x3 -> fire2/expand3x3
I0416 21:28:38.361369 31012 net.cpp:122] Setting up fire2/expand3x3
I0416 21:28:38.361369 31012 net.cpp:129] Top shape: 100 64 6 6 (230400)
I0416 21:28:38.361369 31012 net.cpp:137] Memory required for data: 19278400
I0416 21:28:38.361369 31012 layer_factory.cpp:58] Creating layer fire2/relu_expand3x3
I0416 21:28:38.362365 31012 net.cpp:84] Creating Layer fire2/relu_expand3x3
I0416 21:28:38.362365 31012 net.cpp:406] fire2/relu_expand3x3 <- fire2/expand3x3
I0416 21:28:38.362365 31012 net.cpp:367] fire2/relu_expand3x3 -> fire2/expand3x3 (in-place)
I0416 21:28:38.362365 31012 net.cpp:122] Setting up fire2/relu_expand3x3
I0416 21:28:38.363397 31012 net.cpp:129] Top shape: 100 64 6 6 (230400)
I0416 21:28:38.363397 31012 net.cpp:137] Memory required for data: 20200000
I0416 21:28:38.363397 31012 layer_factory.cpp:58] Creating layer fire2/concat
I0416 21:28:38.363397 31012 net.cpp:84] Creating Layer fire2/concat
I0416 21:28:38.363397 31012 net.cpp:406] fire2/concat <- fire2/expand1x1
I0416 21:28:38.363397 31012 net.cpp:406] fire2/concat <- fire2/expand3x3
I0416 21:28:38.363397 31012 net.cpp:380] fire2/concat -> fire2/concat
I0416 21:28:38.363397 31012 net.cpp:122] Setting up fire2/concat
I0416 21:28:38.363397 31012 net.cpp:129] Top shape: 100 128 6 6 (460800)
I0416 21:28:38.363397 31012 net.cpp:137] Memory required for data: 22043200
I0416 21:28:38.363397 31012 layer_factory.cpp:58] Creating layer fire2/concat_fire2/concat_0_split
I0416 21:28:38.363397 31012 net.cpp:84] Creating Layer fire2/concat_fire2/concat_0_split
I0416 21:28:38.363397 31012 net.cpp:406] fire2/concat_fire2/concat_0_split <- fire2/concat
I0416 21:28:38.363397 31012 net.cpp:380] fire2/concat_fire2/concat_0_split -> fire2/concat_fire2/concat_0_split_0
I0416 21:28:38.363397 31012 net.cpp:380] fire2/concat_fire2/concat_0_split -> fire2/concat_fire2/concat_0_split_1
I0416 21:28:38.363397 31012 net.cpp:122] Setting up fire2/concat_fire2/concat_0_split
I0416 21:28:38.363397 31012 net.cpp:129] Top shape: 100 128 6 6 (460800)
I0416 21:28:38.363397 31012 net.cpp:129] Top shape: 100 128 6 6 (460800)
I0416 21:28:38.363397 31012 net.cpp:137] Memory required for data: 25729600
I0416 21:28:38.363397 31012 layer_factory.cpp:58] Creating layer fire3/squeeze1x1
I0416 21:28:38.363397 31012 net.cpp:84] Creating Layer fire3/squeeze1x1
I0416 21:28:38.363397 31012 net.cpp:406] fire3/squeeze1x1 <- fire2/concat_fire2/concat_0_split_0
I0416 21:28:38.363397 31012 net.cpp:380] fire3/squeeze1x1 -> fire3/squeeze1x1
I0416 21:28:38.366780 31012 net.cpp:122] Setting up fire3/squeeze1x1
I0416 21:28:38.366780 31012 net.cpp:129] Top shape: 100 16 6 6 (57600)
I0416 21:28:38.366780 31012 net.cpp:137] Memory required for data: 25960000
I0416 21:28:38.366780 31012 layer_factory.cpp:58] Creating layer fire3/relu_squeeze1x1
I0416 21:28:38.366780 31012 net.cpp:84] Creating Layer fire3/relu_squeeze1x1
I0416 21:28:38.366780 31012 net.cpp:406] fire3/relu_squeeze1x1 <- fire3/squeeze1x1
I0416 21:28:38.366780 31012 net.cpp:367] fire3/relu_squeeze1x1 -> fire3/squeeze1x1 (in-place)
I0416 21:28:38.368317 31012 net.cpp:122] Setting up fire3/relu_squeeze1x1
I0416 21:28:38.368317 31012 net.cpp:129] Top shape: 100 16 6 6 (57600)
I0416 21:28:38.368317 31012 net.cpp:137] Memory required for data: 26190400
I0416 21:28:38.368317 31012 layer_factory.cpp:58] Creating layer fire3/squeeze1x1_fire3/relu_squeeze1x1_0_split
I0416 21:28:38.368317 31012 net.cpp:84] Creating Layer fire3/squeeze1x1_fire3/relu_squeeze1x1_0_split
I0416 21:28:38.368317 31012 net.cpp:406] fire3/squeeze1x1_fire3/relu_squeeze1x1_0_split <- fire3/squeeze1x1
I0416 21:28:38.368317 31012 net.cpp:380] fire3/squeeze1x1_fire3/relu_squeeze1x1_0_split -> fire3/squeeze1x1_fire3/relu_squeeze1x1_0_split_0
I0416 21:28:38.368317 31012 net.cpp:380] fire3/squeeze1x1_fire3/relu_squeeze1x1_0_split -> fire3/squeeze1x1_fire3/relu_squeeze1x1_0_split_1
I0416 21:28:38.368317 31012 net.cpp:122] Setting up fire3/squeeze1x1_fire3/relu_squeeze1x1_0_split
I0416 21:28:38.368317 31012 net.cpp:129] Top shape: 100 16 6 6 (57600)
I0416 21:28:38.368317 31012 net.cpp:129] Top shape: 100 16 6 6 (57600)
I0416 21:28:38.368317 31012 net.cpp:137] Memory required for data: 26651200
I0416 21:28:38.368317 31012 layer_factory.cpp:58] Creating layer fire3/expand1x1
I0416 21:28:38.368317 31012 net.cpp:84] Creating Layer fire3/expand1x1
I0416 21:28:38.368317 31012 net.cpp:406] fire3/expand1x1 <- fire3/squeeze1x1_fire3/relu_squeeze1x1_0_split_0
I0416 21:28:38.368317 31012 net.cpp:380] fire3/expand1x1 -> fire3/expand1x1
I0416 21:28:38.371343 31012 net.cpp:122] Setting up fire3/expand1x1
I0416 21:28:38.371593 31012 net.cpp:129] Top shape: 100 64 6 6 (230400)
I0416 21:28:38.371593 31012 net.cpp:137] Memory required for data: 27572800
I0416 21:28:38.371593 31012 layer_factory.cpp:58] Creating layer fire3/relu_expand1x1
I0416 21:28:38.371593 31012 net.cpp:84] Creating Layer fire3/relu_expand1x1
I0416 21:28:38.371593 31012 net.cpp:406] fire3/relu_expand1x1 <- fire3/expand1x1
I0416 21:28:38.371593 31012 net.cpp:367] fire3/relu_expand1x1 -> fire3/expand1x1 (in-place)
I0416 21:28:38.372339 31012 net.cpp:122] Setting up fire3/relu_expand1x1
I0416 21:28:38.372339 31012 net.cpp:129] Top shape: 100 64 6 6 (230400)
I0416 21:28:38.372339 31012 net.cpp:137] Memory required for data: 28494400
I0416 21:28:38.372339 31012 layer_factory.cpp:58] Creating layer fire3/expand3x3
I0416 21:28:38.372339 31012 net.cpp:84] Creating Layer fire3/expand3x3
I0416 21:28:38.372339 31012 net.cpp:406] fire3/expand3x3 <- fire3/squeeze1x1_fire3/relu_squeeze1x1_0_split_1
I0416 21:28:38.372339 31012 net.cpp:380] fire3/expand3x3 -> fire3/expand3x3
I0416 21:28:38.375298 31012 net.cpp:122] Setting up fire3/expand3x3
I0416 21:28:38.375298 31012 net.cpp:129] Top shape: 100 64 6 6 (230400)
I0416 21:28:38.375298 31012 net.cpp:137] Memory required for data: 29416000
I0416 21:28:38.375298 31012 layer_factory.cpp:58] Creating layer fire3/relu_expand3x3
I0416 21:28:38.375298 31012 net.cpp:84] Creating Layer fire3/relu_expand3x3
I0416 21:28:38.375298 31012 net.cpp:406] fire3/relu_expand3x3 <- fire3/expand3x3
I0416 21:28:38.375298 31012 net.cpp:367] fire3/relu_expand3x3 -> fire3/expand3x3 (in-place)
I0416 21:28:38.375298 31012 net.cpp:122] Setting up fire3/relu_expand3x3
I0416 21:28:38.375298 31012 net.cpp:129] Top shape: 100 64 6 6 (230400)
I0416 21:28:38.375298 31012 net.cpp:137] Memory required for data: 30337600
I0416 21:28:38.375298 31012 layer_factory.cpp:58] Creating layer fire3/concat
I0416 21:28:38.375298 31012 net.cpp:84] Creating Layer fire3/concat
I0416 21:28:38.375298 31012 net.cpp:406] fire3/concat <- fire3/expand1x1
I0416 21:28:38.375298 31012 net.cpp:406] fire3/concat <- fire3/expand3x3
I0416 21:28:38.375298 31012 net.cpp:380] fire3/concat -> fire3/concat
I0416 21:28:38.375298 31012 net.cpp:122] Setting up fire3/concat
I0416 21:28:38.375298 31012 net.cpp:129] Top shape: 100 128 6 6 (460800)
I0416 21:28:38.375298 31012 net.cpp:137] Memory required for data: 32180800
I0416 21:28:38.375298 31012 layer_factory.cpp:58] Creating layer bypass_23
I0416 21:28:38.376893 31012 net.cpp:84] Creating Layer bypass_23
I0416 21:28:38.376893 31012 net.cpp:406] bypass_23 <- fire2/concat_fire2/concat_0_split_1
I0416 21:28:38.376893 31012 net.cpp:406] bypass_23 <- fire3/concat
I0416 21:28:38.377396 31012 net.cpp:380] bypass_23 -> fire3_EltAdd
I0416 21:28:38.377481 31012 net.cpp:122] Setting up bypass_23
I0416 21:28:38.377481 31012 net.cpp:129] Top shape: 100 128 6 6 (460800)
I0416 21:28:38.377481 31012 net.cpp:137] Memory required for data: 34024000
I0416 21:28:38.377481 31012 layer_factory.cpp:58] Creating layer fire4/squeeze1x1
I0416 21:28:38.377481 31012 net.cpp:84] Creating Layer fire4/squeeze1x1
I0416 21:28:38.377481 31012 net.cpp:406] fire4/squeeze1x1 <- fire3_EltAdd
I0416 21:28:38.377481 31012 net.cpp:380] fire4/squeeze1x1 -> fire4/squeeze1x1
I0416 21:28:38.381423 31012 net.cpp:122] Setting up fire4/squeeze1x1
I0416 21:28:38.381423 31012 net.cpp:129] Top shape: 100 32 6 6 (115200)
I0416 21:28:38.381423 31012 net.cpp:137] Memory required for data: 34484800
I0416 21:28:38.381423 31012 layer_factory.cpp:58] Creating layer fire4/relu_squeeze1x1
I0416 21:28:38.381423 31012 net.cpp:84] Creating Layer fire4/relu_squeeze1x1
I0416 21:28:38.381423 31012 net.cpp:406] fire4/relu_squeeze1x1 <- fire4/squeeze1x1
I0416 21:28:38.381423 31012 net.cpp:367] fire4/relu_squeeze1x1 -> fire4/squeeze1x1 (in-place)
I0416 21:28:38.381423 31012 net.cpp:122] Setting up fire4/relu_squeeze1x1
I0416 21:28:38.381423 31012 net.cpp:129] Top shape: 100 32 6 6 (115200)
I0416 21:28:38.381423 31012 net.cpp:137] Memory required for data: 34945600
I0416 21:28:38.381423 31012 layer_factory.cpp:58] Creating layer fire4/squeeze1x1_fire4/relu_squeeze1x1_0_split
I0416 21:28:38.381423 31012 net.cpp:84] Creating Layer fire4/squeeze1x1_fire4/relu_squeeze1x1_0_split
I0416 21:28:38.381423 31012 net.cpp:406] fire4/squeeze1x1_fire4/relu_squeeze1x1_0_split <- fire4/squeeze1x1
I0416 21:28:38.381423 31012 net.cpp:380] fire4/squeeze1x1_fire4/relu_squeeze1x1_0_split -> fire4/squeeze1x1_fire4/relu_squeeze1x1_0_split_0
I0416 21:28:38.381423 31012 net.cpp:380] fire4/squeeze1x1_fire4/relu_squeeze1x1_0_split -> fire4/squeeze1x1_fire4/relu_squeeze1x1_0_split_1
I0416 21:28:38.382417 31012 net.cpp:122] Setting up fire4/squeeze1x1_fire4/relu_squeeze1x1_0_split
I0416 21:28:38.382417 31012 net.cpp:129] Top shape: 100 32 6 6 (115200)
I0416 21:28:38.382417 31012 net.cpp:129] Top shape: 100 32 6 6 (115200)
I0416 21:28:38.382417 31012 net.cpp:137] Memory required for data: 35867200
I0416 21:28:38.382417 31012 layer_factory.cpp:58] Creating layer fire4/expand1x1
I0416 21:28:38.382417 31012 net.cpp:84] Creating Layer fire4/expand1x1
I0416 21:28:38.382417 31012 net.cpp:406] fire4/expand1x1 <- fire4/squeeze1x1_fire4/relu_squeeze1x1_0_split_0
I0416 21:28:38.382417 31012 net.cpp:380] fire4/expand1x1 -> fire4/expand1x1
I0416 21:28:38.385380 31012 net.cpp:122] Setting up fire4/expand1x1
I0416 21:28:38.385380 31012 net.cpp:129] Top shape: 100 128 6 6 (460800)
I0416 21:28:38.385380 31012 net.cpp:137] Memory required for data: 37710400
I0416 21:28:38.385380 31012 layer_factory.cpp:58] Creating layer fire4/relu_expand1x1
I0416 21:28:38.385380 31012 net.cpp:84] Creating Layer fire4/relu_expand1x1
I0416 21:28:38.385380 31012 net.cpp:406] fire4/relu_expand1x1 <- fire4/expand1x1
I0416 21:28:38.385380 31012 net.cpp:367] fire4/relu_expand1x1 -> fire4/expand1x1 (in-place)
I0416 21:28:38.386375 31012 net.cpp:122] Setting up fire4/relu_expand1x1
I0416 21:28:38.386375 31012 net.cpp:129] Top shape: 100 128 6 6 (460800)
I0416 21:28:38.386375 31012 net.cpp:137] Memory required for data: 39553600
I0416 21:28:38.386375 31012 layer_factory.cpp:58] Creating layer fire4/expand3x3
I0416 21:28:38.386375 31012 net.cpp:84] Creating Layer fire4/expand3x3
I0416 21:28:38.386375 31012 net.cpp:406] fire4/expand3x3 <- fire4/squeeze1x1_fire4/relu_squeeze1x1_0_split_1
I0416 21:28:38.386375 31012 net.cpp:380] fire4/expand3x3 -> fire4/expand3x3
I0416 21:28:38.389475 31012 net.cpp:122] Setting up fire4/expand3x3
I0416 21:28:38.389475 31012 net.cpp:129] Top shape: 100 128 6 6 (460800)
I0416 21:28:38.389475 31012 net.cpp:137] Memory required for data: 41396800
I0416 21:28:38.389475 31012 layer_factory.cpp:58] Creating layer fire4/relu_expand3x3
I0416 21:28:38.389475 31012 net.cpp:84] Creating Layer fire4/relu_expand3x3
I0416 21:28:38.389475 31012 net.cpp:406] fire4/relu_expand3x3 <- fire4/expand3x3
I0416 21:28:38.389475 31012 net.cpp:367] fire4/relu_expand3x3 -> fire4/expand3x3 (in-place)
I0416 21:28:38.391443 31012 net.cpp:122] Setting up fire4/relu_expand3x3
I0416 21:28:38.391443 31012 net.cpp:129] Top shape: 100 128 6 6 (460800)
I0416 21:28:38.391443 31012 net.cpp:137] Memory required for data: 43240000
I0416 21:28:38.391443 31012 layer_factory.cpp:58] Creating layer fire4/concat
I0416 21:28:38.391443 31012 net.cpp:84] Creating Layer fire4/concat
I0416 21:28:38.391443 31012 net.cpp:406] fire4/concat <- fire4/expand1x1
I0416 21:28:38.391443 31012 net.cpp:406] fire4/concat <- fire4/expand3x3
I0416 21:28:38.391443 31012 net.cpp:380] fire4/concat -> fire4/concat
I0416 21:28:38.391443 31012 net.cpp:122] Setting up fire4/concat
I0416 21:28:38.391443 31012 net.cpp:129] Top shape: 100 256 6 6 (921600)
I0416 21:28:38.391443 31012 net.cpp:137] Memory required for data: 46926400
I0416 21:28:38.391443 31012 layer_factory.cpp:58] Creating layer pool4
I0416 21:28:38.391443 31012 net.cpp:84] Creating Layer pool4
I0416 21:28:38.391443 31012 net.cpp:406] pool4 <- fire4/concat
I0416 21:28:38.391443 31012 net.cpp:380] pool4 -> pool4
I0416 21:28:38.391443 31012 net.cpp:122] Setting up pool4
I0416 21:28:38.391443 31012 net.cpp:129] Top shape: 100 256 3 3 (230400)
I0416 21:28:38.391443 31012 net.cpp:137] Memory required for data: 47848000
I0416 21:28:38.391443 31012 layer_factory.cpp:58] Creating layer pool4_pool4_0_split
I0416 21:28:38.391443 31012 net.cpp:84] Creating Layer pool4_pool4_0_split
I0416 21:28:38.391443 31012 net.cpp:406] pool4_pool4_0_split <- pool4
I0416 21:28:38.391443 31012 net.cpp:380] pool4_pool4_0_split -> pool4_pool4_0_split_0
I0416 21:28:38.391443 31012 net.cpp:380] pool4_pool4_0_split -> pool4_pool4_0_split_1
I0416 21:28:38.391443 31012 net.cpp:122] Setting up pool4_pool4_0_split
I0416 21:28:38.391443 31012 net.cpp:129] Top shape: 100 256 3 3 (230400)
I0416 21:28:38.391443 31012 net.cpp:129] Top shape: 100 256 3 3 (230400)
I0416 21:28:38.391443 31012 net.cpp:137] Memory required for data: 49691200
I0416 21:28:38.391443 31012 layer_factory.cpp:58] Creating layer fire5/squeeze1x1
I0416 21:28:38.391443 31012 net.cpp:84] Creating Layer fire5/squeeze1x1
I0416 21:28:38.391443 31012 net.cpp:406] fire5/squeeze1x1 <- pool4_pool4_0_split_0
I0416 21:28:38.391443 31012 net.cpp:380] fire5/squeeze1x1 -> fire5/squeeze1x1
I0416 21:28:38.394547 31012 net.cpp:122] Setting up fire5/squeeze1x1
I0416 21:28:38.394547 31012 net.cpp:129] Top shape: 100 32 3 3 (28800)
I0416 21:28:38.394547 31012 net.cpp:137] Memory required for data: 49806400
I0416 21:28:38.394547 31012 layer_factory.cpp:58] Creating layer fire5/relu_squeeze1x1
I0416 21:28:38.394547 31012 net.cpp:84] Creating Layer fire5/relu_squeeze1x1
I0416 21:28:38.394547 31012 net.cpp:406] fire5/relu_squeeze1x1 <- fire5/squeeze1x1
I0416 21:28:38.394547 31012 net.cpp:367] fire5/relu_squeeze1x1 -> fire5/squeeze1x1 (in-place)
I0416 21:28:38.396458 31012 net.cpp:122] Setting up fire5/relu_squeeze1x1
I0416 21:28:38.396458 31012 net.cpp:129] Top shape: 100 32 3 3 (28800)
I0416 21:28:38.396458 31012 net.cpp:137] Memory required for data: 49921600
I0416 21:28:38.396458 31012 layer_factory.cpp:58] Creating layer fire5/squeeze1x1_fire5/relu_squeeze1x1_0_split
I0416 21:28:38.396458 31012 net.cpp:84] Creating Layer fire5/squeeze1x1_fire5/relu_squeeze1x1_0_split
I0416 21:28:38.396458 31012 net.cpp:406] fire5/squeeze1x1_fire5/relu_squeeze1x1_0_split <- fire5/squeeze1x1
I0416 21:28:38.396458 31012 net.cpp:380] fire5/squeeze1x1_fire5/relu_squeeze1x1_0_split -> fire5/squeeze1x1_fire5/relu_squeeze1x1_0_split_0
I0416 21:28:38.396458 31012 net.cpp:380] fire5/squeeze1x1_fire5/relu_squeeze1x1_0_split -> fire5/squeeze1x1_fire5/relu_squeeze1x1_0_split_1
I0416 21:28:38.396458 31012 net.cpp:122] Setting up fire5/squeeze1x1_fire5/relu_squeeze1x1_0_split
I0416 21:28:38.396458 31012 net.cpp:129] Top shape: 100 32 3 3 (28800)
I0416 21:28:38.396458 31012 net.cpp:129] Top shape: 100 32 3 3 (28800)
I0416 21:28:38.396458 31012 net.cpp:137] Memory required for data: 50152000
I0416 21:28:38.396458 31012 layer_factory.cpp:58] Creating layer fire5/expand1x1
I0416 21:28:38.396458 31012 net.cpp:84] Creating Layer fire5/expand1x1
I0416 21:28:38.396458 31012 net.cpp:406] fire5/expand1x1 <- fire5/squeeze1x1_fire5/relu_squeeze1x1_0_split_0
I0416 21:28:38.396458 31012 net.cpp:380] fire5/expand1x1 -> fire5/expand1x1
I0416 21:28:38.399060 31012 net.cpp:122] Setting up fire5/expand1x1
I0416 21:28:38.399060 31012 net.cpp:129] Top shape: 100 128 3 3 (115200)
I0416 21:28:38.399060 31012 net.cpp:137] Memory required for data: 50612800
I0416 21:28:38.399060 31012 layer_factory.cpp:58] Creating layer fire5/relu_expand1x1
I0416 21:28:38.399060 31012 net.cpp:84] Creating Layer fire5/relu_expand1x1
I0416 21:28:38.399060 31012 net.cpp:406] fire5/relu_expand1x1 <- fire5/expand1x1
I0416 21:28:38.399631 31012 net.cpp:367] fire5/relu_expand1x1 -> fire5/expand1x1 (in-place)
I0416 21:28:38.400599 31012 net.cpp:122] Setting up fire5/relu_expand1x1
I0416 21:28:38.400599 31012 net.cpp:129] Top shape: 100 128 3 3 (115200)
I0416 21:28:38.400599 31012 net.cpp:137] Memory required for data: 51073600
I0416 21:28:38.400599 31012 layer_factory.cpp:58] Creating layer fire5/expand3x3
I0416 21:28:38.400599 31012 net.cpp:84] Creating Layer fire5/expand3x3
I0416 21:28:38.400599 31012 net.cpp:406] fire5/expand3x3 <- fire5/squeeze1x1_fire5/relu_squeeze1x1_0_split_1
I0416 21:28:38.400599 31012 net.cpp:380] fire5/expand3x3 -> fire5/expand3x3
I0416 21:28:38.405584 31012 net.cpp:122] Setting up fire5/expand3x3
I0416 21:28:38.405584 31012 net.cpp:129] Top shape: 100 128 3 3 (115200)
I0416 21:28:38.405584 31012 net.cpp:137] Memory required for data: 51534400
I0416 21:28:38.405584 31012 layer_factory.cpp:58] Creating layer fire5/relu_expand3x3
I0416 21:28:38.405584 31012 net.cpp:84] Creating Layer fire5/relu_expand3x3
I0416 21:28:38.405584 31012 net.cpp:406] fire5/relu_expand3x3 <- fire5/expand3x3
I0416 21:28:38.405584 31012 net.cpp:367] fire5/relu_expand3x3 -> fire5/expand3x3 (in-place)
I0416 21:28:38.405584 31012 net.cpp:122] Setting up fire5/relu_expand3x3
I0416 21:28:38.405584 31012 net.cpp:129] Top shape: 100 128 3 3 (115200)
I0416 21:28:38.405584 31012 net.cpp:137] Memory required for data: 51995200
I0416 21:28:38.405584 31012 layer_factory.cpp:58] Creating layer fire5/concat
I0416 21:28:38.405584 31012 net.cpp:84] Creating Layer fire5/concat
I0416 21:28:38.405584 31012 net.cpp:406] fire5/concat <- fire5/expand1x1
I0416 21:28:38.405584 31012 net.cpp:406] fire5/concat <- fire5/expand3x3
I0416 21:28:38.405584 31012 net.cpp:380] fire5/concat -> fire5/concat
I0416 21:28:38.405584 31012 net.cpp:122] Setting up fire5/concat
I0416 21:28:38.405584 31012 net.cpp:129] Top shape: 100 256 3 3 (230400)
I0416 21:28:38.405584 31012 net.cpp:137] Memory required for data: 52916800
I0416 21:28:38.405584 31012 layer_factory.cpp:58] Creating layer bypass_45
I0416 21:28:38.405584 31012 net.cpp:84] Creating Layer bypass_45
I0416 21:28:38.405584 31012 net.cpp:406] bypass_45 <- pool4_pool4_0_split_1
I0416 21:28:38.406610 31012 net.cpp:406] bypass_45 <- fire5/concat
I0416 21:28:38.406610 31012 net.cpp:380] bypass_45 -> fire5_EltAdd
I0416 21:28:38.406610 31012 net.cpp:122] Setting up bypass_45
I0416 21:28:38.406610 31012 net.cpp:129] Top shape: 100 256 3 3 (230400)
I0416 21:28:38.406610 31012 net.cpp:137] Memory required for data: 53838400
I0416 21:28:38.406610 31012 layer_factory.cpp:58] Creating layer fire6/squeeze1x1
I0416 21:28:38.406610 31012 net.cpp:84] Creating Layer fire6/squeeze1x1
I0416 21:28:38.406610 31012 net.cpp:406] fire6/squeeze1x1 <- fire5_EltAdd
I0416 21:28:38.406610 31012 net.cpp:380] fire6/squeeze1x1 -> fire6/squeeze1x1
I0416 21:28:38.409793 31012 net.cpp:122] Setting up fire6/squeeze1x1
I0416 21:28:38.409793 31012 net.cpp:129] Top shape: 100 48 3 3 (43200)
I0416 21:28:38.409793 31012 net.cpp:137] Memory required for data: 54011200
I0416 21:28:38.409793 31012 layer_factory.cpp:58] Creating layer fire6/relu_squeeze1x1
I0416 21:28:38.409793 31012 net.cpp:84] Creating Layer fire6/relu_squeeze1x1
I0416 21:28:38.409793 31012 net.cpp:406] fire6/relu_squeeze1x1 <- fire6/squeeze1x1
I0416 21:28:38.409793 31012 net.cpp:367] fire6/relu_squeeze1x1 -> fire6/squeeze1x1 (in-place)
I0416 21:28:38.411036 31012 net.cpp:122] Setting up fire6/relu_squeeze1x1
I0416 21:28:38.411036 31012 net.cpp:129] Top shape: 100 48 3 3 (43200)
I0416 21:28:38.411036 31012 net.cpp:137] Memory required for data: 54184000
I0416 21:28:38.411036 31012 layer_factory.cpp:58] Creating layer fire6/squeeze1x1_fire6/relu_squeeze1x1_0_split
I0416 21:28:38.411036 31012 net.cpp:84] Creating Layer fire6/squeeze1x1_fire6/relu_squeeze1x1_0_split
I0416 21:28:38.411036 31012 net.cpp:406] fire6/squeeze1x1_fire6/relu_squeeze1x1_0_split <- fire6/squeeze1x1
I0416 21:28:38.411036 31012 net.cpp:380] fire6/squeeze1x1_fire6/relu_squeeze1x1_0_split -> fire6/squeeze1x1_fire6/relu_squeeze1x1_0_split_0
I0416 21:28:38.411036 31012 net.cpp:380] fire6/squeeze1x1_fire6/relu_squeeze1x1_0_split -> fire6/squeeze1x1_fire6/relu_squeeze1x1_0_split_1
I0416 21:28:38.411036 31012 net.cpp:122] Setting up fire6/squeeze1x1_fire6/relu_squeeze1x1_0_split
I0416 21:28:38.411036 31012 net.cpp:129] Top shape: 100 48 3 3 (43200)
I0416 21:28:38.411036 31012 net.cpp:129] Top shape: 100 48 3 3 (43200)
I0416 21:28:38.411036 31012 net.cpp:137] Memory required for data: 54529600
I0416 21:28:38.411036 31012 layer_factory.cpp:58] Creating layer fire6/expand1x1
I0416 21:28:38.411036 31012 net.cpp:84] Creating Layer fire6/expand1x1
I0416 21:28:38.411036 31012 net.cpp:406] fire6/expand1x1 <- fire6/squeeze1x1_fire6/relu_squeeze1x1_0_split_0
I0416 21:28:38.411036 31012 net.cpp:380] fire6/expand1x1 -> fire6/expand1x1
I0416 21:28:38.414806 31012 net.cpp:122] Setting up fire6/expand1x1
I0416 21:28:38.414806 31012 net.cpp:129] Top shape: 100 192 3 3 (172800)
I0416 21:28:38.414806 31012 net.cpp:137] Memory required for data: 55220800
I0416 21:28:38.414806 31012 layer_factory.cpp:58] Creating layer fire6/relu_expand1x1
I0416 21:28:38.414806 31012 net.cpp:84] Creating Layer fire6/relu_expand1x1
I0416 21:28:38.414806 31012 net.cpp:406] fire6/relu_expand1x1 <- fire6/expand1x1
I0416 21:28:38.414806 31012 net.cpp:367] fire6/relu_expand1x1 -> fire6/expand1x1 (in-place)
I0416 21:28:38.416774 31012 net.cpp:122] Setting up fire6/relu_expand1x1
I0416 21:28:38.416774 31012 net.cpp:129] Top shape: 100 192 3 3 (172800)
I0416 21:28:38.416774 31012 net.cpp:137] Memory required for data: 55912000
I0416 21:28:38.416774 31012 layer_factory.cpp:58] Creating layer fire6/expand3x3
I0416 21:28:38.416774 31012 net.cpp:84] Creating Layer fire6/expand3x3
I0416 21:28:38.416774 31012 net.cpp:406] fire6/expand3x3 <- fire6/squeeze1x1_fire6/relu_squeeze1x1_0_split_1
I0416 21:28:38.416774 31012 net.cpp:380] fire6/expand3x3 -> fire6/expand3x3
I0416 21:28:38.420159 31012 net.cpp:122] Setting up fire6/expand3x3
I0416 21:28:38.420159 31012 net.cpp:129] Top shape: 100 192 3 3 (172800)
I0416 21:28:38.420159 31012 net.cpp:137] Memory required for data: 56603200
I0416 21:28:38.420159 31012 layer_factory.cpp:58] Creating layer fire6/relu_expand3x3
I0416 21:28:38.420159 31012 net.cpp:84] Creating Layer fire6/relu_expand3x3
I0416 21:28:38.420159 31012 net.cpp:406] fire6/relu_expand3x3 <- fire6/expand3x3
I0416 21:28:38.420159 31012 net.cpp:367] fire6/relu_expand3x3 -> fire6/expand3x3 (in-place)
I0416 21:28:38.422155 31012 net.cpp:122] Setting up fire6/relu_expand3x3
I0416 21:28:38.422155 31012 net.cpp:129] Top shape: 100 192 3 3 (172800)
I0416 21:28:38.422155 31012 net.cpp:137] Memory required for data: 57294400
I0416 21:28:38.422155 31012 layer_factory.cpp:58] Creating layer fire6/concat
I0416 21:28:38.422155 31012 net.cpp:84] Creating Layer fire6/concat
I0416 21:28:38.422155 31012 net.cpp:406] fire6/concat <- fire6/expand1x1
I0416 21:28:38.422155 31012 net.cpp:406] fire6/concat <- fire6/expand3x3
I0416 21:28:38.422155 31012 net.cpp:380] fire6/concat -> fire6/concat
I0416 21:28:38.422155 31012 net.cpp:122] Setting up fire6/concat
I0416 21:28:38.422155 31012 net.cpp:129] Top shape: 100 384 3 3 (345600)
I0416 21:28:38.422155 31012 net.cpp:137] Memory required for data: 58676800
I0416 21:28:38.422155 31012 layer_factory.cpp:58] Creating layer fire6/concat_fire6/concat_0_split
I0416 21:28:38.422155 31012 net.cpp:84] Creating Layer fire6/concat_fire6/concat_0_split
I0416 21:28:38.422155 31012 net.cpp:406] fire6/concat_fire6/concat_0_split <- fire6/concat
I0416 21:28:38.422155 31012 net.cpp:380] fire6/concat_fire6/concat_0_split -> fire6/concat_fire6/concat_0_split_0
I0416 21:28:38.422155 31012 net.cpp:380] fire6/concat_fire6/concat_0_split -> fire6/concat_fire6/concat_0_split_1
I0416 21:28:38.422734 31012 net.cpp:122] Setting up fire6/concat_fire6/concat_0_split
I0416 21:28:38.422734 31012 net.cpp:129] Top shape: 100 384 3 3 (345600)
I0416 21:28:38.422734 31012 net.cpp:129] Top shape: 100 384 3 3 (345600)
I0416 21:28:38.422734 31012 net.cpp:137] Memory required for data: 61441600
I0416 21:28:38.422734 31012 layer_factory.cpp:58] Creating layer fire7/squeeze1x1
I0416 21:28:38.422734 31012 net.cpp:84] Creating Layer fire7/squeeze1x1
I0416 21:28:38.422734 31012 net.cpp:406] fire7/squeeze1x1 <- fire6/concat_fire6/concat_0_split_0
I0416 21:28:38.422734 31012 net.cpp:380] fire7/squeeze1x1 -> fire7/squeeze1x1
I0416 21:28:38.424888 31012 net.cpp:122] Setting up fire7/squeeze1x1
I0416 21:28:38.424888 31012 net.cpp:129] Top shape: 100 48 3 3 (43200)
I0416 21:28:38.424888 31012 net.cpp:137] Memory required for data: 61614400
I0416 21:28:38.424888 31012 layer_factory.cpp:58] Creating layer fire7/relu_squeeze1x1
I0416 21:28:38.424888 31012 net.cpp:84] Creating Layer fire7/relu_squeeze1x1
I0416 21:28:38.424888 31012 net.cpp:406] fire7/relu_squeeze1x1 <- fire7/squeeze1x1
I0416 21:28:38.424888 31012 net.cpp:367] fire7/relu_squeeze1x1 -> fire7/squeeze1x1 (in-place)
I0416 21:28:38.425993 31012 net.cpp:122] Setting up fire7/relu_squeeze1x1
I0416 21:28:38.425993 31012 net.cpp:129] Top shape: 100 48 3 3 (43200)
I0416 21:28:38.425993 31012 net.cpp:137] Memory required for data: 61787200
I0416 21:28:38.425993 31012 layer_factory.cpp:58] Creating layer fire7/squeeze1x1_fire7/relu_squeeze1x1_0_split
I0416 21:28:38.425993 31012 net.cpp:84] Creating Layer fire7/squeeze1x1_fire7/relu_squeeze1x1_0_split
I0416 21:28:38.425993 31012 net.cpp:406] fire7/squeeze1x1_fire7/relu_squeeze1x1_0_split <- fire7/squeeze1x1
I0416 21:28:38.425993 31012 net.cpp:380] fire7/squeeze1x1_fire7/relu_squeeze1x1_0_split -> fire7/squeeze1x1_fire7/relu_squeeze1x1_0_split_0
I0416 21:28:38.425993 31012 net.cpp:380] fire7/squeeze1x1_fire7/relu_squeeze1x1_0_split -> fire7/squeeze1x1_fire7/relu_squeeze1x1_0_split_1
I0416 21:28:38.426885 31012 net.cpp:122] Setting up fire7/squeeze1x1_fire7/relu_squeeze1x1_0_split
I0416 21:28:38.426885 31012 net.cpp:129] Top shape: 100 48 3 3 (43200)
I0416 21:28:38.426885 31012 net.cpp:129] Top shape: 100 48 3 3 (43200)
I0416 21:28:38.426885 31012 net.cpp:137] Memory required for data: 62132800
I0416 21:28:38.426885 31012 layer_factory.cpp:58] Creating layer fire7/expand1x1
I0416 21:28:38.426885 31012 net.cpp:84] Creating Layer fire7/expand1x1
I0416 21:28:38.426885 31012 net.cpp:406] fire7/expand1x1 <- fire7/squeeze1x1_fire7/relu_squeeze1x1_0_split_0
I0416 21:28:38.426885 31012 net.cpp:380] fire7/expand1x1 -> fire7/expand1x1
I0416 21:28:38.430074 31012 net.cpp:122] Setting up fire7/expand1x1
I0416 21:28:38.430074 31012 net.cpp:129] Top shape: 100 192 3 3 (172800)
I0416 21:28:38.430074 31012 net.cpp:137] Memory required for data: 62824000
I0416 21:28:38.430074 31012 layer_factory.cpp:58] Creating layer fire7/relu_expand1x1
I0416 21:28:38.430074 31012 net.cpp:84] Creating Layer fire7/relu_expand1x1
I0416 21:28:38.430074 31012 net.cpp:406] fire7/relu_expand1x1 <- fire7/expand1x1
I0416 21:28:38.430074 31012 net.cpp:367] fire7/relu_expand1x1 -> fire7/expand1x1 (in-place)
I0416 21:28:38.431126 31012 net.cpp:122] Setting up fire7/relu_expand1x1
I0416 21:28:38.431126 31012 net.cpp:129] Top shape: 100 192 3 3 (172800)
I0416 21:28:38.431126 31012 net.cpp:137] Memory required for data: 63515200
I0416 21:28:38.431126 31012 layer_factory.cpp:58] Creating layer fire7/expand3x3
I0416 21:28:38.431126 31012 net.cpp:84] Creating Layer fire7/expand3x3
I0416 21:28:38.431126 31012 net.cpp:406] fire7/expand3x3 <- fire7/squeeze1x1_fire7/relu_squeeze1x1_0_split_1
I0416 21:28:38.431126 31012 net.cpp:380] fire7/expand3x3 -> fire7/expand3x3
I0416 21:28:38.435242 31012 net.cpp:122] Setting up fire7/expand3x3
I0416 21:28:38.435242 31012 net.cpp:129] Top shape: 100 192 3 3 (172800)
I0416 21:28:38.435242 31012 net.cpp:137] Memory required for data: 64206400
I0416 21:28:38.435242 31012 layer_factory.cpp:58] Creating layer fire7/relu_expand3x3
I0416 21:28:38.435242 31012 net.cpp:84] Creating Layer fire7/relu_expand3x3
I0416 21:28:38.435242 31012 net.cpp:406] fire7/relu_expand3x3 <- fire7/expand3x3
I0416 21:28:38.435242 31012 net.cpp:367] fire7/relu_expand3x3 -> fire7/expand3x3 (in-place)
I0416 21:28:38.436091 31012 net.cpp:122] Setting up fire7/relu_expand3x3
I0416 21:28:38.436091 31012 net.cpp:129] Top shape: 100 192 3 3 (172800)
I0416 21:28:38.436091 31012 net.cpp:137] Memory required for data: 64897600
I0416 21:28:38.436091 31012 layer_factory.cpp:58] Creating layer fire7/concat
I0416 21:28:38.436091 31012 net.cpp:84] Creating Layer fire7/concat
I0416 21:28:38.436091 31012 net.cpp:406] fire7/concat <- fire7/expand1x1
I0416 21:28:38.436091 31012 net.cpp:406] fire7/concat <- fire7/expand3x3
I0416 21:28:38.436091 31012 net.cpp:380] fire7/concat -> fire7/concat
I0416 21:28:38.436091 31012 net.cpp:122] Setting up fire7/concat
I0416 21:28:38.436091 31012 net.cpp:129] Top shape: 100 384 3 3 (345600)
I0416 21:28:38.436091 31012 net.cpp:137] Memory required for data: 66280000
I0416 21:28:38.436091 31012 layer_factory.cpp:58] Creating layer bypass_67
I0416 21:28:38.436091 31012 net.cpp:84] Creating Layer bypass_67
I0416 21:28:38.436091 31012 net.cpp:406] bypass_67 <- fire6/concat_fire6/concat_0_split_1
I0416 21:28:38.436091 31012 net.cpp:406] bypass_67 <- fire7/concat
I0416 21:28:38.436091 31012 net.cpp:380] bypass_67 -> fire7_EltAdd
I0416 21:28:38.436091 31012 net.cpp:122] Setting up bypass_67
I0416 21:28:38.436091 31012 net.cpp:129] Top shape: 100 384 3 3 (345600)
I0416 21:28:38.436091 31012 net.cpp:137] Memory required for data: 67662400
I0416 21:28:38.436091 31012 layer_factory.cpp:58] Creating layer fire8/squeeze1x1
I0416 21:28:38.436091 31012 net.cpp:84] Creating Layer fire8/squeeze1x1
I0416 21:28:38.436091 31012 net.cpp:406] fire8/squeeze1x1 <- fire7_EltAdd
I0416 21:28:38.436091 31012 net.cpp:380] fire8/squeeze1x1 -> fire8/squeeze1x1
I0416 21:28:38.439307 31012 net.cpp:122] Setting up fire8/squeeze1x1
I0416 21:28:38.439307 31012 net.cpp:129] Top shape: 100 64 3 3 (57600)
I0416 21:28:38.439307 31012 net.cpp:137] Memory required for data: 67892800
I0416 21:28:38.439307 31012 layer_factory.cpp:58] Creating layer fire8/relu_squeeze1x1
I0416 21:28:38.439307 31012 net.cpp:84] Creating Layer fire8/relu_squeeze1x1
I0416 21:28:38.439307 31012 net.cpp:406] fire8/relu_squeeze1x1 <- fire8/squeeze1x1
I0416 21:28:38.439307 31012 net.cpp:367] fire8/relu_squeeze1x1 -> fire8/squeeze1x1 (in-place)
I0416 21:28:38.441294 31012 net.cpp:122] Setting up fire8/relu_squeeze1x1
I0416 21:28:38.441294 31012 net.cpp:129] Top shape: 100 64 3 3 (57600)
I0416 21:28:38.441294 31012 net.cpp:137] Memory required for data: 68123200
I0416 21:28:38.441294 31012 layer_factory.cpp:58] Creating layer fire8/squeeze1x1_fire8/relu_squeeze1x1_0_split
I0416 21:28:38.441294 31012 net.cpp:84] Creating Layer fire8/squeeze1x1_fire8/relu_squeeze1x1_0_split
I0416 21:28:38.441294 31012 net.cpp:406] fire8/squeeze1x1_fire8/relu_squeeze1x1_0_split <- fire8/squeeze1x1
I0416 21:28:38.441294 31012 net.cpp:380] fire8/squeeze1x1_fire8/relu_squeeze1x1_0_split -> fire8/squeeze1x1_fire8/relu_squeeze1x1_0_split_0
I0416 21:28:38.441294 31012 net.cpp:380] fire8/squeeze1x1_fire8/relu_squeeze1x1_0_split -> fire8/squeeze1x1_fire8/relu_squeeze1x1_0_split_1
I0416 21:28:38.441294 31012 net.cpp:122] Setting up fire8/squeeze1x1_fire8/relu_squeeze1x1_0_split
I0416 21:28:38.441294 31012 net.cpp:129] Top shape: 100 64 3 3 (57600)
I0416 21:28:38.441294 31012 net.cpp:129] Top shape: 100 64 3 3 (57600)
I0416 21:28:38.441294 31012 net.cpp:137] Memory required for data: 68584000
I0416 21:28:38.441294 31012 layer_factory.cpp:58] Creating layer fire8/expand1x1
I0416 21:28:38.441294 31012 net.cpp:84] Creating Layer fire8/expand1x1
I0416 21:28:38.441294 31012 net.cpp:406] fire8/expand1x1 <- fire8/squeeze1x1_fire8/relu_squeeze1x1_0_split_0
I0416 21:28:38.441294 31012 net.cpp:380] fire8/expand1x1 -> fire8/expand1x1
I0416 21:28:38.444427 31012 net.cpp:122] Setting up fire8/expand1x1
I0416 21:28:38.444427 31012 net.cpp:129] Top shape: 100 256 3 3 (230400)
I0416 21:28:38.444427 31012 net.cpp:137] Memory required for data: 69505600
I0416 21:28:38.444427 31012 layer_factory.cpp:58] Creating layer fire8/relu_expand1x1
I0416 21:28:38.444427 31012 net.cpp:84] Creating Layer fire8/relu_expand1x1
I0416 21:28:38.444427 31012 net.cpp:406] fire8/relu_expand1x1 <- fire8/expand1x1
I0416 21:28:38.444427 31012 net.cpp:367] fire8/relu_expand1x1 -> fire8/expand1x1 (in-place)
I0416 21:28:38.445286 31012 net.cpp:122] Setting up fire8/relu_expand1x1
I0416 21:28:38.445286 31012 net.cpp:129] Top shape: 100 256 3 3 (230400)
I0416 21:28:38.445286 31012 net.cpp:137] Memory required for data: 70427200
I0416 21:28:38.445286 31012 layer_factory.cpp:58] Creating layer fire8/expand3x3
I0416 21:28:38.445286 31012 net.cpp:84] Creating Layer fire8/expand3x3
I0416 21:28:38.445286 31012 net.cpp:406] fire8/expand3x3 <- fire8/squeeze1x1_fire8/relu_squeeze1x1_0_split_1
I0416 21:28:38.445286 31012 net.cpp:380] fire8/expand3x3 -> fire8/expand3x3
I0416 21:28:38.448617 31012 net.cpp:122] Setting up fire8/expand3x3
I0416 21:28:38.448617 31012 net.cpp:129] Top shape: 100 256 3 3 (230400)
I0416 21:28:38.448617 31012 net.cpp:137] Memory required for data: 71348800
I0416 21:28:38.448617 31012 layer_factory.cpp:58] Creating layer fire8/relu_expand3x3
I0416 21:28:38.448617 31012 net.cpp:84] Creating Layer fire8/relu_expand3x3
I0416 21:28:38.448617 31012 net.cpp:406] fire8/relu_expand3x3 <- fire8/expand3x3
I0416 21:28:38.448617 31012 net.cpp:367] fire8/relu_expand3x3 -> fire8/expand3x3 (in-place)
I0416 21:28:38.450613 31012 net.cpp:122] Setting up fire8/relu_expand3x3
I0416 21:28:38.450613 31012 net.cpp:129] Top shape: 100 256 3 3 (230400)
I0416 21:28:38.450613 31012 net.cpp:137] Memory required for data: 72270400
I0416 21:28:38.450613 31012 layer_factory.cpp:58] Creating layer fire8/concat
I0416 21:28:38.450613 31012 net.cpp:84] Creating Layer fire8/concat
I0416 21:28:38.450613 31012 net.cpp:406] fire8/concat <- fire8/expand1x1
I0416 21:28:38.450613 31012 net.cpp:406] fire8/concat <- fire8/expand3x3
I0416 21:28:38.450613 31012 net.cpp:380] fire8/concat -> fire8/concat
I0416 21:28:38.450613 31012 net.cpp:122] Setting up fire8/concat
I0416 21:28:38.450613 31012 net.cpp:129] Top shape: 100 512 3 3 (460800)
I0416 21:28:38.450613 31012 net.cpp:137] Memory required for data: 74113600
I0416 21:28:38.450613 31012 layer_factory.cpp:58] Creating layer pool8
I0416 21:28:38.450613 31012 net.cpp:84] Creating Layer pool8
I0416 21:28:38.450613 31012 net.cpp:406] pool8 <- fire8/concat
I0416 21:28:38.450613 31012 net.cpp:380] pool8 -> pool8
I0416 21:28:38.450613 31012 net.cpp:122] Setting up pool8
I0416 21:28:38.450613 31012 net.cpp:129] Top shape: 100 512 1 1 (51200)
I0416 21:28:38.450613 31012 net.cpp:137] Memory required for data: 74318400
I0416 21:28:38.450613 31012 layer_factory.cpp:58] Creating layer pool8_pool8_0_split
I0416 21:28:38.450613 31012 net.cpp:84] Creating Layer pool8_pool8_0_split
I0416 21:28:38.450613 31012 net.cpp:406] pool8_pool8_0_split <- pool8
I0416 21:28:38.450613 31012 net.cpp:380] pool8_pool8_0_split -> pool8_pool8_0_split_0
I0416 21:28:38.450613 31012 net.cpp:380] pool8_pool8_0_split -> pool8_pool8_0_split_1
I0416 21:28:38.450613 31012 net.cpp:122] Setting up pool8_pool8_0_split
I0416 21:28:38.450613 31012 net.cpp:129] Top shape: 100 512 1 1 (51200)
I0416 21:28:38.450613 31012 net.cpp:129] Top shape: 100 512 1 1 (51200)
I0416 21:28:38.450613 31012 net.cpp:137] Memory required for data: 74728000
I0416 21:28:38.450613 31012 layer_factory.cpp:58] Creating layer fire9/squeeze1x1
I0416 21:28:38.450613 31012 net.cpp:84] Creating Layer fire9/squeeze1x1
I0416 21:28:38.450613 31012 net.cpp:406] fire9/squeeze1x1 <- pool8_pool8_0_split_0
I0416 21:28:38.450613 31012 net.cpp:380] fire9/squeeze1x1 -> fire9/squeeze1x1
I0416 21:28:38.454634 31012 net.cpp:122] Setting up fire9/squeeze1x1
I0416 21:28:38.454634 31012 net.cpp:129] Top shape: 100 64 1 1 (6400)
I0416 21:28:38.454634 31012 net.cpp:137] Memory required for data: 74753600
I0416 21:28:38.454634 31012 layer_factory.cpp:58] Creating layer fire9/relu_squeeze1x1
I0416 21:28:38.454634 31012 net.cpp:84] Creating Layer fire9/relu_squeeze1x1
I0416 21:28:38.454634 31012 net.cpp:406] fire9/relu_squeeze1x1 <- fire9/squeeze1x1
I0416 21:28:38.454634 31012 net.cpp:367] fire9/relu_squeeze1x1 -> fire9/squeeze1x1 (in-place)
I0416 21:28:38.455598 31012 net.cpp:122] Setting up fire9/relu_squeeze1x1
I0416 21:28:38.455598 31012 net.cpp:129] Top shape: 100 64 1 1 (6400)
I0416 21:28:38.455598 31012 net.cpp:137] Memory required for data: 74779200
I0416 21:28:38.455598 31012 layer_factory.cpp:58] Creating layer fire9/squeeze1x1_fire9/relu_squeeze1x1_0_split
I0416 21:28:38.455598 31012 net.cpp:84] Creating Layer fire9/squeeze1x1_fire9/relu_squeeze1x1_0_split
I0416 21:28:38.455598 31012 net.cpp:406] fire9/squeeze1x1_fire9/relu_squeeze1x1_0_split <- fire9/squeeze1x1
I0416 21:28:38.455598 31012 net.cpp:380] fire9/squeeze1x1_fire9/relu_squeeze1x1_0_split -> fire9/squeeze1x1_fire9/relu_squeeze1x1_0_split_0
I0416 21:28:38.455598 31012 net.cpp:380] fire9/squeeze1x1_fire9/relu_squeeze1x1_0_split -> fire9/squeeze1x1_fire9/relu_squeeze1x1_0_split_1
I0416 21:28:38.455598 31012 net.cpp:122] Setting up fire9/squeeze1x1_fire9/relu_squeeze1x1_0_split
I0416 21:28:38.455598 31012 net.cpp:129] Top shape: 100 64 1 1 (6400)
I0416 21:28:38.455598 31012 net.cpp:129] Top shape: 100 64 1 1 (6400)
I0416 21:28:38.455598 31012 net.cpp:137] Memory required for data: 74830400
I0416 21:28:38.455598 31012 layer_factory.cpp:58] Creating layer fire9/expand1x1
I0416 21:28:38.455598 31012 net.cpp:84] Creating Layer fire9/expand1x1
I0416 21:28:38.455598 31012 net.cpp:406] fire9/expand1x1 <- fire9/squeeze1x1_fire9/relu_squeeze1x1_0_split_0
I0416 21:28:38.455598 31012 net.cpp:380] fire9/expand1x1 -> fire9/expand1x1
I0416 21:28:38.458917 31012 net.cpp:122] Setting up fire9/expand1x1
I0416 21:28:38.458917 31012 net.cpp:129] Top shape: 100 256 1 1 (25600)
I0416 21:28:38.458917 31012 net.cpp:137] Memory required for data: 74932800
I0416 21:28:38.458917 31012 layer_factory.cpp:58] Creating layer fire9/relu_expand1x1
I0416 21:28:38.458917 31012 net.cpp:84] Creating Layer fire9/relu_expand1x1
I0416 21:28:38.458917 31012 net.cpp:406] fire9/relu_expand1x1 <- fire9/expand1x1
I0416 21:28:38.458917 31012 net.cpp:367] fire9/relu_expand1x1 -> fire9/expand1x1 (in-place)
I0416 21:28:38.459553 31012 net.cpp:122] Setting up fire9/relu_expand1x1
I0416 21:28:38.459553 31012 net.cpp:129] Top shape: 100 256 1 1 (25600)
I0416 21:28:38.459553 31012 net.cpp:137] Memory required for data: 75035200
I0416 21:28:38.459553 31012 layer_factory.cpp:58] Creating layer fire9/expand3x3
I0416 21:28:38.459553 31012 net.cpp:84] Creating Layer fire9/expand3x3
I0416 21:28:38.459553 31012 net.cpp:406] fire9/expand3x3 <- fire9/squeeze1x1_fire9/relu_squeeze1x1_0_split_1
I0416 21:28:38.459553 31012 net.cpp:380] fire9/expand3x3 -> fire9/expand3x3
I0416 21:28:38.463742 31012 net.cpp:122] Setting up fire9/expand3x3
I0416 21:28:38.463742 31012 net.cpp:129] Top shape: 100 256 1 1 (25600)
I0416 21:28:38.463742 31012 net.cpp:137] Memory required for data: 75137600
I0416 21:28:38.463742 31012 layer_factory.cpp:58] Creating layer fire9/relu_expand3x3
I0416 21:28:38.463742 31012 net.cpp:84] Creating Layer fire9/relu_expand3x3
I0416 21:28:38.463742 31012 net.cpp:406] fire9/relu_expand3x3 <- fire9/expand3x3
I0416 21:28:38.463742 31012 net.cpp:367] fire9/relu_expand3x3 -> fire9/expand3x3 (in-place)
I0416 21:28:38.466562 31012 net.cpp:122] Setting up fire9/relu_expand3x3
I0416 21:28:38.466562 31012 net.cpp:129] Top shape: 100 256 1 1 (25600)
I0416 21:28:38.466562 31012 net.cpp:137] Memory required for data: 75240000
I0416 21:28:38.466562 31012 layer_factory.cpp:58] Creating layer fire9/concat
I0416 21:28:38.466562 31012 net.cpp:84] Creating Layer fire9/concat
I0416 21:28:38.466562 31012 net.cpp:406] fire9/concat <- fire9/expand1x1
I0416 21:28:38.466562 31012 net.cpp:406] fire9/concat <- fire9/expand3x3
I0416 21:28:38.466562 31012 net.cpp:380] fire9/concat -> fire9/concat
I0416 21:28:38.466562 31012 net.cpp:122] Setting up fire9/concat
I0416 21:28:38.466562 31012 net.cpp:129] Top shape: 100 512 1 1 (51200)
I0416 21:28:38.466562 31012 net.cpp:137] Memory required for data: 75444800
I0416 21:28:38.466562 31012 layer_factory.cpp:58] Creating layer bypass_89
I0416 21:28:38.466562 31012 net.cpp:84] Creating Layer bypass_89
I0416 21:28:38.466562 31012 net.cpp:406] bypass_89 <- pool8_pool8_0_split_1
I0416 21:28:38.466562 31012 net.cpp:406] bypass_89 <- fire9/concat
I0416 21:28:38.466562 31012 net.cpp:380] bypass_89 -> fire9_EltAdd
I0416 21:28:38.466562 31012 net.cpp:122] Setting up bypass_89
I0416 21:28:38.466562 31012 net.cpp:129] Top shape: 100 512 1 1 (51200)
I0416 21:28:38.466562 31012 net.cpp:137] Memory required for data: 75649600
I0416 21:28:38.466562 31012 layer_factory.cpp:58] Creating layer drop9
I0416 21:28:38.466562 31012 net.cpp:84] Creating Layer drop9
I0416 21:28:38.466562 31012 net.cpp:406] drop9 <- fire9_EltAdd
I0416 21:28:38.466562 31012 net.cpp:367] drop9 -> fire9_EltAdd (in-place)
I0416 21:28:38.466562 31012 net.cpp:122] Setting up drop9
I0416 21:28:38.466562 31012 net.cpp:129] Top shape: 100 512 1 1 (51200)
I0416 21:28:38.466562 31012 net.cpp:137] Memory required for data: 75854400
I0416 21:28:38.466562 31012 layer_factory.cpp:58] Creating layer conv10_modified
I0416 21:28:38.466562 31012 net.cpp:84] Creating Layer conv10_modified
I0416 21:28:38.466562 31012 net.cpp:406] conv10_modified <- fire9_EltAdd
I0416 21:28:38.466562 31012 net.cpp:380] conv10_modified -> conv10
I0416 21:28:38.469530 31012 net.cpp:122] Setting up conv10_modified
I0416 21:28:38.469530 31012 net.cpp:129] Top shape: 100 10 3 3 (9000)
I0416 21:28:38.469530 31012 net.cpp:137] Memory required for data: 75890400
I0416 21:28:38.469530 31012 layer_factory.cpp:58] Creating layer relu_conv10
I0416 21:28:38.469530 31012 net.cpp:84] Creating Layer relu_conv10
I0416 21:28:38.469530 31012 net.cpp:406] relu_conv10 <- conv10
I0416 21:28:38.469530 31012 net.cpp:367] relu_conv10 -> conv10 (in-place)
I0416 21:28:38.470901 31012 net.cpp:122] Setting up relu_conv10
I0416 21:28:38.470901 31012 net.cpp:129] Top shape: 100 10 3 3 (9000)
I0416 21:28:38.470901 31012 net.cpp:137] Memory required for data: 75926400
I0416 21:28:38.470901 31012 layer_factory.cpp:58] Creating layer pool10
I0416 21:28:38.470901 31012 net.cpp:84] Creating Layer pool10
I0416 21:28:38.470901 31012 net.cpp:406] pool10 <- conv10
I0416 21:28:38.471554 31012 net.cpp:380] pool10 -> pool10
I0416 21:28:38.472548 31012 net.cpp:122] Setting up pool10
I0416 21:28:38.472548 31012 net.cpp:129] Top shape: 100 10 1 1 (1000)
I0416 21:28:38.472548 31012 net.cpp:137] Memory required for data: 75930400
I0416 21:28:38.472548 31012 layer_factory.cpp:58] Creating layer pool10_pool10_0_split
I0416 21:28:38.472548 31012 net.cpp:84] Creating Layer pool10_pool10_0_split
I0416 21:28:38.472548 31012 net.cpp:406] pool10_pool10_0_split <- pool10
I0416 21:28:38.472548 31012 net.cpp:380] pool10_pool10_0_split -> pool10_pool10_0_split_0
I0416 21:28:38.472548 31012 net.cpp:380] pool10_pool10_0_split -> pool10_pool10_0_split_1
I0416 21:28:38.472548 31012 net.cpp:380] pool10_pool10_0_split -> pool10_pool10_0_split_2
I0416 21:28:38.472548 31012 net.cpp:122] Setting up pool10_pool10_0_split
I0416 21:28:38.472548 31012 net.cpp:129] Top shape: 100 10 1 1 (1000)
I0416 21:28:38.472548 31012 net.cpp:129] Top shape: 100 10 1 1 (1000)
I0416 21:28:38.472548 31012 net.cpp:129] Top shape: 100 10 1 1 (1000)
I0416 21:28:38.472548 31012 net.cpp:137] Memory required for data: 75942400
I0416 21:28:38.472548 31012 layer_factory.cpp:58] Creating layer loss
I0416 21:28:38.472548 31012 net.cpp:84] Creating Layer loss
I0416 21:28:38.472548 31012 net.cpp:406] loss <- pool10_pool10_0_split_0
I0416 21:28:38.472548 31012 net.cpp:406] loss <- label_data_1_split_0
I0416 21:28:38.472548 31012 net.cpp:380] loss -> loss
…
I0416 21:28:53.229318 31472 net.cpp:294] The NetState phase (0) differed from the phase (1) specified by a rule in layer data
I0416 21:28:53.229318 31472 net.cpp:51] Initializing net from parameters: 
state {
  phase: TRAIN
  level: 0
  stage: ""
}
layer {
  name: "data"
  type: "Data"
  top: "data"
  top: "label"
  include {
    phase: TRAIN
  }
  transform_param {
    mirror: true
    mean_file: "D:/ML/COMP551/Project4/models/cifar10/mean_file/mean.binaryproto"
  }
  data_param {
    source: "D:/ML/COMP551/Project4/models/cifar10/cifar10_train_leveldb"
    batch_size: 100
    backend: LEVELDB
  }
}
layer {
  name: "conv1"
  type: "Convolution"
  bottom: "data"
  top: "conv1"
  convolution_param {
    num_output: 96
    kernel_size: 7
    stride: 2
    weight_filler {
      type: "xavier"
    }
  }
}
layer {
  name: "relu_conv1"
  type: "ReLU"
  bottom: "conv1"
  top: "conv1"
}
layer {
  name: "pool1"
  type: "Pooling"
  bottom: "conv1"
  top: "pool1"
  pooling_param {
    pool: MAX
    kernel_size: 3
    stride: 2
  }
}
layer {
  name: "fire2/squeeze1x1"
  type: "Convolution"
  bottom: "pool1"
  top: "fire2/squeeze1x1"
  convolution_param {
    num_output: 16
    kernel_size: 1
    weight_filler {
      type: "xavier"
    }
  }
}
layer {
  name: "fire2/relu_squeeze1x1"
  type: "ReLU"
  bottom: "fire2/squeeze1x1"
  top: "fire2/squeeze1x1"
}
layer {
  name: "fire2/expand1x1"
  type: "Convolution"
  bottom: "fire2/squeeze1x1"
  top: "fire2/expand1x1"
  convolution_param {
    num_output: 64
    kernel_size: 1
    weight_filler {
      type: "xavier"
    }
  }
}
layer {
  name: "fire2/relu_expand1x1"
  type: "ReLU"
  bottom: "fire2/expand1x1"
  top: "fire2/expand1x1"
}
layer {
  name: "fire2/expand3x3"
  type: "Convolution"
  bottom: "fire2/squeeze1x1"
  top: "fire2/expand3x3"
  convolution_param {
    num_output: 64
    pad: 1
    kernel_size: 3
    weight_filler {
      type: "xavier"
    }
  }
}
layer {
  name: "fire2/relu_expand3x3"
  type: "ReLU"
  bottom: "fire2/expand3x3"
  top: "fire2/expand3x3"
}
layer {
  name: "fire2/concat"
  type: "Concat"
  bottom: "fire2/expand1x1"
  bottom: "fire2/expand3x3"
  top: "fire2/concat"
}
layer {
  name: "fire3/squeeze1x1"
  type: "Convolution"
  bottom: "fire2/concat"
  top: "fire3/squeeze1x1"
  convolution_param {
    num_output: 16
    kernel_size: 1
    weight_filler {
      type: "xavier"
    }
  }
}
layer {
  name: "fire3/relu_squeeze1x1"
  type: "ReLU"
  bottom: "fire3/squeeze1x1"
  top: "fire3/squeeze1x1"
}
layer {
  name: "fire3/expand1x1"
  type: "Convolution"
  bottom: "fire3/squeeze1x1"
  top: "fire3/expand1x1"
  convolution_param {
    num_output: 64
    kernel_size: 1
    weight_filler {
      type: "xavier"
    }
  }
}
layer {
  name: "fire3/relu_expand1x1"
  type: "ReLU"
  bottom: "fire3/expand1x1"
  top: "fire3/expand1x1"
}
layer {
  name: "fire3/expand3x3"
  type: "Convolution"
  bottom: "fire3/squeeze1x1"
  top: "fire3/expand3x3"
  convolution_param {
    num_output: 64
    pad: 1
    kernel_size: 3
    weight_filler {
      type: "xavier"
    }
  }
}
layer {
  name: "fire3/relu_expand3x3"
  type: "ReLU"
  bottom: "fire3/expand3x3"
  top: "fire3/expand3x3"
}
layer {
  name: "fire3/concat"
  type: "Concat"
  bottom: "fire3/expand1x1"
  bottom: "fire3/expand3x3"
  top: "fire3/concat"
}
layer {
  name: "bypass_23"
  type: "Eltwise"
  bottom: "fire2/concat"
  bottom: "fire3/concat"
  top: "fire3_EltAdd"
}
layer {
  name: "fire4/squeeze1x1"
  type: "Convolution"
  bottom: "fire3_EltAdd"
  top: "fire4/squeeze1x1"
  convolution_param {
    num_output: 32
    kernel_size: 1
    weight_filler {
      type: "xavier"
    }
  }
}
layer {
  name: "fire4/relu_squeeze1x1"
  type: "ReLU"
  bottom: "fire4/squeeze1x1"
  top: "fire4/squeeze1x1"
}
layer {
  name: "fire4/expand1x1"
  type: "Convolution"
  bottom: "fire4/squeeze1x1"
  top: "fire4/expand1x1"
  convolution_param {
    num_output: 128
    kernel_size: 1
    weight_filler {
      type: "xavier"
    }
  }
}
layer {
  name: "fire4/relu_expand1x1"
  type: "ReLU"
  bottom: "fire4/expand1x1"
  top: "fire4/expand1x1"
}
layer {
  name: "fire4/expand3x3"
  type: "Convolution"
  bottom: "fire4/squeeze1x1"
  top: "fire4/expand3x3"
  convolution_param {
    num_output: 128
    pad: 1
    kernel_size: 3
    weight_filler {
      type: "xavier"
    }
  }
}
layer {
  name: "fire4/relu_expand3x3"
  type: "ReLU"
  bottom: "fire4/expand3x3"
  top: "fire4/expand3x3"
}
layer {
  name: "fire4/concat"
  type: "Concat"
  bottom: "fire4/expand1x1"
  bottom: "fire4/expand3x3"
  top: "fire4/concat"
}
layer {
  name: "pool4"
  type: "Pooling"
  bottom: "fire4/concat"
  top: "pool4"
  pooling_param {
    pool: MAX
    kernel_size: 3
    stride: 2
  }
}
layer {
  name: "fire5/squeeze1x1"
  type: "Convolution"
  bottom: "pool4"
  top: "fire5/squeeze1x1"
  convolution_param {
    num_output: 32
    kernel_size: 1
    weight_filler {
      type: "xavier"
    }
  }
}
layer {
  name: "fire5/relu_squeeze1x1"
  type: "ReLU"
  bottom: "fire5/squeeze1x1"
  top: "fire5/squeeze1x1"
}
layer {
  name: "fire5/expand1x1"
  type: "Convolution"
  bottom: "fire5/squeeze1x1"
  top: "fire5/expand1x1"
  convolution_param {
    num_output: 128
    kernel_size: 1
    weight_filler {
      type: "xavier"
    }
  }
}
layer {
  name: "fire5/relu_expand1x1"
  type: "ReLU"
  bottom: "fire5/expand1x1"
  top: "fire5/expand1x1"
}
layer {
  name: "fire5/expand3x3"
  type: "Convolution"
  bottom: "fire5/squeeze1x1"
  top: "fire5/expand3x3"
  convolution_param {
    num_output: 128
    pad: 1
    kernel_size: 3
    weight_filler {
      type: "xavier"
    }
  }
}
layer {
  name: "fire5/relu_expand3x3"
  type: "ReLU"
  bottom: "fire5/expand3x3"
  top: "fire5/expand3x3"
}
layer {
  name: "fire5/concat"
  type: "Concat"
  bottom: "fire5/expand1x1"
  bottom: "fire5/expand3x3"
  top: "fire5/concat"
}
layer {
  name: "bypass_45"
  type: "Eltwise"
  bottom: "pool4"
  bottom: "fire5/concat"
  top: "fire5_EltAdd"
}
layer {
  name: "fire6/squeeze1x1"
  type: "Convolution"
  bottom: "fire5_EltAdd"
  top: "fire6/squeeze1x1"
  convolution_param {
    num_output: 48
    kernel_size: 1
    weight_filler {
      type: "xavier"
    }
  }
}
layer {
  name: "fire6/relu_squeeze1x1"
  type: "ReLU"
  bottom: "fire6/squeeze1x1"
  top: "fire6/squeeze1x1"
}
layer {
  name: "fire6/expand1x1"
  type: "Convolution"
  bottom: "fire6/squeeze1x1"
  top: "fire6/expand1x1"
  convolution_param {
    num_output: 192
    kernel_size: 1
    weight_filler {
      type: "xavier"
    }
  }
}
layer {
  name: "fire6/relu_expand1x1"
  type: "ReLU"
  bottom: "fire6/expand1x1"
  top: "fire6/expand1x1"
}
layer {
  name: "fire6/expand3x3"
  type: "Convolution"
  bottom: "fire6/squeeze1x1"
  top: "fire6/expand3x3"
  convolution_param {
    num_output: 192
    pad: 1
    kernel_size: 3
    weight_filler {
      type: "xavier"
    }
  }
}
layer {
  name: "fire6/relu_expand3x3"
  type: "ReLU"
  bottom: "fire6/expand3x3"
  top: "fire6/expand3x3"
}
layer {
  name: "fire6/concat"
  type: "Concat"
  bottom: "fire6/expand1x1"
  bottom: "fire6/expand3x3"
  top: "fire6/concat"
}
layer {
  name: "fire7/squeeze1x1"
  type: "Convolution"
  bottom: "fire6/concat"
  top: "fire7/squeeze1x1"
  convolution_param {
    num_output: 48
    kernel_size: 1
    weight_filler {
      type: "xavier"
    }
  }
}
layer {
  name: "fire7/relu_squeeze1x1"
  type: "ReLU"
  bottom: "fire7/squeeze1x1"
  top: "fire7/squeeze1x1"
}
layer {
  name: "fire7/expand1x1"
  type: "Convolution"
  bottom: "fire7/squeeze1x1"
  top: "fire7/expand1x1"
  convolution_param {
    num_output: 192
    kernel_size: 1
    weight_filler {
      type: "xavier"
    }
  }
}
layer {
  name: "fire7/relu_expand1x1"
  type: "ReLU"
  bottom: "fire7/expand1x1"
  top: "fire7/expand1x1"
}
layer {
  name: "fire7/expand3x3"
  type: "Convolution"
  bottom: "fire7/squeeze1x1"
  top: "fire7/expand3x3"
  convolution_param {
    num_output: 192
    pad: 1
    kernel_size: 3
    weight_filler {
      type: "xavier"
    }
  }
}
layer {
  name: "fire7/relu_expand3x3"
  type: "ReLU"
  bottom: "fire7/expand3x3"
  top: "fire7/expand3x3"
}
layer {
  name: "fire7/concat"
  type: "Concat"
  bottom: "fire7/expand1x1"
  bottom: "fire7/expand3x3"
  top: "fire7/concat"
}
layer {
  name: "bypass_67"
  type: "Eltwise"
  bottom: "fire6/concat"
  bottom: "fire7/concat"
  top: "fire7_EltAdd"
}
layer {
  name: "fire8/squeeze1x1"
  type: "Convolution"
  bottom: "fire7_EltAdd"
  top: "fire8/squeeze1x1"
  convolution_param {
    num_output: 64
    kernel_size: 1
    weight_filler {
      type: "xavier"
    }
  }
}
layer {
  name: "fire8/relu_squeeze1x1"
  type: "ReLU"
  bottom: "fire8/squeeze1x1"
  top: "fire8/squeeze1x1"
}
layer {
  name: "fire8/expand1x1"
  type: "Convolution"
  bottom: "fire8/squeeze1x1"
  top: "fire8/expand1x1"
  convolution_param {
    num_output: 256
    kernel_size: 1
    weight_filler {
      type: "xavier"
    }
  }
}
layer {
  name: "fire8/relu_expand1x1"
  type: "ReLU"
  bottom: "fire8/expand1x1"
  top: "fire8/expand1x1"
}
layer {
  name: "fire8/expand3x3"
  type: "Convolution"
  bottom: "fire8/squeeze1x1"
  top: "fire8/expand3x3"
  convolution_param {
    num_output: 256
    pad: 1
    kernel_size: 3
    weight_filler {
      type: "xavier"
    }
  }
}
layer {
  name: "fire8/relu_expand3x3"
  type: "ReLU"
  bottom: "fire8/expand3x3"
  top: "fire8/expand3x3"
}
layer {
  name: "fire8/concat"
  type: "Concat"
  bottom: "fire8/expand1x1"
  bottom: "fire8/expand3x3"
  top: "fire8/concat"
}
layer {
  name: "pool8"
  type: "Pooling"
  bottom: "fire8/concat"
  top: "pool8"
  pooling_param {
    pool: MAX
    kernel_size: 3
    stride: 2
  }
}
layer {
  name: "fire9/squeeze1x1"
  type: "Convolution"
  bottom: "pool8"
  top: "fire9/squeeze1x1"
  convolution_param {
    num_output: 64
    kernel_size: 1
    weight_filler {
      type: "xavier"
    }
  }
}
layer {
  name: "fire9/relu_squeeze1x1"
  type: "ReLU"
  bottom: "fire9/squeeze1x1"
  top: "fire9/squeeze1x1"
}
layer {
  name: "fire9/expand1x1"
  type: "Convolution"
  bottom: "fire9/squeeze1x1"
  top: "fire9/expand1x1"
  convolution_param {
    num_output: 256
    kernel_size: 1
    weight_filler {
      type: "xavier"
    }
  }
}
layer {
  name: "fire9/relu_expand1x1"
  type: "ReLU"
  bottom: "fire9/expand1x1"
  top: "fire9/expand1x1"
}
layer {
  name: "fire9/expand3x3"
  type: "Convolution"
  bottom: "fire9/squeeze1x1"
  top: "fire9/expand3x3"
  convolution_param {
    num_output: 256
    pad: 1
    kernel_size: 3
    weight_filler {
      type: "xavier"
    }
  }
}
layer {
  name: "fire9/relu_expand3x3"
  type: "ReLU"
  bottom: "fire9/expand3x3"
  top: "fire9/expand3x3"
}
layer {
  name: "fire9/concat"
  type: "Concat"
  bottom: "fire9/expand1x1"
  bottom: "fire9/expand3x3"
  top: "fire9/concat"
}
layer {
  name: "bypass_89"
  type: "Eltwise"
  bottom: "pool8"
  bottom: "fire9/concat"
  top: "fire9_EltAdd"
}
layer {
  name: "drop9"
  type: "Dropout"
  bottom: "fire9_EltAdd"
  top: "fire9_EltAdd"
  dropout_param {
    dropout_ratio: 0.5
  }
}
layer {
  name: "conv10_modified"
  type: "Convolution"
  bottom: "fire9_EltAdd"
  top: "conv10"
  convolution_param {
    num_output: 10
    pad: 1
    kernel_size: 1
    weight_filler {
      type: "gaussian"
      mean: 0
      std: 0.01
    }
  }
}
layer {
  name: "relu_conv10"
  type: "ReLU"
  bottom: "conv10"
  top: "conv10"
}
layer {
  name: "pool10"
  type: "Pooling"
  bottom: "conv10"
  top: "pool10"
  pooling_param {
    pool: AVE
    global_pooling: true
  }
}
layer {
  name: "loss"
  type: "SoftmaxWithLoss"
  bottom: "pool10"
  bottom: "label"
  top: "loss"
  include {
  }
}
layer {
  name: "accuracy_top1"
  type: "Accuracy"
  bottom: "pool10"
  bottom: "label"
  top: "accuracy_top1"
  include {
  }
  accuracy_param {
    top_k: 1
  }
}
layer {
  name: "accuracy_top5"
  type: "Accuracy"
  bottom: "pool10"
  bottom: "label"
  top: "accuracy_top5"
  include {
  }
  accuracy_param {
    top_k: 5
  }
}
I0416 21:28:53.232412 31472 layer_factory.cpp:58] Creating layer data
I0416 21:28:53.238348 31472 db_leveldb.cpp:18] Opened leveldb D:/ML/COMP551/Project4/models/cifar10/cifar10_train_leveldb
I0416 21:28:53.239346 31472 net.cpp:84] Creating Layer data
I0416 21:28:53.239346 31472 net.cpp:380] data -> data
I0416 21:28:53.239346 31472 net.cpp:380] data -> label
I0416 21:28:53.239346 31472 data_transformer.cpp:25] Loading mean file from: D:/ML/COMP551/Project4/models/cifar10/mean_file/mean.binaryproto
I0416 21:28:53.240370 31472 common.cpp:36] System entropy source not available, using fallback algorithm to generate seed instead.
I0416 21:28:53.240370 31472 data_layer.cpp:45] output data size: 100,3,32,32
I0416 21:28:53.246330 31472 net.cpp:122] Setting up data
I0416 21:28:53.246330 31472 net.cpp:129] Top shape: 100 3 32 32 (307200)
I0416 21:28:53.246330 31472 net.cpp:129] Top shape: 100 (100)
I0416 21:28:53.246330 31472 net.cpp:137] Memory required for data: 1229200
I0416 21:28:53.246330 31472 layer_factory.cpp:58] Creating layer label_data_1_split
I0416 21:28:53.246330 31472 net.cpp:84] Creating Layer label_data_1_split
I0416 21:28:53.246330 31472 net.cpp:406] label_data_1_split <- label
I0416 21:28:53.246330 31472 net.cpp:380] label_data_1_split -> label_data_1_split_0
I0416 21:28:53.246330 31472 net.cpp:380] label_data_1_split -> label_data_1_split_1
I0416 21:28:53.246330 31472 net.cpp:380] label_data_1_split -> label_data_1_split_2
I0416 21:28:53.246330 31472 net.cpp:122] Setting up label_data_1_split
I0416 21:28:53.246330 31472 net.cpp:129] Top shape: 100 (100)
I0416 21:28:53.246330 31472 net.cpp:129] Top shape: 100 (100)
I0416 21:28:53.246330 31472 net.cpp:129] Top shape: 100 (100)
I0416 21:28:53.246330 31472 net.cpp:137] Memory required for data: 1230400
I0416 21:28:53.246330 31472 layer_factory.cpp:58] Creating layer conv1
I0416 21:28:53.246330 31472 net.cpp:84] Creating Layer conv1
I0416 21:28:53.246330 31472 net.cpp:406] conv1 <- data
I0416 21:28:53.246330 31472 net.cpp:380] conv1 -> conv1
I0416 21:28:53.247388 34856 common.cpp:36] System entropy source not available, using fallback algorithm to generate seed instead.
I0416 21:28:54.382889 31472 net.cpp:122] Setting up conv1
I0416 21:28:54.382889 31472 net.cpp:129] Top shape: 100 96 13 13 (1622400)
I0416 21:28:54.382889 31472 net.cpp:137] Memory required for data: 7720000
I0416 21:28:54.382889 31472 layer_factory.cpp:58] Creating layer relu_conv1
I0416 21:28:54.382889 31472 net.cpp:84] Creating Layer relu_conv1
I0416 21:28:54.382889 31472 net.cpp:406] relu_conv1 <- conv1
I0416 21:28:54.382889 31472 net.cpp:367] relu_conv1 -> conv1 (in-place)
I0416 21:28:54.384379 31472 net.cpp:122] Setting up relu_conv1
I0416 21:28:54.384379 31472 net.cpp:129] Top shape: 100 96 13 13 (1622400)
I0416 21:28:54.384379 31472 net.cpp:137] Memory required for data: 14209600
I0416 21:28:54.384379 31472 layer_factory.cpp:58] Creating layer pool1
I0416 21:28:54.384379 31472 net.cpp:84] Creating Layer pool1
I0416 21:28:54.384379 31472 net.cpp:406] pool1 <- conv1
I0416 21:28:54.384379 31472 net.cpp:380] pool1 -> pool1
I0416 21:28:54.384896 31472 net.cpp:122] Setting up pool1
I0416 21:28:54.384896 31472 net.cpp:129] Top shape: 100 96 6 6 (345600)
I0416 21:28:54.384896 31472 net.cpp:137] Memory required for data: 15592000
I0416 21:28:54.384896 31472 layer_factory.cpp:58] Creating layer fire2/squeeze1x1
I0416 21:28:54.384896 31472 net.cpp:84] Creating Layer fire2/squeeze1x1
I0416 21:28:54.384896 31472 net.cpp:406] fire2/squeeze1x1 <- pool1
I0416 21:28:54.384896 31472 net.cpp:380] fire2/squeeze1x1 -> fire2/squeeze1x1
I0416 21:28:54.387408 31472 net.cpp:122] Setting up fire2/squeeze1x1
I0416 21:28:54.387408 31472 net.cpp:129] Top shape: 100 16 6 6 (57600)
I0416 21:28:54.387408 31472 net.cpp:137] Memory required for data: 15822400
I0416 21:28:54.387408 31472 layer_factory.cpp:58] Creating layer fire2/relu_squeeze1x1
I0416 21:28:54.387887 31472 net.cpp:84] Creating Layer fire2/relu_squeeze1x1
I0416 21:28:54.387887 31472 net.cpp:406] fire2/relu_squeeze1x1 <- fire2/squeeze1x1
I0416 21:28:54.387887 31472 net.cpp:367] fire2/relu_squeeze1x1 -> fire2/squeeze1x1 (in-place)
I0416 21:28:54.387887 31472 net.cpp:122] Setting up fire2/relu_squeeze1x1
I0416 21:28:54.387887 31472 net.cpp:129] Top shape: 100 16 6 6 (57600)
I0416 21:28:54.387887 31472 net.cpp:137] Memory required for data: 16052800
I0416 21:28:54.387887 31472 layer_factory.cpp:58] Creating layer fire2/squeeze1x1_fire2/relu_squeeze1x1_0_split
I0416 21:28:54.387887 31472 net.cpp:84] Creating Layer fire2/squeeze1x1_fire2/relu_squeeze1x1_0_split
I0416 21:28:54.387887 31472 net.cpp:406] fire2/squeeze1x1_fire2/relu_squeeze1x1_0_split <- fire2/squeeze1x1
I0416 21:28:54.387887 31472 net.cpp:380] fire2/squeeze1x1_fire2/relu_squeeze1x1_0_split -> fire2/squeeze1x1_fire2/relu_squeeze1x1_0_split_0
I0416 21:28:54.387887 31472 net.cpp:380] fire2/squeeze1x1_fire2/relu_squeeze1x1_0_split -> fire2/squeeze1x1_fire2/relu_squeeze1x1_0_split_1
I0416 21:28:54.387887 31472 net.cpp:122] Setting up fire2/squeeze1x1_fire2/relu_squeeze1x1_0_split
I0416 21:28:54.387887 31472 net.cpp:129] Top shape: 100 16 6 6 (57600)
I0416 21:28:54.387887 31472 net.cpp:129] Top shape: 100 16 6 6 (57600)
I0416 21:28:54.387887 31472 net.cpp:137] Memory required for data: 16513600
I0416 21:28:54.387887 31472 layer_factory.cpp:58] Creating layer fire2/expand1x1
I0416 21:28:54.387887 31472 net.cpp:84] Creating Layer fire2/expand1x1
I0416 21:28:54.387887 31472 net.cpp:406] fire2/expand1x1 <- fire2/squeeze1x1_fire2/relu_squeeze1x1_0_split_0
I0416 21:28:54.387887 31472 net.cpp:380] fire2/expand1x1 -> fire2/expand1x1
…
