…
I0416 23:13:53.237471 22456 net.cpp:294] The NetState phase (0) differed from the phase (1) specified by a rule in layer data
I0416 23:13:53.238461 22456 net.cpp:51] Initializing net from parameters: 
name: "FireNet"
state {
  phase: TRAIN
  level: 0
  stage: ""
}
layer {
  name: "data"
  type: "Data"
  top: "data"
  top: "label"
  include {
    phase: TRAIN
  }
  transform_param {
    mirror: true
    mean_file: "D:/ML/COMP551/Project4/models/cifar10/mean_file/mean.binaryproto"
  }
  data_param {
    source: "D:/ML/COMP551/Project4/models/cifar10/cifar10_train_leveldb"
    batch_size: 100
    backend: LEVELDB
  }
}
layer {
  name: "conv1"
  type: "Convolution"
  bottom: "data"
  top: "conv1"
  convolution_param {
    num_output: 96
    kernel_size: 7
    stride: 2
    weight_filler {
      type: "xavier"
    }
  }
}
layer {
  name: "relu_conv1"
  type: "ReLU"
  bottom: "conv1"
  top: "conv1"
}
layer {
  name: "pool1"
  type: "Pooling"
  bottom: "conv1"
  top: "pool1"
  pooling_param {
    pool: MAX
    kernel_size: 3
    stride: 2
  }
}
layer {
  name: "fire2/conv1x1_1"
  type: "Convolution"
  bottom: "pool1"
  top: "fire2/conv1x1_1"
  convolution_param {
    num_output: 16
    kernel_size: 1
    weight_filler {
      type: "xavier"
    }
  }
}
layer {
  name: "fire2/relu_conv1x1_1"
  type: "ReLU"
  bottom: "fire2/conv1x1_1"
  top: "fire2/conv1x1_1"
}
layer {
  name: "fire2/conv1x1_2"
  type: "Convolution"
  bottom: "fire2/conv1x1_1"
  top: "fire2/conv1x1_2"
  convolution_param {
    num_output: 64
    kernel_size: 1
    weight_filler {
      type: "xavier"
    }
  }
}
layer {
  name: "fire2/relu_conv1x1_2"
  type: "ReLU"
  bottom: "fire2/conv1x1_2"
  top: "fire2/conv1x1_2"
}
layer {
  name: "fire2/conv3x3_2"
  type: "Convolution"
  bottom: "fire2/conv1x1_1"
  top: "fire2/conv3x3_2"
  convolution_param {
    num_output: 64
    pad: 1
    kernel_size: 3
    weight_filler {
      type: "xavier"
    }
  }
}
layer {
  name: "fire2/relu_conv3x3_2"
  type: "ReLU"
  bottom: "fire2/conv3x3_2"
  top: "fire2/conv3x3_2"
}
layer {
  name: "fire2/concat"
  type: "Concat"
  bottom: "fire2/conv1x1_2"
  bottom: "fire2/conv3x3_2"
  top: "fire2/concat"
}
layer {
  name: "fire3/conv1x1_1"
  type: "Convolution"
  bottom: "fire2/concat"
  top: "fire3/conv1x1_1"
  convolution_param {
    num_output: 16
    kernel_size: 1
    weight_filler {
      type: "xavier"
    }
  }
}
layer {
  name: "fire3/relu_conv1x1_1"
  type: "ReLU"
  bottom: "fire3/conv1x1_1"
  top: "fire3/conv1x1_1"
}
layer {
  name: "fire3/conv1x1_2"
  type: "Convolution"
  bottom: "fire3/conv1x1_1"
  top: "fire3/conv1x1_2"
  convolution_param {
    num_output: 64
    kernel_size: 1
    weight_filler {
      type: "xavier"
    }
  }
}
layer {
  name: "fire3/relu_conv1x1_2"
  type: "ReLU"
  bottom: "fire3/conv1x1_2"
  top: "fire3/conv1x1_2"
}
layer {
  name: "fire3/conv3x3_2"
  type: "Convolution"
  bottom: "fire3/conv1x1_1"
  top: "fire3/conv3x3_2"
  convolution_param {
    num_output: 64
    pad: 1
    kernel_size: 3
    weight_filler {
      type: "xavier"
    }
  }
}
layer {
  name: "fire3/relu_conv3x3_2"
  type: "ReLU"
  bottom: "fire3/conv3x3_2"
  top: "fire3/conv3x3_2"
}
layer {
  name: "fire3/concat"
  type: "Concat"
  bottom: "fire3/conv1x1_2"
  bottom: "fire3/conv3x3_2"
  top: "fire3/concat"
}
layer {
  name: "fire4/conv1x1_1"
  type: "Convolution"
  bottom: "fire3/concat"
  top: "fire4/conv1x1_1"
  convolution_param {
    num_output: 32
    kernel_size: 1
    weight_filler {
      type: "xavier"
    }
  }
}
layer {
  name: "fire4/relu_conv1x1_1"
  type: "ReLU"
  bottom: "fire4/conv1x1_1"
  top: "fire4/conv1x1_1"
}
layer {
  name: "fire4/conv1x1_2"
  type: "Convolution"
  bottom: "fire4/conv1x1_1"
  top: "fire4/conv1x1_2"
  convolution_param {
    num_output: 128
    kernel_size: 1
    weight_filler {
      type: "xavier"
    }
  }
}
layer {
  name: "fire4/relu_conv1x1_2"
  type: "ReLU"
  bottom: "fire4/conv1x1_2"
  top: "fire4/conv1x1_2"
}
layer {
  name: "fire4/conv3x3_2"
  type: "Convolution"
  bottom: "fire4/conv1x1_1"
  top: "fire4/conv3x3_2"
  convolution_param {
    num_output: 128
    pad: 1
    kernel_size: 3
    weight_filler {
      type: "xavier"
    }
  }
}
layer {
  name: "fire4/relu_conv3x3_2"
  type: "ReLU"
  bottom: "fire4/conv3x3_2"
  top: "fire4/conv3x3_2"
}
layer {
  name: "fire4/concat"
  type: "Concat"
  bottom: "fire4/conv1x1_2"
  bottom: "fire4/conv3x3_2"
  top: "fire4/concat"
}
layer {
  name: "pool4"
  type: "Pooling"
  bottom: "fire4/concat"
  top: "pool4"
  pooling_param {
    pool: MAX
    kernel_size: 3
    stride: 2
  }
}
layer {
  name: "fire5/conv1x1_1"
  type: "Convolution"
  bottom: "pool4"
  top: "fire5/conv1x1_1"
  convolution_param {
    num_output: 32
    kernel_size: 1
    weight_filler {
      type: "xavier"
    }
  }
}
layer {
  name: "fire5/relu_conv1x1_1"
  type: "ReLU"
  bottom: "fire5/conv1x1_1"
  top: "fire5/conv1x1_1"
}
layer {
  name: "fire5/conv1x1_2"
  type: "Convolution"
  bottom: "fire5/conv1x1_1"
  top: "fire5/conv1x1_2"
  convolution_param {
    num_output: 128
    kernel_size: 1
    weight_filler {
      type: "xavier"
    }
  }
}
layer {
  name: "fire5/relu_conv1x1_2"
  type: "ReLU"
  bottom: "fire5/conv1x1_2"
  top: "fire5/conv1x1_2"
}
layer {
  name: "fire5/conv3x3_2"
  type: "Convolution"
  bottom: "fire5/conv1x1_1"
  top: "fire5/conv3x3_2"
  convolution_param {
    num_output: 128
    pad: 1
    kernel_size: 3
    weight_filler {
      type: "xavier"
    }
  }
}
layer {
  name: "fire5/relu_conv3x3_2"
  type: "ReLU"
  bottom: "fire5/conv3x3_2"
  top: "fire5/conv3x3_2"
}
layer {
  name: "fire5/concat"
  type: "Concat"
  bottom: "fire5/conv1x1_2"
  bottom: "fire5/conv3x3_2"
  top: "fire5/concat"
}
layer {
  name: "fire6/conv1x1_1"
  type: "Convolution"
  bottom: "fire5/concat"
  top: "fire6/conv1x1_1"
  convolution_param {
    num_output: 48
    kernel_size: 1
    weight_filler {
      type: "xavier"
    }
  }
}
layer {
  name: "fire6/relu_conv1x1_1"
  type: "ReLU"
  bottom: "fire6/conv1x1_1"
  top: "fire6/conv1x1_1"
}
layer {
  name: "fire6/conv1x1_2"
  type: "Convolution"
  bottom: "fire6/conv1x1_1"
  top: "fire6/conv1x1_2"
  convolution_param {
    num_output: 192
    kernel_size: 1
    weight_filler {
      type: "xavier"
    }
  }
}
layer {
  name: "fire6/relu_conv1x1_2"
  type: "ReLU"
  bottom: "fire6/conv1x1_2"
  top: "fire6/conv1x1_2"
}
layer {
  name: "fire6/conv3x3_2"
  type: "Convolution"
  bottom: "fire6/conv1x1_1"
  top: "fire6/conv3x3_2"
  convolution_param {
    num_output: 192
    pad: 1
    kernel_size: 3
    weight_filler {
      type: "xavier"
    }
  }
}
layer {
  name: "fire6/relu_conv3x3_2"
  type: "ReLU"
  bottom: "fire6/conv3x3_2"
  top: "fire6/conv3x3_2"
}
layer {
  name: "fire6/concat"
  type: "Concat"
  bottom: "fire6/conv1x1_2"
  bottom: "fire6/conv3x3_2"
  top: "fire6/concat"
}
layer {
  name: "fire7/conv1x1_1"
  type: "Convolution"
  bottom: "fire6/concat"
  top: "fire7/conv1x1_1"
  convolution_param {
    num_output: 48
    kernel_size: 1
    weight_filler {
      type: "xavier"
    }
  }
}
layer {
  name: "fire7/relu_conv1x1_1"
  type: "ReLU"
  bottom: "fire7/conv1x1_1"
  top: "fire7/conv1x1_1"
}
layer {
  name: "fire7/conv1x1_2"
  type: "Convolution"
  bottom: "fire7/conv1x1_1"
  top: "fire7/conv1x1_2"
  convolution_param {
    num_output: 192
    kernel_size: 1
    weight_filler {
      type: "xavier"
    }
  }
}
layer {
  name: "fire7/relu_conv1x1_2"
  type: "ReLU"
  bottom: "fire7/conv1x1_2"
  top: "fire7/conv1x1_2"
}
layer {
  name: "fire7/conv3x3_2"
  type: "Convolution"
  bottom: "fire7/conv1x1_1"
  top: "fire7/conv3x3_2"
  convolution_param {
    num_output: 192
    pad: 1
    kernel_size: 3
    weight_filler {
      type: "xavier"
    }
  }
}
layer {
  name: "fire7/relu_conv3x3_2"
  type: "ReLU"
  bottom: "fire7/conv3x3_2"
  top: "fire7/conv3x3_2"
}
layer {
  name: "fire7/concat"
  type: "Concat"
  bottom: "fire7/conv1x1_2"
  bottom: "fire7/conv3x3_2"
  top: "fire7/concat"
}
layer {
  name: "fire8/conv1x1_1"
  type: "Convolution"
  bottom: "fire7/concat"
  top: "fire8/conv1x1_1"
  convolution_param {
    num_output: 64
    kernel_size: 1
    weight_filler {
      type: "xavier"
    }
  }
}
layer {
  name: "fire8/relu_conv1x1_1"
  type: "ReLU"
  bottom: "fire8/conv1x1_1"
  top: "fire8/conv1x1_1"
}
layer {
  name: "fire8/conv1x1_2"
  type: "Convolution"
  bottom: "fire8/conv1x1_1"
  top: "fire8/conv1x1_2"
  convolution_param {
    num_output: 256
    kernel_size: 1
    weight_filler {
      type: "xavier"
    }
  }
}
layer {
  name: "fire8/relu_conv1x1_2"
  type: "ReLU"
  bottom: "fire8/conv1x1_2"
  top: "fire8/conv1x1_2"
}
layer {
  name: "fire8/conv3x3_2"
  type: "Convolution"
  bottom: "fire8/conv1x1_1"
  top: "fire8/conv3x3_2"
  convolution_param {
    num_output: 256
    pad: 1
    kernel_size: 3
    weight_filler {
      type: "xavier"
    }
  }
}
layer {
  name: "fire8/relu_conv3x3_2"
  type: "ReLU"
  bottom: "fire8/conv3x3_2"
  top: "fire8/conv3x3_2"
}
layer {
  name: "fire8/concat"
  type: "Concat"
  bottom: "fire8/conv1x1_2"
  bottom: "fire8/conv3x3_2"
  top: "fire8/concat"
}
layer {
  name: "pool8"
  type: "Pooling"
  bottom: "fire8/concat"
  top: "pool8"
  pooling_param {
    pool: MAX
    kernel_size: 3
    stride: 2
  }
}
layer {
  name: "fire9/conv1x1_1"
  type: "Convolution"
  bottom: "pool8"
  top: "fire9/conv1x1_1"
  convolution_param {
    num_output: 64
    kernel_size: 1
    weight_filler {
      type: "xavier"
    }
  }
}
layer {
  name: "fire9/relu_conv1x1_1"
  type: "ReLU"
  bottom: "fire9/conv1x1_1"
  top: "fire9/conv1x1_1"
}
layer {
  name: "fire9/conv1x1_2"
  type: "Convolution"
  bottom: "fire9/conv1x1_1"
  top: "fire9/conv1x1_2"
  convolution_param {
    num_output: 256
    kernel_size: 1
    weight_filler {
      type: "xavier"
    }
  }
}
layer {
  name: "fire9/relu_conv1x1_2"
  type: "ReLU"
  bottom: "fire9/conv1x1_2"
  top: "fire9/conv1x1_2"
}
layer {
  name: "fire9/conv3x3_2"
  type: "Convolution"
  bottom: "fire9/conv1x1_1"
  top: "fire9/conv3x3_2"
  convolution_param {
    num_output: 256
    pad: 1
    kernel_size: 3
    weight_filler {
      type: "xavier"
    }
  }
}
layer {
  name: "fire9/relu_conv3x3_2"
  type: "ReLU"
  bottom: "fire9/conv3x3_2"
  top: "fire9/conv3x3_2"
}
layer {
  name: "fire9/concat"
  type: "Concat"
  bottom: "fire9/conv1x1_2"
  bottom: "fire9/conv3x3_2"
  top: "fire9/concat"
}
layer {
  name: "drop9"
  type: "Dropout"
  bottom: "fire9/concat"
  top: "fire9/concat"
  dropout_param {
    dropout_ratio: 0.5
  }
}
layer {
  name: "conv_final_modified"
  type: "Convolution"
  bottom: "fire9/concat"
  top: "conv_final"
  convolution_param {
    num_output: 10
    pad: 1
    kernel_size: 1
    weight_filler {
      type: "gaussian"
      mean: 0
      std: 0.01
    }
  }
}
layer {
  name: "relu_conv_final"
  type: "ReLU"
  bottom: "conv_final"
  top: "conv_final"
}
layer {
  name: "pool_final"
  type: "Pooling"
  bottom: "conv_final"
  top: "pool_final"
  pooling_param {
    pool: AVE
    global_pooling: true
  }
}
layer {
  name: "loss"
  type: "SoftmaxWithLoss"
  bottom: "pool_final"
  bottom: "label"
  top: "loss"
  include {
  }
}
layer {
  name: "accuracy_top1"
  type: "Accuracy"
  bottom: "pool_final"
  bottom: "label"
  top: "accuracy_top1"
  include {
  }
  accuracy_param {
    top_k: 1
  }
}
layer {
  name: "accuracy_top5"
  type: "Accuracy"
  bottom: "pool_final"
  bottom: "label"
  top: "accuracy_top5"
  include {
  }
  accuracy_param {
    top_k: 5
  }
}
I0416 23:13:53.240485 22456 layer_factory.cpp:58] Creating layer data
I0416 23:13:53.247499 22456 db_leveldb.cpp:18] Opened leveldb D:/ML/COMP551/Project4/models/cifar10/cifar10_train_leveldb
I0416 23:13:53.247499 22456 net.cpp:84] Creating Layer data
I0416 23:13:53.247499 22456 net.cpp:380] data -> data
I0416 23:13:53.247499 22456 net.cpp:380] data -> label
I0416 23:13:53.247499 22456 data_transformer.cpp:25] Loading mean file from: D:/ML/COMP551/Project4/models/cifar10/mean_file/mean.binaryproto
I0416 23:13:53.249442 22456 common.cpp:36] System entropy source not available, using fallback algorithm to generate seed instead.
I0416 23:13:53.249442 22456 data_layer.cpp:45] output data size: 100,3,32,32
I0416 23:13:53.255445 22456 net.cpp:122] Setting up data
I0416 23:13:53.255445 22456 net.cpp:129] Top shape: 100 3 32 32 (307200)
I0416 23:13:53.255445 22456 net.cpp:129] Top shape: 100 (100)
I0416 23:13:53.255445 22456 net.cpp:137] Memory required for data: 1229200
I0416 23:13:53.255445 22456 layer_factory.cpp:58] Creating layer label_data_1_split
I0416 23:13:53.255445 22456 net.cpp:84] Creating Layer label_data_1_split
I0416 23:13:53.255754 22456 net.cpp:406] label_data_1_split <- label
I0416 23:13:53.255754 22456 net.cpp:380] label_data_1_split -> label_data_1_split_0
I0416 23:13:53.255754 22456 net.cpp:380] label_data_1_split -> label_data_1_split_1
I0416 23:13:53.255754 22456 net.cpp:380] label_data_1_split -> label_data_1_split_2
I0416 23:13:53.255754 22456 net.cpp:122] Setting up label_data_1_split
I0416 23:13:53.255754 22456 net.cpp:129] Top shape: 100 (100)
I0416 23:13:53.255754 22456 net.cpp:129] Top shape: 100 (100)
I0416 23:13:53.255754 22456 net.cpp:129] Top shape: 100 (100)
I0416 23:13:53.255754 22456 net.cpp:137] Memory required for data: 1230400
I0416 23:13:53.255754 22456 layer_factory.cpp:58] Creating layer conv1
I0416 23:13:53.255754 22456 net.cpp:84] Creating Layer conv1
I0416 23:13:53.255754 22456 net.cpp:406] conv1 <- data
I0416 23:13:53.255754 22456 net.cpp:380] conv1 -> conv1
I0416 23:13:53.256443 34400 common.cpp:36] System entropy source not available, using fallback algorithm to generate seed instead.
I0416 23:13:54.528121 22456 net.cpp:122] Setting up conv1
I0416 23:13:54.528121 22456 net.cpp:129] Top shape: 100 96 13 13 (1622400)
I0416 23:13:54.528121 22456 net.cpp:137] Memory required for data: 7720000
I0416 23:13:54.528121 22456 layer_factory.cpp:58] Creating layer relu_conv1
I0416 23:13:54.528121 22456 net.cpp:84] Creating Layer relu_conv1
I0416 23:13:54.528121 22456 net.cpp:406] relu_conv1 <- conv1
I0416 23:13:54.528121 22456 net.cpp:367] relu_conv1 -> conv1 (in-place)
I0416 23:13:54.529011 22456 net.cpp:122] Setting up relu_conv1
I0416 23:13:54.529011 22456 net.cpp:129] Top shape: 100 96 13 13 (1622400)
I0416 23:13:54.529011 22456 net.cpp:137] Memory required for data: 14209600
I0416 23:13:54.529011 22456 layer_factory.cpp:58] Creating layer pool1
I0416 23:13:54.529011 22456 net.cpp:84] Creating Layer pool1
I0416 23:13:54.529011 22456 net.cpp:406] pool1 <- conv1
I0416 23:13:54.529011 22456 net.cpp:380] pool1 -> pool1
I0416 23:13:54.529011 22456 net.cpp:122] Setting up pool1
I0416 23:13:54.529011 22456 net.cpp:129] Top shape: 100 96 6 6 (345600)
I0416 23:13:54.529011 22456 net.cpp:137] Memory required for data: 15592000
I0416 23:13:54.529011 22456 layer_factory.cpp:58] Creating layer fire2/conv1x1_1
I0416 23:13:54.529011 22456 net.cpp:84] Creating Layer fire2/conv1x1_1
I0416 23:13:54.529011 22456 net.cpp:406] fire2/conv1x1_1 <- pool1
I0416 23:13:54.529011 22456 net.cpp:380] fire2/conv1x1_1 -> fire2/conv1x1_1
I0416 23:13:54.532999 22456 net.cpp:122] Setting up fire2/conv1x1_1
I0416 23:13:54.532999 22456 net.cpp:129] Top shape: 100 16 6 6 (57600)
I0416 23:13:54.532999 22456 net.cpp:137] Memory required for data: 15822400
I0416 23:13:54.532999 22456 layer_factory.cpp:58] Creating layer fire2/relu_conv1x1_1
I0416 23:13:54.532999 22456 net.cpp:84] Creating Layer fire2/relu_conv1x1_1
I0416 23:13:54.532999 22456 net.cpp:406] fire2/relu_conv1x1_1 <- fire2/conv1x1_1
I0416 23:13:54.532999 22456 net.cpp:367] fire2/relu_conv1x1_1 -> fire2/conv1x1_1 (in-place)
I0416 23:13:54.534024 22456 net.cpp:122] Setting up fire2/relu_conv1x1_1
I0416 23:13:54.534024 22456 net.cpp:129] Top shape: 100 16 6 6 (57600)
I0416 23:13:54.534024 22456 net.cpp:137] Memory required for data: 16052800
I0416 23:13:54.534024 22456 layer_factory.cpp:58] Creating layer fire2/conv1x1_1_fire2/relu_conv1x1_1_0_split
I0416 23:13:54.534024 22456 net.cpp:84] Creating Layer fire2/conv1x1_1_fire2/relu_conv1x1_1_0_split
I0416 23:13:54.534024 22456 net.cpp:406] fire2/conv1x1_1_fire2/relu_conv1x1_1_0_split <- fire2/conv1x1_1
I0416 23:13:54.534024 22456 net.cpp:380] fire2/conv1x1_1_fire2/relu_conv1x1_1_0_split -> fire2/conv1x1_1_fire2/relu_conv1x1_1_0_split_0
I0416 23:13:54.534024 22456 net.cpp:380] fire2/conv1x1_1_fire2/relu_conv1x1_1_0_split -> fire2/conv1x1_1_fire2/relu_conv1x1_1_0_split_1
I0416 23:13:54.534024 22456 net.cpp:122] Setting up fire2/conv1x1_1_fire2/relu_conv1x1_1_0_split
I0416 23:13:54.534024 22456 net.cpp:129] Top shape: 100 16 6 6 (57600)
I0416 23:13:54.534024 22456 net.cpp:129] Top shape: 100 16 6 6 (57600)
I0416 23:13:54.534024 22456 net.cpp:137] Memory required for data: 16513600
I0416 23:13:54.534024 22456 layer_factory.cpp:58] Creating layer fire2/conv1x1_2
I0416 23:13:54.534024 22456 net.cpp:84] Creating Layer fire2/conv1x1_2
I0416 23:13:54.534024 22456 net.cpp:406] fire2/conv1x1_2 <- fire2/conv1x1_1_fire2/relu_conv1x1_1_0_split_0
I0416 23:13:54.534024 22456 net.cpp:380] fire2/conv1x1_2 -> fire2/conv1x1_2
I0416 23:13:54.537065 22456 net.cpp:122] Setting up fire2/conv1x1_2
I0416 23:13:54.537065 22456 net.cpp:129] Top shape: 100 64 6 6 (230400)
I0416 23:13:54.537065 22456 net.cpp:137] Memory required for data: 17435200
I0416 23:13:54.537065 22456 layer_factory.cpp:58] Creating layer fire2/relu_conv1x1_2
I0416 23:13:54.537065 22456 net.cpp:84] Creating Layer fire2/relu_conv1x1_2
I0416 23:13:54.537065 22456 net.cpp:406] fire2/relu_conv1x1_2 <- fire2/conv1x1_2
I0416 23:13:54.537065 22456 net.cpp:367] fire2/relu_conv1x1_2 -> fire2/conv1x1_2 (in-place)
I0416 23:13:54.538022 22456 net.cpp:122] Setting up fire2/relu_conv1x1_2
I0416 23:13:54.538022 22456 net.cpp:129] Top shape: 100 64 6 6 (230400)
I0416 23:13:54.538022 22456 net.cpp:137] Memory required for data: 18356800
I0416 23:13:54.538022 22456 layer_factory.cpp:58] Creating layer fire2/conv3x3_2
I0416 23:13:54.538022 22456 net.cpp:84] Creating Layer fire2/conv3x3_2
I0416 23:13:54.538022 22456 net.cpp:406] fire2/conv3x3_2 <- fire2/conv1x1_1_fire2/relu_conv1x1_1_0_split_1
I0416 23:13:54.538022 22456 net.cpp:380] fire2/conv3x3_2 -> fire2/conv3x3_2
I0416 23:13:54.540977 22456 net.cpp:122] Setting up fire2/conv3x3_2
I0416 23:13:54.540977 22456 net.cpp:129] Top shape: 100 64 6 6 (230400)
I0416 23:13:54.540977 22456 net.cpp:137] Memory required for data: 19278400
I0416 23:13:54.540977 22456 layer_factory.cpp:58] Creating layer fire2/relu_conv3x3_2
I0416 23:13:54.540977 22456 net.cpp:84] Creating Layer fire2/relu_conv3x3_2
I0416 23:13:54.540977 22456 net.cpp:406] fire2/relu_conv3x3_2 <- fire2/conv3x3_2
I0416 23:13:54.540977 22456 net.cpp:367] fire2/relu_conv3x3_2 -> fire2/conv3x3_2 (in-place)
I0416 23:13:54.542002 22456 net.cpp:122] Setting up fire2/relu_conv3x3_2
I0416 23:13:54.542002 22456 net.cpp:129] Top shape: 100 64 6 6 (230400)
I0416 23:13:54.542002 22456 net.cpp:137] Memory required for data: 20200000
I0416 23:13:54.542002 22456 layer_factory.cpp:58] Creating layer fire2/concat
I0416 23:13:54.542002 22456 net.cpp:84] Creating Layer fire2/concat
I0416 23:13:54.542002 22456 net.cpp:406] fire2/concat <- fire2/conv1x1_2
I0416 23:13:54.542002 22456 net.cpp:406] fire2/concat <- fire2/conv3x3_2
I0416 23:13:54.542002 22456 net.cpp:380] fire2/concat -> fire2/concat
I0416 23:13:54.542002 22456 net.cpp:122] Setting up fire2/concat
I0416 23:13:54.542002 22456 net.cpp:129] Top shape: 100 128 6 6 (460800)
I0416 23:13:54.542002 22456 net.cpp:137] Memory required for data: 22043200
I0416 23:13:54.542002 22456 layer_factory.cpp:58] Creating layer fire3/conv1x1_1
I0416 23:13:54.542002 22456 net.cpp:84] Creating Layer fire3/conv1x1_1
I0416 23:13:54.542002 22456 net.cpp:406] fire3/conv1x1_1 <- fire2/concat
I0416 23:13:54.542002 22456 net.cpp:380] fire3/conv1x1_1 -> fire3/conv1x1_1
I0416 23:13:54.544126 22456 net.cpp:122] Setting up fire3/conv1x1_1
I0416 23:13:54.544126 22456 net.cpp:129] Top shape: 100 16 6 6 (57600)
I0416 23:13:54.544126 22456 net.cpp:137] Memory required for data: 22273600
I0416 23:13:54.544126 22456 layer_factory.cpp:58] Creating layer fire3/relu_conv1x1_1
I0416 23:13:54.545032 22456 net.cpp:84] Creating Layer fire3/relu_conv1x1_1
I0416 23:13:54.545032 22456 net.cpp:406] fire3/relu_conv1x1_1 <- fire3/conv1x1_1
I0416 23:13:54.545032 22456 net.cpp:367] fire3/relu_conv1x1_1 -> fire3/conv1x1_1 (in-place)
I0416 23:13:54.546056 22456 net.cpp:122] Setting up fire3/relu_conv1x1_1
I0416 23:13:54.546056 22456 net.cpp:129] Top shape: 100 16 6 6 (57600)
I0416 23:13:54.546056 22456 net.cpp:137] Memory required for data: 22504000
I0416 23:13:54.546056 22456 layer_factory.cpp:58] Creating layer fire3/conv1x1_1_fire3/relu_conv1x1_1_0_split
I0416 23:13:54.546056 22456 net.cpp:84] Creating Layer fire3/conv1x1_1_fire3/relu_conv1x1_1_0_split
I0416 23:13:54.546056 22456 net.cpp:406] fire3/conv1x1_1_fire3/relu_conv1x1_1_0_split <- fire3/conv1x1_1
I0416 23:13:54.546056 22456 net.cpp:380] fire3/conv1x1_1_fire3/relu_conv1x1_1_0_split -> fire3/conv1x1_1_fire3/relu_conv1x1_1_0_split_0
I0416 23:13:54.546056 22456 net.cpp:380] fire3/conv1x1_1_fire3/relu_conv1x1_1_0_split -> fire3/conv1x1_1_fire3/relu_conv1x1_1_0_split_1
I0416 23:13:54.546056 22456 net.cpp:122] Setting up fire3/conv1x1_1_fire3/relu_conv1x1_1_0_split
I0416 23:13:54.546056 22456 net.cpp:129] Top shape: 100 16 6 6 (57600)
I0416 23:13:54.546056 22456 net.cpp:129] Top shape: 100 16 6 6 (57600)
I0416 23:13:54.546056 22456 net.cpp:137] Memory required for data: 22964800
I0416 23:13:54.546056 22456 layer_factory.cpp:58] Creating layer fire3/conv1x1_2
I0416 23:13:54.546056 22456 net.cpp:84] Creating Layer fire3/conv1x1_2
I0416 23:13:54.546056 22456 net.cpp:406] fire3/conv1x1_2 <- fire3/conv1x1_1_fire3/relu_conv1x1_1_0_split_0
I0416 23:13:54.546056 22456 net.cpp:380] fire3/conv1x1_2 -> fire3/conv1x1_2
I0416 23:13:54.548995 22456 net.cpp:122] Setting up fire3/conv1x1_2
I0416 23:13:54.548995 22456 net.cpp:129] Top shape: 100 64 6 6 (230400)
I0416 23:13:54.548995 22456 net.cpp:137] Memory required for data: 23886400
I0416 23:13:54.548995 22456 layer_factory.cpp:58] Creating layer fire3/relu_conv1x1_2
I0416 23:13:54.548995 22456 net.cpp:84] Creating Layer fire3/relu_conv1x1_2
I0416 23:13:54.548995 22456 net.cpp:406] fire3/relu_conv1x1_2 <- fire3/conv1x1_2
I0416 23:13:54.548995 22456 net.cpp:367] fire3/relu_conv1x1_2 -> fire3/conv1x1_2 (in-place)
I0416 23:13:54.549598 22456 net.cpp:122] Setting up fire3/relu_conv1x1_2
I0416 23:13:54.549991 22456 net.cpp:129] Top shape: 100 64 6 6 (230400)
I0416 23:13:54.549991 22456 net.cpp:137] Memory required for data: 24808000
I0416 23:13:54.549991 22456 layer_factory.cpp:58] Creating layer fire3/conv3x3_2
I0416 23:13:54.549991 22456 net.cpp:84] Creating Layer fire3/conv3x3_2
I0416 23:13:54.549991 22456 net.cpp:406] fire3/conv3x3_2 <- fire3/conv1x1_1_fire3/relu_conv1x1_1_0_split_1
I0416 23:13:54.549991 22456 net.cpp:380] fire3/conv3x3_2 -> fire3/conv3x3_2
I0416 23:13:54.551985 22456 net.cpp:122] Setting up fire3/conv3x3_2
I0416 23:13:54.551985 22456 net.cpp:129] Top shape: 100 64 6 6 (230400)
I0416 23:13:54.551985 22456 net.cpp:137] Memory required for data: 25729600
I0416 23:13:54.551985 22456 layer_factory.cpp:58] Creating layer fire3/relu_conv3x3_2
I0416 23:13:54.551985 22456 net.cpp:84] Creating Layer fire3/relu_conv3x3_2
I0416 23:13:54.551985 22456 net.cpp:406] fire3/relu_conv3x3_2 <- fire3/conv3x3_2
I0416 23:13:54.551985 22456 net.cpp:367] fire3/relu_conv3x3_2 -> fire3/conv3x3_2 (in-place)
I0416 23:13:54.553004 22456 net.cpp:122] Setting up fire3/relu_conv3x3_2
I0416 23:13:54.553004 22456 net.cpp:129] Top shape: 100 64 6 6 (230400)
I0416 23:13:54.553004 22456 net.cpp:137] Memory required for data: 26651200
I0416 23:13:54.553004 22456 layer_factory.cpp:58] Creating layer fire3/concat
I0416 23:13:54.553004 22456 net.cpp:84] Creating Layer fire3/concat
I0416 23:13:54.553004 22456 net.cpp:406] fire3/concat <- fire3/conv1x1_2
I0416 23:13:54.553004 22456 net.cpp:406] fire3/concat <- fire3/conv3x3_2
I0416 23:13:54.553004 22456 net.cpp:380] fire3/concat -> fire3/concat
I0416 23:13:54.553004 22456 net.cpp:122] Setting up fire3/concat
I0416 23:13:54.553004 22456 net.cpp:129] Top shape: 100 128 6 6 (460800)
I0416 23:13:54.553004 22456 net.cpp:137] Memory required for data: 28494400
I0416 23:13:54.553004 22456 layer_factory.cpp:58] Creating layer fire4/conv1x1_1
I0416 23:13:54.553004 22456 net.cpp:84] Creating Layer fire4/conv1x1_1
I0416 23:13:54.553004 22456 net.cpp:406] fire4/conv1x1_1 <- fire3/concat
I0416 23:13:54.553004 22456 net.cpp:380] fire4/conv1x1_1 -> fire4/conv1x1_1
I0416 23:13:54.555994 22456 net.cpp:122] Setting up fire4/conv1x1_1
I0416 23:13:54.555994 22456 net.cpp:129] Top shape: 100 32 6 6 (115200)
I0416 23:13:54.555994 22456 net.cpp:137] Memory required for data: 28955200
I0416 23:13:54.555994 22456 layer_factory.cpp:58] Creating layer fire4/relu_conv1x1_1
I0416 23:13:54.555994 22456 net.cpp:84] Creating Layer fire4/relu_conv1x1_1
I0416 23:13:54.555994 22456 net.cpp:406] fire4/relu_conv1x1_1 <- fire4/conv1x1_1
I0416 23:13:54.555994 22456 net.cpp:367] fire4/relu_conv1x1_1 -> fire4/conv1x1_1 (in-place)
I0416 23:13:54.557180 22456 net.cpp:122] Setting up fire4/relu_conv1x1_1
I0416 23:13:54.557180 22456 net.cpp:129] Top shape: 100 32 6 6 (115200)
I0416 23:13:54.557180 22456 net.cpp:137] Memory required for data: 29416000
I0416 23:13:54.557180 22456 layer_factory.cpp:58] Creating layer fire4/conv1x1_1_fire4/relu_conv1x1_1_0_split
I0416 23:13:54.557180 22456 net.cpp:84] Creating Layer fire4/conv1x1_1_fire4/relu_conv1x1_1_0_split
I0416 23:13:54.557180 22456 net.cpp:406] fire4/conv1x1_1_fire4/relu_conv1x1_1_0_split <- fire4/conv1x1_1
I0416 23:13:54.557180 22456 net.cpp:380] fire4/conv1x1_1_fire4/relu_conv1x1_1_0_split -> fire4/conv1x1_1_fire4/relu_conv1x1_1_0_split_0
I0416 23:13:54.557180 22456 net.cpp:380] fire4/conv1x1_1_fire4/relu_conv1x1_1_0_split -> fire4/conv1x1_1_fire4/relu_conv1x1_1_0_split_1
I0416 23:13:54.557180 22456 net.cpp:122] Setting up fire4/conv1x1_1_fire4/relu_conv1x1_1_0_split
I0416 23:13:54.557180 22456 net.cpp:129] Top shape: 100 32 6 6 (115200)
I0416 23:13:54.557180 22456 net.cpp:129] Top shape: 100 32 6 6 (115200)
I0416 23:13:54.557180 22456 net.cpp:137] Memory required for data: 30337600
I0416 23:13:54.557180 22456 layer_factory.cpp:58] Creating layer fire4/conv1x1_2
I0416 23:13:54.557180 22456 net.cpp:84] Creating Layer fire4/conv1x1_2
I0416 23:13:54.557180 22456 net.cpp:406] fire4/conv1x1_2 <- fire4/conv1x1_1_fire4/relu_conv1x1_1_0_split_0
I0416 23:13:54.557180 22456 net.cpp:380] fire4/conv1x1_2 -> fire4/conv1x1_2
I0416 23:13:54.560024 22456 net.cpp:122] Setting up fire4/conv1x1_2
I0416 23:13:54.560024 22456 net.cpp:129] Top shape: 100 128 6 6 (460800)
I0416 23:13:54.560024 22456 net.cpp:137] Memory required for data: 32180800
I0416 23:13:54.560024 22456 layer_factory.cpp:58] Creating layer fire4/relu_conv1x1_2
I0416 23:13:54.560024 22456 net.cpp:84] Creating Layer fire4/relu_conv1x1_2
I0416 23:13:54.560024 22456 net.cpp:406] fire4/relu_conv1x1_2 <- fire4/conv1x1_2
I0416 23:13:54.560024 22456 net.cpp:367] fire4/relu_conv1x1_2 -> fire4/conv1x1_2 (in-place)
I0416 23:13:54.560962 22456 net.cpp:122] Setting up fire4/relu_conv1x1_2
I0416 23:13:54.560962 22456 net.cpp:129] Top shape: 100 128 6 6 (460800)
I0416 23:13:54.560962 22456 net.cpp:137] Memory required for data: 34024000
I0416 23:13:54.560962 22456 layer_factory.cpp:58] Creating layer fire4/conv3x3_2
I0416 23:13:54.560962 22456 net.cpp:84] Creating Layer fire4/conv3x3_2
I0416 23:13:54.560962 22456 net.cpp:406] fire4/conv3x3_2 <- fire4/conv1x1_1_fire4/relu_conv1x1_1_0_split_1
I0416 23:13:54.560962 22456 net.cpp:380] fire4/conv3x3_2 -> fire4/conv3x3_2
I0416 23:13:54.563966 22456 net.cpp:122] Setting up fire4/conv3x3_2
I0416 23:13:54.563966 22456 net.cpp:129] Top shape: 100 128 6 6 (460800)
I0416 23:13:54.563966 22456 net.cpp:137] Memory required for data: 35867200
I0416 23:13:54.563966 22456 layer_factory.cpp:58] Creating layer fire4/relu_conv3x3_2
I0416 23:13:54.563966 22456 net.cpp:84] Creating Layer fire4/relu_conv3x3_2
I0416 23:13:54.563966 22456 net.cpp:406] fire4/relu_conv3x3_2 <- fire4/conv3x3_2
I0416 23:13:54.563966 22456 net.cpp:367] fire4/relu_conv3x3_2 -> fire4/conv3x3_2 (in-place)
I0416 23:13:54.566021 22456 net.cpp:122] Setting up fire4/relu_conv3x3_2
I0416 23:13:54.566021 22456 net.cpp:129] Top shape: 100 128 6 6 (460800)
I0416 23:13:54.566021 22456 net.cpp:137] Memory required for data: 37710400
I0416 23:13:54.566021 22456 layer_factory.cpp:58] Creating layer fire4/concat
I0416 23:13:54.566021 22456 net.cpp:84] Creating Layer fire4/concat
I0416 23:13:54.566021 22456 net.cpp:406] fire4/concat <- fire4/conv1x1_2
I0416 23:13:54.566021 22456 net.cpp:406] fire4/concat <- fire4/conv3x3_2
I0416 23:13:54.566021 22456 net.cpp:380] fire4/concat -> fire4/concat
I0416 23:13:54.566021 22456 net.cpp:122] Setting up fire4/concat
I0416 23:13:54.566021 22456 net.cpp:129] Top shape: 100 256 6 6 (921600)
I0416 23:13:54.566021 22456 net.cpp:137] Memory required for data: 41396800
I0416 23:13:54.566021 22456 layer_factory.cpp:58] Creating layer pool4
I0416 23:13:54.566021 22456 net.cpp:84] Creating Layer pool4
I0416 23:13:54.566021 22456 net.cpp:406] pool4 <- fire4/concat
I0416 23:13:54.566021 22456 net.cpp:380] pool4 -> pool4
I0416 23:13:54.566021 22456 net.cpp:122] Setting up pool4
I0416 23:13:54.566021 22456 net.cpp:129] Top shape: 100 256 3 3 (230400)
I0416 23:13:54.566021 22456 net.cpp:137] Memory required for data: 42318400
I0416 23:13:54.566021 22456 layer_factory.cpp:58] Creating layer fire5/conv1x1_1
I0416 23:13:54.566021 22456 net.cpp:84] Creating Layer fire5/conv1x1_1
I0416 23:13:54.566021 22456 net.cpp:406] fire5/conv1x1_1 <- pool4
I0416 23:13:54.566021 22456 net.cpp:380] fire5/conv1x1_1 -> fire5/conv1x1_1
I0416 23:13:54.568940 22456 net.cpp:122] Setting up fire5/conv1x1_1
I0416 23:13:54.569106 22456 net.cpp:129] Top shape: 100 32 3 3 (28800)
I0416 23:13:54.569106 22456 net.cpp:137] Memory required for data: 42433600
I0416 23:13:54.569106 22456 layer_factory.cpp:58] Creating layer fire5/relu_conv1x1_1
I0416 23:13:54.569106 22456 net.cpp:84] Creating Layer fire5/relu_conv1x1_1
I0416 23:13:54.569106 22456 net.cpp:406] fire5/relu_conv1x1_1 <- fire5/conv1x1_1
I0416 23:13:54.569106 22456 net.cpp:367] fire5/relu_conv1x1_1 -> fire5/conv1x1_1 (in-place)
I0416 23:13:54.569938 22456 net.cpp:122] Setting up fire5/relu_conv1x1_1
I0416 23:13:54.569938 22456 net.cpp:129] Top shape: 100 32 3 3 (28800)
I0416 23:13:54.569938 22456 net.cpp:137] Memory required for data: 42548800
I0416 23:13:54.569938 22456 layer_factory.cpp:58] Creating layer fire5/conv1x1_1_fire5/relu_conv1x1_1_0_split
I0416 23:13:54.569938 22456 net.cpp:84] Creating Layer fire5/conv1x1_1_fire5/relu_conv1x1_1_0_split
I0416 23:13:54.569938 22456 net.cpp:406] fire5/conv1x1_1_fire5/relu_conv1x1_1_0_split <- fire5/conv1x1_1
I0416 23:13:54.569938 22456 net.cpp:380] fire5/conv1x1_1_fire5/relu_conv1x1_1_0_split -> fire5/conv1x1_1_fire5/relu_conv1x1_1_0_split_0
I0416 23:13:54.569938 22456 net.cpp:380] fire5/conv1x1_1_fire5/relu_conv1x1_1_0_split -> fire5/conv1x1_1_fire5/relu_conv1x1_1_0_split_1
I0416 23:13:54.569938 22456 net.cpp:122] Setting up fire5/conv1x1_1_fire5/relu_conv1x1_1_0_split
I0416 23:13:54.569938 22456 net.cpp:129] Top shape: 100 32 3 3 (28800)
I0416 23:13:54.569938 22456 net.cpp:129] Top shape: 100 32 3 3 (28800)
I0416 23:13:54.569938 22456 net.cpp:137] Memory required for data: 42779200
I0416 23:13:54.569938 22456 layer_factory.cpp:58] Creating layer fire5/conv1x1_2
I0416 23:13:54.569938 22456 net.cpp:84] Creating Layer fire5/conv1x1_2
I0416 23:13:54.569938 22456 net.cpp:406] fire5/conv1x1_2 <- fire5/conv1x1_1_fire5/relu_conv1x1_1_0_split_0
I0416 23:13:54.569938 22456 net.cpp:380] fire5/conv1x1_2 -> fire5/conv1x1_2
I0416 23:13:54.571933 22456 net.cpp:122] Setting up fire5/conv1x1_2
I0416 23:13:54.571933 22456 net.cpp:129] Top shape: 100 128 3 3 (115200)
I0416 23:13:54.571933 22456 net.cpp:137] Memory required for data: 43240000
I0416 23:13:54.571933 22456 layer_factory.cpp:58] Creating layer fire5/relu_conv1x1_2
I0416 23:13:54.571933 22456 net.cpp:84] Creating Layer fire5/relu_conv1x1_2
I0416 23:13:54.571933 22456 net.cpp:406] fire5/relu_conv1x1_2 <- fire5/conv1x1_2
I0416 23:13:54.571933 22456 net.cpp:367] fire5/relu_conv1x1_2 -> fire5/conv1x1_2 (in-place)
I0416 23:13:54.573009 22456 net.cpp:122] Setting up fire5/relu_conv1x1_2
I0416 23:13:54.573009 22456 net.cpp:129] Top shape: 100 128 3 3 (115200)
I0416 23:13:54.573009 22456 net.cpp:137] Memory required for data: 43700800
I0416 23:13:54.573009 22456 layer_factory.cpp:58] Creating layer fire5/conv3x3_2
I0416 23:13:54.573009 22456 net.cpp:84] Creating Layer fire5/conv3x3_2
I0416 23:13:54.573009 22456 net.cpp:406] fire5/conv3x3_2 <- fire5/conv1x1_1_fire5/relu_conv1x1_1_0_split_1
I0416 23:13:54.573009 22456 net.cpp:380] fire5/conv3x3_2 -> fire5/conv3x3_2
I0416 23:13:54.577191 22456 net.cpp:122] Setting up fire5/conv3x3_2
I0416 23:13:54.577191 22456 net.cpp:129] Top shape: 100 128 3 3 (115200)
I0416 23:13:54.577191 22456 net.cpp:137] Memory required for data: 44161600
I0416 23:13:54.577191 22456 layer_factory.cpp:58] Creating layer fire5/relu_conv3x3_2
I0416 23:13:54.577191 22456 net.cpp:84] Creating Layer fire5/relu_conv3x3_2
I0416 23:13:54.577191 22456 net.cpp:406] fire5/relu_conv3x3_2 <- fire5/conv3x3_2
I0416 23:13:54.577191 22456 net.cpp:367] fire5/relu_conv3x3_2 -> fire5/conv3x3_2 (in-place)
I0416 23:13:54.577191 22456 net.cpp:122] Setting up fire5/relu_conv3x3_2
I0416 23:13:54.577191 22456 net.cpp:129] Top shape: 100 128 3 3 (115200)
I0416 23:13:54.577191 22456 net.cpp:137] Memory required for data: 44622400
I0416 23:13:54.577191 22456 layer_factory.cpp:58] Creating layer fire5/concat
I0416 23:13:54.577191 22456 net.cpp:84] Creating Layer fire5/concat
I0416 23:13:54.577191 22456 net.cpp:406] fire5/concat <- fire5/conv1x1_2
I0416 23:13:54.577191 22456 net.cpp:406] fire5/concat <- fire5/conv3x3_2
I0416 23:13:54.577191 22456 net.cpp:380] fire5/concat -> fire5/concat
I0416 23:13:54.577191 22456 net.cpp:122] Setting up fire5/concat
I0416 23:13:54.577191 22456 net.cpp:129] Top shape: 100 256 3 3 (230400)
I0416 23:13:54.577936 22456 net.cpp:137] Memory required for data: 45544000
I0416 23:13:54.577936 22456 layer_factory.cpp:58] Creating layer fire6/conv1x1_1
I0416 23:13:54.577936 22456 net.cpp:84] Creating Layer fire6/conv1x1_1
I0416 23:13:54.577936 22456 net.cpp:406] fire6/conv1x1_1 <- fire5/concat
I0416 23:13:54.577936 22456 net.cpp:380] fire6/conv1x1_1 -> fire6/conv1x1_1
I0416 23:13:54.579911 22456 net.cpp:122] Setting up fire6/conv1x1_1
I0416 23:13:54.579911 22456 net.cpp:129] Top shape: 100 48 3 3 (43200)
I0416 23:13:54.579911 22456 net.cpp:137] Memory required for data: 45716800
I0416 23:13:54.579911 22456 layer_factory.cpp:58] Creating layer fire6/relu_conv1x1_1
I0416 23:13:54.579911 22456 net.cpp:84] Creating Layer fire6/relu_conv1x1_1
I0416 23:13:54.579911 22456 net.cpp:406] fire6/relu_conv1x1_1 <- fire6/conv1x1_1
I0416 23:13:54.579911 22456 net.cpp:367] fire6/relu_conv1x1_1 -> fire6/conv1x1_1 (in-place)
I0416 23:13:54.581905 22456 net.cpp:122] Setting up fire6/relu_conv1x1_1
I0416 23:13:54.581905 22456 net.cpp:129] Top shape: 100 48 3 3 (43200)
I0416 23:13:54.581905 22456 net.cpp:137] Memory required for data: 45889600
I0416 23:13:54.581905 22456 layer_factory.cpp:58] Creating layer fire6/conv1x1_1_fire6/relu_conv1x1_1_0_split
I0416 23:13:54.581905 22456 net.cpp:84] Creating Layer fire6/conv1x1_1_fire6/relu_conv1x1_1_0_split
I0416 23:13:54.581905 22456 net.cpp:406] fire6/conv1x1_1_fire6/relu_conv1x1_1_0_split <- fire6/conv1x1_1
I0416 23:13:54.581905 22456 net.cpp:380] fire6/conv1x1_1_fire6/relu_conv1x1_1_0_split -> fire6/conv1x1_1_fire6/relu_conv1x1_1_0_split_0
I0416 23:13:54.581905 22456 net.cpp:380] fire6/conv1x1_1_fire6/relu_conv1x1_1_0_split -> fire6/conv1x1_1_fire6/relu_conv1x1_1_0_split_1
I0416 23:13:54.581905 22456 net.cpp:122] Setting up fire6/conv1x1_1_fire6/relu_conv1x1_1_0_split
I0416 23:13:54.581905 22456 net.cpp:129] Top shape: 100 48 3 3 (43200)
I0416 23:13:54.581905 22456 net.cpp:129] Top shape: 100 48 3 3 (43200)
I0416 23:13:54.581905 22456 net.cpp:137] Memory required for data: 46235200
I0416 23:13:54.581905 22456 layer_factory.cpp:58] Creating layer fire6/conv1x1_2
I0416 23:13:54.581905 22456 net.cpp:84] Creating Layer fire6/conv1x1_2
I0416 23:13:54.581905 22456 net.cpp:406] fire6/conv1x1_2 <- fire6/conv1x1_1_fire6/relu_conv1x1_1_0_split_0
I0416 23:13:54.581905 22456 net.cpp:380] fire6/conv1x1_2 -> fire6/conv1x1_2
I0416 23:13:54.583901 22456 net.cpp:122] Setting up fire6/conv1x1_2
I0416 23:13:54.583901 22456 net.cpp:129] Top shape: 100 192 3 3 (172800)
I0416 23:13:54.583901 22456 net.cpp:137] Memory required for data: 46926400
I0416 23:13:54.584918 22456 layer_factory.cpp:58] Creating layer fire6/relu_conv1x1_2
I0416 23:13:54.584918 22456 net.cpp:84] Creating Layer fire6/relu_conv1x1_2
I0416 23:13:54.584918 22456 net.cpp:406] fire6/relu_conv1x1_2 <- fire6/conv1x1_2
I0416 23:13:54.584918 22456 net.cpp:367] fire6/relu_conv1x1_2 -> fire6/conv1x1_2 (in-place)
I0416 23:13:54.585911 22456 net.cpp:122] Setting up fire6/relu_conv1x1_2
I0416 23:13:54.585911 22456 net.cpp:129] Top shape: 100 192 3 3 (172800)
I0416 23:13:54.585911 22456 net.cpp:137] Memory required for data: 47617600
I0416 23:13:54.585911 22456 layer_factory.cpp:58] Creating layer fire6/conv3x3_2
I0416 23:13:54.585911 22456 net.cpp:84] Creating Layer fire6/conv3x3_2
I0416 23:13:54.585911 22456 net.cpp:406] fire6/conv3x3_2 <- fire6/conv1x1_1_fire6/relu_conv1x1_1_0_split_1
I0416 23:13:54.585911 22456 net.cpp:380] fire6/conv3x3_2 -> fire6/conv3x3_2
I0416 23:13:54.588958 22456 net.cpp:122] Setting up fire6/conv3x3_2
I0416 23:13:54.588958 22456 net.cpp:129] Top shape: 100 192 3 3 (172800)
I0416 23:13:54.588958 22456 net.cpp:137] Memory required for data: 48308800
I0416 23:13:54.588958 22456 layer_factory.cpp:58] Creating layer fire6/relu_conv3x3_2
I0416 23:13:54.588958 22456 net.cpp:84] Creating Layer fire6/relu_conv3x3_2
I0416 23:13:54.588958 22456 net.cpp:406] fire6/relu_conv3x3_2 <- fire6/conv3x3_2
I0416 23:13:54.588958 22456 net.cpp:367] fire6/relu_conv3x3_2 -> fire6/conv3x3_2 (in-place)
I0416 23:13:54.589905 22456 net.cpp:122] Setting up fire6/relu_conv3x3_2
I0416 23:13:54.589905 22456 net.cpp:129] Top shape: 100 192 3 3 (172800)
I0416 23:13:54.589905 22456 net.cpp:137] Memory required for data: 49000000
I0416 23:13:54.589905 22456 layer_factory.cpp:58] Creating layer fire6/concat
I0416 23:13:54.589905 22456 net.cpp:84] Creating Layer fire6/concat
I0416 23:13:54.589905 22456 net.cpp:406] fire6/concat <- fire6/conv1x1_2
I0416 23:13:54.589905 22456 net.cpp:406] fire6/concat <- fire6/conv3x3_2
I0416 23:13:54.589905 22456 net.cpp:380] fire6/concat -> fire6/concat
I0416 23:13:54.589905 22456 net.cpp:122] Setting up fire6/concat
I0416 23:13:54.589905 22456 net.cpp:129] Top shape: 100 384 3 3 (345600)
I0416 23:13:54.589905 22456 net.cpp:137] Memory required for data: 50382400
I0416 23:13:54.589905 22456 layer_factory.cpp:58] Creating layer fire7/conv1x1_1
I0416 23:13:54.589905 22456 net.cpp:84] Creating Layer fire7/conv1x1_1
I0416 23:13:54.589905 22456 net.cpp:406] fire7/conv1x1_1 <- fire6/concat
I0416 23:13:54.589905 22456 net.cpp:380] fire7/conv1x1_1 -> fire7/conv1x1_1
I0416 23:13:54.591879 22456 net.cpp:122] Setting up fire7/conv1x1_1
I0416 23:13:54.591879 22456 net.cpp:129] Top shape: 100 48 3 3 (43200)
I0416 23:13:54.591879 22456 net.cpp:137] Memory required for data: 50555200
I0416 23:13:54.591879 22456 layer_factory.cpp:58] Creating layer fire7/relu_conv1x1_1
I0416 23:13:54.591879 22456 net.cpp:84] Creating Layer fire7/relu_conv1x1_1
I0416 23:13:54.591879 22456 net.cpp:406] fire7/relu_conv1x1_1 <- fire7/conv1x1_1
I0416 23:13:54.591879 22456 net.cpp:367] fire7/relu_conv1x1_1 -> fire7/conv1x1_1 (in-place)
I0416 23:13:54.593050 22456 net.cpp:122] Setting up fire7/relu_conv1x1_1
I0416 23:13:54.593050 22456 net.cpp:129] Top shape: 100 48 3 3 (43200)
I0416 23:13:54.593050 22456 net.cpp:137] Memory required for data: 50728000
I0416 23:13:54.593050 22456 layer_factory.cpp:58] Creating layer fire7/conv1x1_1_fire7/relu_conv1x1_1_0_split
I0416 23:13:54.593050 22456 net.cpp:84] Creating Layer fire7/conv1x1_1_fire7/relu_conv1x1_1_0_split
I0416 23:13:54.593050 22456 net.cpp:406] fire7/conv1x1_1_fire7/relu_conv1x1_1_0_split <- fire7/conv1x1_1
I0416 23:13:54.593050 22456 net.cpp:380] fire7/conv1x1_1_fire7/relu_conv1x1_1_0_split -> fire7/conv1x1_1_fire7/relu_conv1x1_1_0_split_0
I0416 23:13:54.593050 22456 net.cpp:380] fire7/conv1x1_1_fire7/relu_conv1x1_1_0_split -> fire7/conv1x1_1_fire7/relu_conv1x1_1_0_split_1
I0416 23:13:54.593050 22456 net.cpp:122] Setting up fire7/conv1x1_1_fire7/relu_conv1x1_1_0_split
I0416 23:13:54.593050 22456 net.cpp:129] Top shape: 100 48 3 3 (43200)
I0416 23:13:54.593050 22456 net.cpp:129] Top shape: 100 48 3 3 (43200)
I0416 23:13:54.593050 22456 net.cpp:137] Memory required for data: 51073600
I0416 23:13:54.593050 22456 layer_factory.cpp:58] Creating layer fire7/conv1x1_2
I0416 23:13:54.593050 22456 net.cpp:84] Creating Layer fire7/conv1x1_2
I0416 23:13:54.593050 22456 net.cpp:406] fire7/conv1x1_2 <- fire7/conv1x1_1_fire7/relu_conv1x1_1_0_split_0
I0416 23:13:54.593050 22456 net.cpp:380] fire7/conv1x1_2 -> fire7/conv1x1_2
I0416 23:13:54.597184 22456 net.cpp:122] Setting up fire7/conv1x1_2
I0416 23:13:54.597184 22456 net.cpp:129] Top shape: 100 192 3 3 (172800)
I0416 23:13:54.597184 22456 net.cpp:137] Memory required for data: 51764800
I0416 23:13:54.597184 22456 layer_factory.cpp:58] Creating layer fire7/relu_conv1x1_2
I0416 23:13:54.597184 22456 net.cpp:84] Creating Layer fire7/relu_conv1x1_2
I0416 23:13:54.597184 22456 net.cpp:406] fire7/relu_conv1x1_2 <- fire7/conv1x1_2
I0416 23:13:54.597184 22456 net.cpp:367] fire7/relu_conv1x1_2 -> fire7/conv1x1_2 (in-place)
I0416 23:13:54.597863 22456 net.cpp:122] Setting up fire7/relu_conv1x1_2
I0416 23:13:54.597863 22456 net.cpp:129] Top shape: 100 192 3 3 (172800)
I0416 23:13:54.597863 22456 net.cpp:137] Memory required for data: 52456000
I0416 23:13:54.597863 22456 layer_factory.cpp:58] Creating layer fire7/conv3x3_2
I0416 23:13:54.597863 22456 net.cpp:84] Creating Layer fire7/conv3x3_2
I0416 23:13:54.597863 22456 net.cpp:406] fire7/conv3x3_2 <- fire7/conv1x1_1_fire7/relu_conv1x1_1_0_split_1
I0416 23:13:54.597863 22456 net.cpp:380] fire7/conv3x3_2 -> fire7/conv3x3_2
I0416 23:13:54.601908 22456 net.cpp:122] Setting up fire7/conv3x3_2
I0416 23:13:54.601908 22456 net.cpp:129] Top shape: 100 192 3 3 (172800)
I0416 23:13:54.601908 22456 net.cpp:137] Memory required for data: 53147200
I0416 23:13:54.601908 22456 layer_factory.cpp:58] Creating layer fire7/relu_conv3x3_2
I0416 23:13:54.601908 22456 net.cpp:84] Creating Layer fire7/relu_conv3x3_2
I0416 23:13:54.601908 22456 net.cpp:406] fire7/relu_conv3x3_2 <- fire7/conv3x3_2
I0416 23:13:54.601908 22456 net.cpp:367] fire7/relu_conv3x3_2 -> fire7/conv3x3_2 (in-place)
I0416 23:13:54.602849 22456 net.cpp:122] Setting up fire7/relu_conv3x3_2
I0416 23:13:54.602849 22456 net.cpp:129] Top shape: 100 192 3 3 (172800)
I0416 23:13:54.602849 22456 net.cpp:137] Memory required for data: 53838400
I0416 23:13:54.602849 22456 layer_factory.cpp:58] Creating layer fire7/concat
I0416 23:13:54.602849 22456 net.cpp:84] Creating Layer fire7/concat
I0416 23:13:54.602849 22456 net.cpp:406] fire7/concat <- fire7/conv1x1_2
I0416 23:13:54.602849 22456 net.cpp:406] fire7/concat <- fire7/conv3x3_2
I0416 23:13:54.602849 22456 net.cpp:380] fire7/concat -> fire7/concat
I0416 23:13:54.602849 22456 net.cpp:122] Setting up fire7/concat
I0416 23:13:54.602849 22456 net.cpp:129] Top shape: 100 384 3 3 (345600)
I0416 23:13:54.602849 22456 net.cpp:137] Memory required for data: 55220800
I0416 23:13:54.602849 22456 layer_factory.cpp:58] Creating layer fire8/conv1x1_1
I0416 23:13:54.602849 22456 net.cpp:84] Creating Layer fire8/conv1x1_1
I0416 23:13:54.602849 22456 net.cpp:406] fire8/conv1x1_1 <- fire7/concat
I0416 23:13:54.602849 22456 net.cpp:380] fire8/conv1x1_1 -> fire8/conv1x1_1
I0416 23:13:54.604871 22456 net.cpp:122] Setting up fire8/conv1x1_1
I0416 23:13:54.604871 22456 net.cpp:129] Top shape: 100 64 3 3 (57600)
I0416 23:13:54.604871 22456 net.cpp:137] Memory required for data: 55451200
I0416 23:13:54.604871 22456 layer_factory.cpp:58] Creating layer fire8/relu_conv1x1_1
I0416 23:13:54.604871 22456 net.cpp:84] Creating Layer fire8/relu_conv1x1_1
I0416 23:13:54.604871 22456 net.cpp:406] fire8/relu_conv1x1_1 <- fire8/conv1x1_1
I0416 23:13:54.604871 22456 net.cpp:367] fire8/relu_conv1x1_1 -> fire8/conv1x1_1 (in-place)
I0416 23:13:54.606839 22456 net.cpp:122] Setting up fire8/relu_conv1x1_1
I0416 23:13:54.606839 22456 net.cpp:129] Top shape: 100 64 3 3 (57600)
I0416 23:13:54.606839 22456 net.cpp:137] Memory required for data: 55681600
I0416 23:13:54.606839 22456 layer_factory.cpp:58] Creating layer fire8/conv1x1_1_fire8/relu_conv1x1_1_0_split
I0416 23:13:54.606839 22456 net.cpp:84] Creating Layer fire8/conv1x1_1_fire8/relu_conv1x1_1_0_split
I0416 23:13:54.606839 22456 net.cpp:406] fire8/conv1x1_1_fire8/relu_conv1x1_1_0_split <- fire8/conv1x1_1
I0416 23:13:54.606839 22456 net.cpp:380] fire8/conv1x1_1_fire8/relu_conv1x1_1_0_split -> fire8/conv1x1_1_fire8/relu_conv1x1_1_0_split_0
I0416 23:13:54.606839 22456 net.cpp:380] fire8/conv1x1_1_fire8/relu_conv1x1_1_0_split -> fire8/conv1x1_1_fire8/relu_conv1x1_1_0_split_1
I0416 23:13:54.606839 22456 net.cpp:122] Setting up fire8/conv1x1_1_fire8/relu_conv1x1_1_0_split
I0416 23:13:54.606839 22456 net.cpp:129] Top shape: 100 64 3 3 (57600)
I0416 23:13:54.606839 22456 net.cpp:129] Top shape: 100 64 3 3 (57600)
I0416 23:13:54.606839 22456 net.cpp:137] Memory required for data: 56142400
I0416 23:13:54.606839 22456 layer_factory.cpp:58] Creating layer fire8/conv1x1_2
I0416 23:13:54.606839 22456 net.cpp:84] Creating Layer fire8/conv1x1_2
I0416 23:13:54.606839 22456 net.cpp:406] fire8/conv1x1_2 <- fire8/conv1x1_1_fire8/relu_conv1x1_1_0_split_0
I0416 23:13:54.606839 22456 net.cpp:380] fire8/conv1x1_2 -> fire8/conv1x1_2
I0416 23:13:54.608858 22456 net.cpp:122] Setting up fire8/conv1x1_2
I0416 23:13:54.608858 22456 net.cpp:129] Top shape: 100 256 3 3 (230400)
I0416 23:13:54.608858 22456 net.cpp:137] Memory required for data: 57064000
I0416 23:13:54.608858 22456 layer_factory.cpp:58] Creating layer fire8/relu_conv1x1_2
I0416 23:13:54.608858 22456 net.cpp:84] Creating Layer fire8/relu_conv1x1_2
I0416 23:13:54.608858 22456 net.cpp:406] fire8/relu_conv1x1_2 <- fire8/conv1x1_2
I0416 23:13:54.608858 22456 net.cpp:367] fire8/relu_conv1x1_2 -> fire8/conv1x1_2 (in-place)
I0416 23:13:54.609844 22456 net.cpp:122] Setting up fire8/relu_conv1x1_2
I0416 23:13:54.609844 22456 net.cpp:129] Top shape: 100 256 3 3 (230400)
I0416 23:13:54.609844 22456 net.cpp:137] Memory required for data: 57985600
I0416 23:13:54.609844 22456 layer_factory.cpp:58] Creating layer fire8/conv3x3_2
I0416 23:13:54.609844 22456 net.cpp:84] Creating Layer fire8/conv3x3_2
I0416 23:13:54.609844 22456 net.cpp:406] fire8/conv3x3_2 <- fire8/conv1x1_1_fire8/relu_conv1x1_1_0_split_1
I0416 23:13:54.609844 22456 net.cpp:380] fire8/conv3x3_2 -> fire8/conv3x3_2
I0416 23:13:54.613844 22456 net.cpp:122] Setting up fire8/conv3x3_2
I0416 23:13:54.613844 22456 net.cpp:129] Top shape: 100 256 3 3 (230400)
I0416 23:13:54.613844 22456 net.cpp:137] Memory required for data: 58907200
I0416 23:13:54.613844 22456 layer_factory.cpp:58] Creating layer fire8/relu_conv3x3_2
I0416 23:13:54.613844 22456 net.cpp:84] Creating Layer fire8/relu_conv3x3_2
I0416 23:13:54.613844 22456 net.cpp:406] fire8/relu_conv3x3_2 <- fire8/conv3x3_2
I0416 23:13:54.613844 22456 net.cpp:367] fire8/relu_conv3x3_2 -> fire8/conv3x3_2 (in-place)
I0416 23:13:54.614912 22456 net.cpp:122] Setting up fire8/relu_conv3x3_2
I0416 23:13:54.614912 22456 net.cpp:129] Top shape: 100 256 3 3 (230400)
I0416 23:13:54.614912 22456 net.cpp:137] Memory required for data: 59828800
I0416 23:13:54.615815 22456 layer_factory.cpp:58] Creating layer fire8/concat
I0416 23:13:54.615815 22456 net.cpp:84] Creating Layer fire8/concat
I0416 23:13:54.615815 22456 net.cpp:406] fire8/concat <- fire8/conv1x1_2
I0416 23:13:54.615815 22456 net.cpp:406] fire8/concat <- fire8/conv3x3_2
I0416 23:13:54.615815 22456 net.cpp:380] fire8/concat -> fire8/concat
I0416 23:13:54.615815 22456 net.cpp:122] Setting up fire8/concat
I0416 23:13:54.615815 22456 net.cpp:129] Top shape: 100 512 3 3 (460800)
I0416 23:13:54.615815 22456 net.cpp:137] Memory required for data: 61672000
I0416 23:13:54.615815 22456 layer_factory.cpp:58] Creating layer pool8
I0416 23:13:54.615815 22456 net.cpp:84] Creating Layer pool8
I0416 23:13:54.615815 22456 net.cpp:406] pool8 <- fire8/concat
I0416 23:13:54.615815 22456 net.cpp:380] pool8 -> pool8
I0416 23:13:54.615815 22456 net.cpp:122] Setting up pool8
I0416 23:13:54.615815 22456 net.cpp:129] Top shape: 100 512 1 1 (51200)
I0416 23:13:54.615815 22456 net.cpp:137] Memory required for data: 61876800
I0416 23:13:54.615815 22456 layer_factory.cpp:58] Creating layer fire9/conv1x1_1
I0416 23:13:54.615815 22456 net.cpp:84] Creating Layer fire9/conv1x1_1
I0416 23:13:54.615815 22456 net.cpp:406] fire9/conv1x1_1 <- pool8
I0416 23:13:54.615815 22456 net.cpp:380] fire9/conv1x1_1 -> fire9/conv1x1_1
I0416 23:13:54.619805 22456 net.cpp:122] Setting up fire9/conv1x1_1
I0416 23:13:54.619805 22456 net.cpp:129] Top shape: 100 64 1 1 (6400)
I0416 23:13:54.619805 22456 net.cpp:137] Memory required for data: 61902400
I0416 23:13:54.619805 22456 layer_factory.cpp:58] Creating layer fire9/relu_conv1x1_1
I0416 23:13:54.619805 22456 net.cpp:84] Creating Layer fire9/relu_conv1x1_1
I0416 23:13:54.619805 22456 net.cpp:406] fire9/relu_conv1x1_1 <- fire9/conv1x1_1
I0416 23:13:54.619805 22456 net.cpp:367] fire9/relu_conv1x1_1 -> fire9/conv1x1_1 (in-place)
I0416 23:13:54.620266 22456 net.cpp:122] Setting up fire9/relu_conv1x1_1
I0416 23:13:54.620266 22456 net.cpp:129] Top shape: 100 64 1 1 (6400)
I0416 23:13:54.620266 22456 net.cpp:137] Memory required for data: 61928000
I0416 23:13:54.620266 22456 layer_factory.cpp:58] Creating layer fire9/conv1x1_1_fire9/relu_conv1x1_1_0_split
I0416 23:13:54.620266 22456 net.cpp:84] Creating Layer fire9/conv1x1_1_fire9/relu_conv1x1_1_0_split
I0416 23:13:54.620266 22456 net.cpp:406] fire9/conv1x1_1_fire9/relu_conv1x1_1_0_split <- fire9/conv1x1_1
I0416 23:13:54.620266 22456 net.cpp:380] fire9/conv1x1_1_fire9/relu_conv1x1_1_0_split -> fire9/conv1x1_1_fire9/relu_conv1x1_1_0_split_0
I0416 23:13:54.620266 22456 net.cpp:380] fire9/conv1x1_1_fire9/relu_conv1x1_1_0_split -> fire9/conv1x1_1_fire9/relu_conv1x1_1_0_split_1
I0416 23:13:54.620266 22456 net.cpp:122] Setting up fire9/conv1x1_1_fire9/relu_conv1x1_1_0_split
I0416 23:13:54.620266 22456 net.cpp:129] Top shape: 100 64 1 1 (6400)
I0416 23:13:54.620266 22456 net.cpp:129] Top shape: 100 64 1 1 (6400)
I0416 23:13:54.620266 22456 net.cpp:137] Memory required for data: 61979200
I0416 23:13:54.620266 22456 layer_factory.cpp:58] Creating layer fire9/conv1x1_2
I0416 23:13:54.620266 22456 net.cpp:84] Creating Layer fire9/conv1x1_2
I0416 23:13:54.620266 22456 net.cpp:406] fire9/conv1x1_2 <- fire9/conv1x1_1_fire9/relu_conv1x1_1_0_split_0
I0416 23:13:54.620266 22456 net.cpp:380] fire9/conv1x1_2 -> fire9/conv1x1_2
I0416 23:13:54.622962 22456 net.cpp:122] Setting up fire9/conv1x1_2
I0416 23:13:54.622962 22456 net.cpp:129] Top shape: 100 256 1 1 (25600)
I0416 23:13:54.622962 22456 net.cpp:137] Memory required for data: 62081600
I0416 23:13:54.622962 22456 layer_factory.cpp:58] Creating layer fire9/relu_conv1x1_2
I0416 23:13:54.622962 22456 net.cpp:84] Creating Layer fire9/relu_conv1x1_2
I0416 23:13:54.622962 22456 net.cpp:406] fire9/relu_conv1x1_2 <- fire9/conv1x1_2
I0416 23:13:54.622962 22456 net.cpp:367] fire9/relu_conv1x1_2 -> fire9/conv1x1_2 (in-place)
I0416 23:13:54.622962 22456 net.cpp:122] Setting up fire9/relu_conv1x1_2
I0416 23:13:54.622962 22456 net.cpp:129] Top shape: 100 256 1 1 (25600)
I0416 23:13:54.622962 22456 net.cpp:137] Memory required for data: 62184000
I0416 23:13:54.622962 22456 layer_factory.cpp:58] Creating layer fire9/conv3x3_2
I0416 23:13:54.622962 22456 net.cpp:84] Creating Layer fire9/conv3x3_2
I0416 23:13:54.622962 22456 net.cpp:406] fire9/conv3x3_2 <- fire9/conv1x1_1_fire9/relu_conv1x1_1_0_split_1
I0416 23:13:54.622962 22456 net.cpp:380] fire9/conv3x3_2 -> fire9/conv3x3_2
I0416 23:13:54.626786 22456 net.cpp:122] Setting up fire9/conv3x3_2
I0416 23:13:54.626786 22456 net.cpp:129] Top shape: 100 256 1 1 (25600)
I0416 23:13:54.626786 22456 net.cpp:137] Memory required for data: 62286400
I0416 23:13:54.626786 22456 layer_factory.cpp:58] Creating layer fire9/relu_conv3x3_2
I0416 23:13:54.626786 22456 net.cpp:84] Creating Layer fire9/relu_conv3x3_2
I0416 23:13:54.626786 22456 net.cpp:406] fire9/relu_conv3x3_2 <- fire9/conv3x3_2
I0416 23:13:54.626786 22456 net.cpp:367] fire9/relu_conv3x3_2 -> fire9/conv3x3_2 (in-place)
I0416 23:13:54.628805 22456 net.cpp:122] Setting up fire9/relu_conv3x3_2
I0416 23:13:54.628805 22456 net.cpp:129] Top shape: 100 256 1 1 (25600)
I0416 23:13:54.628805 22456 net.cpp:137] Memory required for data: 62388800
I0416 23:13:54.628805 22456 layer_factory.cpp:58] Creating layer fire9/concat
I0416 23:13:54.628805 22456 net.cpp:84] Creating Layer fire9/concat
I0416 23:13:54.628805 22456 net.cpp:406] fire9/concat <- fire9/conv1x1_2
I0416 23:13:54.628805 22456 net.cpp:406] fire9/concat <- fire9/conv3x3_2
I0416 23:13:54.628805 22456 net.cpp:380] fire9/concat -> fire9/concat
I0416 23:13:54.628805 22456 net.cpp:122] Setting up fire9/concat
I0416 23:13:54.628805 22456 net.cpp:129] Top shape: 100 512 1 1 (51200)
I0416 23:13:54.628805 22456 net.cpp:137] Memory required for data: 62593600
I0416 23:13:54.628805 22456 layer_factory.cpp:58] Creating layer drop9
I0416 23:13:54.628805 22456 net.cpp:84] Creating Layer drop9
I0416 23:13:54.628805 22456 net.cpp:406] drop9 <- fire9/concat
I0416 23:13:54.628805 22456 net.cpp:367] drop9 -> fire9/concat (in-place)
I0416 23:13:54.628805 22456 net.cpp:122] Setting up drop9
I0416 23:13:54.628805 22456 net.cpp:129] Top shape: 100 512 1 1 (51200)
I0416 23:13:54.628805 22456 net.cpp:137] Memory required for data: 62798400
I0416 23:13:54.628805 22456 layer_factory.cpp:58] Creating layer conv_final_modified
I0416 23:13:54.628805 22456 net.cpp:84] Creating Layer conv_final_modified
I0416 23:13:54.628805 22456 net.cpp:406] conv_final_modified <- fire9/concat
I0416 23:13:54.628805 22456 net.cpp:380] conv_final_modified -> conv_final
I0416 23:13:54.631772 22456 net.cpp:122] Setting up conv_final_modified
I0416 23:13:54.631772 22456 net.cpp:129] Top shape: 100 10 3 3 (9000)
I0416 23:13:54.631772 22456 net.cpp:137] Memory required for data: 62834400
I0416 23:13:54.631772 22456 layer_factory.cpp:58] Creating layer relu_conv_final
I0416 23:13:54.631772 22456 net.cpp:84] Creating Layer relu_conv_final
I0416 23:13:54.631772 22456 net.cpp:406] relu_conv_final <- conv_final
I0416 23:13:54.631772 22456 net.cpp:367] relu_conv_final -> conv_final (in-place)
I0416 23:13:54.632771 22456 net.cpp:122] Setting up relu_conv_final
I0416 23:13:54.632771 22456 net.cpp:129] Top shape: 100 10 3 3 (9000)
I0416 23:13:54.632771 22456 net.cpp:137] Memory required for data: 62870400
I0416 23:13:54.632771 22456 layer_factory.cpp:58] Creating layer pool_final
I0416 23:13:54.632771 22456 net.cpp:84] Creating Layer pool_final
I0416 23:13:54.632771 22456 net.cpp:406] pool_final <- conv_final
I0416 23:13:54.632771 22456 net.cpp:380] pool_final -> pool_final
I0416 23:13:54.633767 22456 net.cpp:122] Setting up pool_final
I0416 23:13:54.633767 22456 net.cpp:129] Top shape: 100 10 1 1 (1000)
I0416 23:13:54.633767 22456 net.cpp:137] Memory required for data: 62874400
I0416 23:13:54.633767 22456 layer_factory.cpp:58] Creating layer pool_final_pool_final_0_split
I0416 23:13:54.633767 22456 net.cpp:84] Creating Layer pool_final_pool_final_0_split
I0416 23:13:54.633767 22456 net.cpp:406] pool_final_pool_final_0_split <- pool_final
I0416 23:13:54.633767 22456 net.cpp:380] pool_final_pool_final_0_split -> pool_final_pool_final_0_split_0
I0416 23:13:54.633767 22456 net.cpp:380] pool_final_pool_final_0_split -> pool_final_pool_final_0_split_1
I0416 23:13:54.633767 22456 net.cpp:380] pool_final_pool_final_0_split -> pool_final_pool_final_0_split_2
I0416 23:13:54.633767 22456 net.cpp:122] Setting up pool_final_pool_final_0_split
I0416 23:13:54.633767 22456 net.cpp:129] Top shape: 100 10 1 1 (1000)
I0416 23:13:54.633767 22456 net.cpp:129] Top shape: 100 10 1 1 (1000)
I0416 23:13:54.633767 22456 net.cpp:129] Top shape: 100 10 1 1 (1000)
I0416 23:13:54.633767 22456 net.cpp:137] Memory required for data: 62886400
I0416 23:13:54.633767 22456 layer_factory.cpp:58] Creating layer loss
I0416 23:13:54.633767 22456 net.cpp:84] Creating Layer loss
I0416 23:13:54.633767 22456 net.cpp:406] loss <- pool_final_pool_final_0_split_0
I0416 23:13:54.633767 22456 net.cpp:406] loss <- label_data_1_split_0
I0416 23:13:54.633767 22456 net.cpp:380] loss -> loss
…
